ProG/pre_trained_gnn/CiteSeer.SimGRACE.GCN.pth (torch, 82739 bytes, 4 tensors)

conv_layers.0.bias f4 [100]
0	0xbe6a34c1	-0.22871687
1	0xbe9a418a	-0.30128127
2	0xbd7e38ea	-0.062065996
3	0xbe5ee87f	-0.21768378
4	0xbe8e5337	-0.27797863
5	0xbe8871a2	-0.26649195
6	0xbe2eaa10	-0.17057061
7	0xbe85c0a5	-0.2612354
8	0xbe8d50cb	-0.27600703
9	0xbe3f366c	-0.18673104
10	0xbde29eeb	-0.110654674
11	0xbe800174	-0.2500111
12	0xbe4b6ff8	-0.19866931
13	0xbe8d42ce	-0.2759003
14	0xbe3b8957	-0.1831411
15	0xbe384a67	-0.17997132
16	0xbe8a3091	-0.26990178
17	0xbe16982d	-0.14706488
18	0xbee9dc0a	-0.4567569
19	0xbdd34191	-0.1031524
20	0xbea97983	-0.3310052
21	0xbe47f49c	-0.19526905
22	0xbea3499b	-0.31892094
23	0xbe1e520d	-0.15460987
24	0xbd9c318d	-0.076266386
25	0xbdd895d2	-0.10575451
26	0xbe7428dd	-0.23843713
27	0xbe91b859	-0.2846096
28	0xbe5d14b7	-0.21589933
29	0xbea2edfe	-0.318222
30	0xbe004dd6	-0.12529692
31	0xbb40c1cd	-0.002941239
32	0xbe853059	-0.2601345
33	0xbe641222	-0.22272542
34	0xbeb26a52	-0.3484674
35	0xbe911861	-0.28338912
36	0xbe83a980	-0.25715256
37	0xbe409fbb	-0.18810932
38	0xbe7aed8d	-0.24504681
39	0xbed91fe7	-0.42407152
40	0xbe7e35b4	-0.24825174
41	0xbe50ab50	-0.2037785
42	0xbe8fdee0	-0.28099728
43	0xbe5d1ee2	-0.21593812
44	0xbe85a24a	-0.2610038
45	0xbe905246	-0.2818777
46	0xbea045ed	-0.3130335
47	0xbdeb6272	-0.11493386
48	0xbce36994	-0.027760305
49	0xbe841c84	-0.25803006
50	0xbe6525a0	-0.22377634
51	0xbe881b8d	-0.2658352
52	0xbeb465f1	-0.35234025
53	0xbe1e4d99	-0.15459289
54	0xbe3fe1e9	-0.18738522
55	0xbe0c5e5f	-0.13707875
56	0xbefd4537	-0.4946687
57	0xbe495afd	-0.19663616
58	0xbe929abb	-0.28633675
59	0xbdd761ed	-0.10516725
60	0xbe95cff5	-0.2926022
61	0xbe83c0a8	-0.25732923
62	0xbe43597e	-0.19077107
63	0xbea74dcd	-0.32676545
64	0xbeaa2d7f	-0.33237836
65	0xbe0f0200	-0.13965607
66	0xbd852425	-0.06501035
67	0xbe87a041	-0.26489452
68	0xbe0acda6	-0.13555011
69	0xbe987a24	-0.29780686
70	0xbe4d364b	-0.20040242
71	0xbe7b60dd	-0.24548669
72	0xbe49eafa	-0.19718543
73	0xbe837ec8	-0.25682664
74	0xbde841ad	-0.11340652
75	0xbdbe9088	-0.09304911
76	0xbec2497f	-0.37946698
77	0xbe732fc8	-0.23748696
78	0xbeeee78e	-0.46661037
79	0xbe2767cd	-0.1634819
80	0xbe880837	-0.26568767
81	0xbe2f8ee0	-0.17144346
82	0xbeec16f8	-0.46111274
83	0xbe83ebdf	-0.25765893
84	0xbdcda96f	-0.100420825
85	0xbeab61da	-0.33473092
86	0xbe3dc156	-0.18530783
87	0xbe79bfdf	-0.243896
88	0xbe0f307c	-0.13983339
89	0xbe3ef16c	-0.18646783
90	0xbe790e3a	-0.24321833
91	0xbecaa081	-0.3957558
92	0xbe86460e	-0.26225322
93	0xbe9b6aab	-0.3035482
94	0xbddc7a1f	-0.1076548
95	0xbd6df582	-0.058095463
96	0xbe7cc2dd	-0.2468371
97	0xbe70d7a0	-0.23519754
98	0xbe8be099	-0.27319792
99	0xbde0beef	-0.10973918

conv_layers.0.lin.weight f4 [100, 100]
0	0x3edfc4d7	0.43704864
1	0xbe35e314	-0.17762405
2	0x3df62300	0.120183945
3	0xbdcd2a9d	-0.100178935
4	0xbecfb950	-0.4057107
5	0x3de07750	0.10960257
6	0x3e1e77f7	0.1547545
7	0xbe4d8901	-0.20071794
8	0xbe988d87	-0.29795477
9	0x3e377412	0.17915371
10	0x3d2cc558	0.04218039
11	0xbeb4a96f	-0.35285518
12	0xbecbee1f	-0.3983011
13	0x3d05b749	0.032645497
14	0x3f0a1ca7	0.5394997
15	0x3eaf0215	0.34181276
16	0x3d9f1734	0.077680975
17	0xbd73675b	-0.05942474
18	0x3e86c364	0.26320946
19	0xbebcb681	-0.3685799
20	0x3e45b263	0.1930633
21	0xbeb39083	-0.3507119
22	0xbef4ae93	-0.4778944
23	0xbe68c9ee	-0.2273328
24	0xbe86efee	-0.26354927
25	0x3edff7c5	0.4374372
26	0xbf53773b	-0.82603806
27	0xbeeeed0c	-0.46665227
28	0x3e9f1449	0.31070164
29	0x3e8f0eae	0.27940887
30	0xbef5c33c	-0.48000515
31	0xbea23d7b	-0.3168753
32	0xbd074e43	-0.03303362
33	0xbe8d88aa	-0.2764333
34	0x3e802214	0.25026
35	0xbedc38cc	-0.43012083
36	0xbee82415	-0.45340028
37	0x3ec1ce14	0.37852538
38	0x3eefb5c4	0.46818364
39	0xbed7133e	-0.42006868
40	0xbd97c96f	-0.07411467
41	0x3ed43692	0.41447884
42	0x3df25bec	0.11833939
43	0xbdef531d	-0.116857745
44	0xbda52dc3	-0.08065369
45	0xbf0390e3	-0.51392955
46	0xbd1ce018	-0.03829965
47	0x3d985dab	0.07439741
48	0xbf542ab5	-0.82877666
49	0xbeeda6ab	-0.4641622
50	0x3e77c633	0.24196701
51	0xbe602b18	-0.21891439
52	0xbecbfa08	-0.39839196
53	0xbe606772	-0.21914461
54	0xbe95bb3b	-0.29244408
55	0x3f06b0cf	0.5261354
56	0x3ede7578	0.43448997
57	0x3e07f58e	0.13277265
58	0xbe9e1c29	-0.3088086
59	0xbdd60015	-0.104492344
60	0xbeac5955	-0.33661905
61	0xbf23207f	-0.6372146
62	0x3ebdc803	0.3706666
63	0x3f0c0567	0.54695743
64	0x3f24b686	0.6434101
65	0x3dc20bd5	0.09474913
66	0xbe3b9ad9	-0.18320788
67	0x3f18592e	0.5951108
68	0x3dfacf1c	0.12246534
69	0xbe5b44c7	-0.21412955
70	0xbdb7f77d	-0.089827515
71	0xbedc3fb0	-0.4301734
72	0xbe8266f9	-0.25469187
73	0xbf1de63a	-0.6167942
74	0xbe9cbbbb	-0.30611977
75	0x3f295257	0.66141266
76	0xbf15e49b	-0.5855195
77	0x3d64a4d7	0.055821266
78	0x3f948583	1.1603245
79	0x3c40783e	0.011747418
80	0xbda3f428	-0.080055535
81	0x3f0034f7	0.5008082
82	0xbd90c98c	-0.07069692
83	0x3a760d24	0.00093861134
84	0x3e94d912	0.29071862
85	0xbededcae	-0.4352774
86	0xbf0e8b4d	-0.55681306
87	0xbeab7275	-0.3348576
88	0xbd5c56b9	-0.053793643
89	0xbeece147	-0.46265623
90	0xbf45fe66	-0.77341306
91	0x3f20e662	0.62851536
92	0x3ea64e5e	0.32481664
93	0x3e63a47a	0.22230712
94	0xbf64ac19	-0.893251
95	0x3e62387d	0.22091861
96	0x3ec2e00b	0.38061556
97	0x3e3fe380	0.18739128
98	0xbea7d85d	-0.3278226
99	0xbf267ccc	-0.65034175
100	0x3f0c3ce1	0.54780394
101	0xbe3a80ba	-0.18213168
102	0x3cb82700	0.022479534
103	0xbd9fb08a	-0.07797344
104	0x3ee7a315	0.4524161
105	0x3ede5da4	0.43430817
106	0xbbf1faaf	-0.00738462
107	0xbe5635dc	-0.20918983
108	0x3d9340aa	0.07190068
109	0x3f21e068	0.6323304
110	0x3d4fe21b	0.05075274
111	0x3ea5aed5	0.3235995
112	0x3e3b49ac	0.18289822
113	0x3f1053c2	0.56377804
114	0xbf0eda0d	-0.5580147
115	0x3cce80b0	0.025207847
116	0x3e87feb0	0.265615
117	0x3d1c4e33	0.038160514
118	0xbf16a739	-0.5884891
119	0x3e411eb9	0.18859376
120	0x3d725853	0.059166264
121	0x3d312eca	0.043257512
122	0xbf541fe7	-0.8286118
123	0xbea0583f	-0.31317326
124	0xbed9c093	-0.42529735
125	0xbe2f329b	-0.17109148
126	0xbe9723d0	-0.2951951
127	0x3e18123a	0.14850703
128	0xbedcafc5	-0.43102852
129	0xbef201a2	-0.4726687
130	0x3e953317	0.2914054
131	0x3e648965	0.22318037
132	0x3e295daa	0.16539636
133	0x3eec5225	0.4615642
134	0xbed97ff7	-0.42480442
135	0x3e8a48c0	0.2700863
136	0x3f2468b8	0.6422229
137	0x3d855299	0.06509895
138	0x3f06562c	0.5247524
139	0x3e9efd5b	0.3105267
140	0x3ec14263	0.37745962
141	0xbeba1bab	-0.36349234
142	0x3eead84e	0.45868152
143	0xbf09bbb9	-0.5380207
144	0x3eb64f55	0.356074
145	0xbd601fcd	-0.054717828
146	0xbdc2ecbe	-0.09517811
147	0x3eea9573	0.45817146
148	0x3eaf15f7	0.34196445
149	0x3f135edd	0.57566625
150	0x3d9f2374	0.07770434
151	0xbefed656	-0.497729
152	0xbeaebc69	-0.3412812
153	0xbeed54cf	-0.46353766
154	0x3ef7d28c	0.48402822
155	0xbf81a091	-1.0127126
156	0xbe6bdfca	-0.23034588
157	0x3db52e79	0.088467546
158	0x3eda37d7	0.42620727
159	0xbe693c49	-0.22776903
160	0x3eb7d13c	0.3590182
161	0xbddf5a43	-0.10905888
162	0xbe30539f	-0.17219399
163	0xbf3a04b5	-0.7266343
164	0xbda20e3d	-0.07912872
165	0x3f461184	0.77370477
166	0x3cae8f51	0.021308573
167	0x3d8d8a6f	0.0691117
168	0x3e7f7e60	0.24950552
169	0x3eca666c	0.39531267
170	0x3ed93162	0.4242049
171	0x3ed0cace	0.40779728
172	0x3f17d393	0.5930721
173	0x3f348c76	0.70526826
174	0x3edd6690	0.4324231
175	0x3e4d868f	0.20070861
176	0x3e397f87	0.18115054
177	0x3e79794d	0.24362679
178	0xbe533b46	-0.2062808
179	0xbf286aca	-0.6578795
180	0x3e5c2c69	0.21501316
181	0xbf11c63b	-0.569431
182	0x3e98ee91	0.29869512
183	0xbece6c39	-0.40316942
184	0x3ea8f0ae	0.32996124
185	0xbf867214	-1.0503564
186	0x3ec92079	0.39282587
187	0xbe253b76	-0.16135964
188	0xbe4cac44	-0.19987589
189	0xbef866d3	-0.4851595
190	0xbe29aa16	-0.16568789
191	0x3d3713b9	0.044696543
192	0x3eabde68	0.3356812
193	0xbec6537d	-0.38735572
194	0xbe95aba5	-0.29232517
195	0xbf2b52be	-0.6692313
196	0xbea08ce4	-0.3135749
197	0xbf554319	-0.8330551
198	0xbcbd4bfa	-0.023107518
199	0xbeb83d63	-0.35984334
200	0x3e8628db	0.26203045
201	0x3d68b94b	0.056817334
202	0xbea985dd	-0.33109942
203	0x3e5c473c	0.21511549
204	0x3ed8ffea	0.42382747
205	0xbeb9c818	-0.36285472
206	0x3e3c6c6f	0.18400739
207	0x3ea94de1	0.3306723
208	0x3e7cf70f	0.2470362
209	0xbe8c659c	-0.27421272
210	0x3e886e65	0.26646724
211	0xbe118e29	-0.14214386
212	0x3e78c3b6	0.24293408
213	0x3e823533	0.25431213
214	0xbdb93b61	-0.09044529
215	0x3e401609	0.18758406
216	0xbd3fe29d	-0.046846975
217	0xbe870a35	-0.26374975
218	0x3e7dc473	0.2478197
219	0x3ec927c4	0.3928815
220	0xbee9f4d0	-0.4569459
221	0x3e2d2b68	0.1691109
222	0x3eedea8f	0.46468017
223	0x3f1881ad	0.5957287
224	0x3df08d28	0.117456734
225	0x3da47c8b	0.08031567
226	0x3f23f0f5	0.64039546
227	0xbdbd470c	-0.09242067
228	0xbecdba9c	-0.40181434
229	0x3f1d1d6a	0.6137301
230	0x3eb91a9c	0.36153114
231	0x3e543ed7	0.20727096
232	0x3cd58472	0.026064131
233	0xbcc3d389	-0.023904579
234	0xbe6209bf	-0.2207403
235	0x3e396697	0.18105541
236	0xbd5c7d5b	-0.053830486
237	0x3f18e75b	0.5972802
238	0x3ed70424	0.41995347
239	0xbf3e190b	-0.7425696
240	0x3e8dfa99	0.27730253
241	0xbf0cab1c	-0.5494859
242	0x3f0de310	0.55424595
243	0x3f300ac4	0.6876643
244	0xbcd8d512	-0.026468787
245	0x3ed9b2ed	0.42519322
246	0x3e707628	0.23482573
247	0x3eb1a591	0.3469663
248	0x3e9bcf02	0.30431372
249	0x3e848aeb	0.25887236
250	0xbe488d00	-0.19585037
251	0xbe19174b	-0.14950292
252	0x3e88c833	0.2671524
253	0xbe8c71a2	-0.27430445
254	0x3e33351f	0.17500733
255	0xbf012e2d	-0.50461084

conv_layers.1.bias f4 [100]
0	0x3cf95ae2	0.030438844
1	0x3e064d55	0.13115437
2	0xbafcf854	-0.0019300082
3	0xbdb3e6f6	-0.08784287
4	0x3e21f469	0.15815891
5	0xbc9380e5	-0.018005798
6	0x3e4e0a87	0.20121203
7	0x3e091b78	0.13389385
8	0x3d01ac9e	0.03165876
9	0xbd294b95	-0.041331846
10	0x3e5562a9	0.20838417
11	0xbe195f56	-0.14977774
12	0x3d7eed63	0.06223811
13	0x3cc61c1a	0.024183322
14	0x3d6db924	0.058037892
15	0x3da7b34d	0.08188496
16	0x3da69092	0.08133043
17	0x3d268e57	0.04066309
18	0xbdf033d8	-0.117286384
19	0xbd383b70	-0.04497856
20	0x3dd83960	0.105578184
21	0xbe01e565	-0.12685163
22	0xbce14db3	-0.02750287
23	0x3d9ee1ac	0.07757887
24	0x3e12f0f8	0.14349735
25	0x3c8a904c	0.01691451
26	0x3c28d8ef	0.010305627
27	0x3ce37a40	0.027768254
28	0x3c679547	0.014134712
29	0xbe0207a3	-0.12698226
30	0x3e29815b	0.16553251
31	0xbce392ff	-0.027780054
32	0x3e0356bc	0.12826055
33	0x3d49c4aa	0.04925982
34	0x3daad273	0.08340921
35	0xbddcf669	-0.107891865
36	0xbda78104	-0.08178905
37	0xbdcc13e5	-0.09964732
38	0x3e18ecf4	0.1493414
39	0x3dd6622c	0.104679435
40	0xbcef9d47	-0.0292498
41	0xbd950e13	-0.07278075
42	0x3e14169c	0.1446175
43	0xbd7a6b15	-0.061137278
44	0xbd25c8eb	-0.040474813
45	0xba743638	-0.00093159406
46	0x3cdc8498	0.026918694
47	0xbe446da5	-0.19182451
48	0xbc523395	-0.012829681
49	0xbdacabab	-0.084311806
50	0x3e103813	0.1408389
51	0x3d2fec96	0.042950235
52	0x3bbab0b9	0.0056973365
53	0xbdbf7210	-0.093479276
54	0xbdf770ce	-0.12082063
55	0xbc0c30c8	-0.008556552
56	0xbd3811b4	-0.044938758
57	0x3de7be6c	0.11315617
58	0xbde51727	-0.111860566
59	0x3dd8c73b	0.10584875
60	0x3dacb5ae	0.0843309
61	0xbdeed83c	-0.11662337
62	0xbe67dd49	-0.22643007
63	0xbd4fa1bd	-0.050691355
64	0x3dba1687	0.09086328
65	0x3ca268f8	0.019825444
66	0xbd0faa4f	-0.03507453
67	0xbdebac36	-0.11507456
68	0x3d7c0aab	0.06153361
69	0xbd884dab	-0.06655439
70	0xbe38a867	-0.1803299
71	0xbc2dd49a	-0.01060977
72	0x3db64482	0.088997856
73	0x3dcf3b8c	0.101187795
74	0xbe18a2e9	-0.14905895
75	0x3e4af992	0.19821766
76	0xbd90a85e	-0.070633635
77	0xbd5a28bd	-0.053261507
78	0xbe024ae8	-0.12723887
79	0xbd100464	-0.035160437
80	0x3dd5e5c7	0.10444217
81	0xbd68b90e	-0.056817107
82	0x3c01e783	0.007928732
83	0x3e07dd21	0.13267948
84	0x3c8c9eec	0.017165624
85	0x3c81a15d	0.015824014
86	0xbdc28a0d	-0.09498987
87	0x3d92fdee	0.071773395
88	0xbc7ccf68	-0.015430309
89	0xbdd9c8bc	-0.1063399
90	0x3dc71801	0.09721375
91	0x3e336ab1	0.17521168
92	0x3df6ea5e	0.12056421
93	0x3df388c6	0.11891322
94	0xbd2315a5	-0.039815564
95	0xbbd46e90	-0.0064829066
96	0xbd138854	-0.036018685
97	0xbe40650a	-0.18788543
98	0x3c9dadd7	0.019247932
99	0xbd46cae8	-0.04853335

conv_layers.1.lin.weight f4 [100, 100]
0	0xbf04b73d	-0.518421
1	0xba3ac209	-0.00071242504
2	0x3ded2fa5	0.11581353
3	0xbe8434fc	-0.25821674
4	0x39062dd3	0.00012796307
5	0x3e614d4d	0.22002144
6	0x3dcb404f	0.09924375
7	0x3f0b223c	0.5434911
8	0xbd4fad2c	-0.05070226
9	0xbe984185	-0.29737487
10	0xbc70ca75	-0.014696707
11	0x3e67fea3	0.2265573
12	0x3d90031e	0.070318446
13	0x3e4a9d80	0.19786644
14	0xbd40cff6	-0.047073327
15	0xbecb0806	-0.3965456
16	0x3e8c219b	0.2736939
17	0x3de9200e	0.11383067
18	0xbee052d8	-0.43813205
19	0xbec744fa	-0.38919812
20	0xbe9d0fb4	-0.30676043
21	0xbee846ad	-0.4536642
22	0x3ec46c79	0.38364008
23	0xbe8843ea	-0.26614314
24	0x3e285fa2	0.16442731
25	0xbdd9da55	-0.10637347
26	0xbee3804d	-0.44433823
27	0xbd8fedca	-0.070277765
28	0xbd092596	-0.03348311
29	0x3eedd887	0.4645426
30	0x3d365bd6	0.044521175
31	0xbe8ec65c	-0.2788571
32	0x3e4a0e82	0.19732097
33	0xbe82aa33	-0.25520477
34	0x3edfe3b3	0.43728408
35	0x3df7c594	0.12098232
36	0xbea59024	-0.32336533
37	0xbe01ffc7	-0.12695228
38	0x3e813777	0.2523763
39	0xbe8e92f2	-0.27846485
40	0x3e18dc20	0.14927721
41	0xbddeccbf	-0.10878896
42	0x3deef763	0.11668279
43	0x3ec846b1	0.39116433
44	0x3def9023	0.11697414
45	0xbe99e75f	-0.30059335
46	0xbe9ccd3e	-0.30625337
47	0x3de50fc7	0.1118465
48	0x3ec04d51	0.37558988
49	0xbd751c35	-0.059841353
50	0xbe213088	-0.1574117
51	0x3e3ba297	0.18323742
52	0x3f204795	0.62609226
53	0x3de07ae6	0.10960941
54	0x3e80b690	0.25139284
55	0xbd0af872	-0.033928342
56	0xbeb06980	-0.3445549
57	0xbd8feb98	-0.07027358
58	0xbc689582	-0.014195802
59	0x3f5053d0	0.8137789
60	0xbdd51459	-0.10404272
61	0x3cdb2e1b	0.026755383
62	0xbe3ef218	-0.18647039
63	0x3dc8bfc4	0.098022014
64	0xbe63ecd6	-0.22258314
65	0x3e8a3933	0.26996765
66	0x3ca49396	0.020089906
67	0x3eded18b	0.43519244
68	0xbe97b10d	-0.29627267
69	0xbdab20ad	-0.08355842
70	0x3d031081	0.03199816
71	0xbe3bc85f	-0.18338154
72	0x3e9d00be	0.3066463
73	0x3dacc779	0.08436484
74	0xbebf8355	-0.37404886
75	0xbe92a960	-0.28644848
76	0xbd0301fa	-0.031984307
77	0xbe21f010	-0.15814233
78	0x3f189976	0.5960916
79	0x3f08ef3b	0.53490037
80	0xbe87fd6c	-0.26560533
81	0x3e03374b	0.12814061
82	0xbc2fd874	-0.010732759
83	0xbe4b71ff	-0.19867705
84	0xbe91b015	-0.28454652
85	0xbe96cd83	-0.29453668
86	0x3e7ca794	0.24673301
87	0xbe0288fb	-0.12747566
88	0x3e252dac	0.16130704
89	0x3e475105	0.194645
90	0x3d308bf8	0.043102235
91	0xbeafd476	-0.34341782
92	0xbd8e3628	-0.06943923
93	0xbe7cec0e	-0.24699423
94	0xbdbc60e6	-0.091981694
95	0xbecad9fd	-0.39619437
96	0x3f2616c9	0.6487852
97	0xbefa8dab	-0.4893621
98	0x3e2da75a	0.16958371
99	0x3f137231	0.5759612
100	0xbeb431f3	-0.35194358
101	0x3e4f6332	0.20252684
102	0x3e267486	0.16255388
103	0xbee9f2b4	-0.4569298
104	0xbe4706e8	-0.19436228
105	0x3d4a6d43	0.049420606
106	0x3f1f0427	0.6211571
107	0x3cbf9e9a	0.023391057
108	0xbe87a466	-0.26492614
109	0xbe9e7730	-0.30950308
110	0x3e8266d5	0.2546908
111	0xbc8af4eb	-0.01696249
112	0x3d7afd67	0.06127682
113	0xbda66881	-0.08125401
114	0x3e258b9a	0.16166535
115	0xbe95d47e	-0.2926368
116	0x3e128e76	0.14312157
117	0x3e0fae06	0.14031228
118	0xbe65ff65	-0.22460707
119	0xbeee4225	-0.4653484
120	0xbc396229	-0.011314907
121	0xbe5aac62	-0.21354821
122	0x3dc1062f	0.094250076
123	0x3eb165d3	0.34647998
124	0x3e3cd9fd	0.18442531
125	0x3e5b96fc	0.21444315
126	0xbd84a26c	-0.06476292
127	0xbe9ac981	-0.3023186
128	0xbb52fe26	-0.0032194941
129	0x3e2ef094	0.17083961
130	0x3dbf3da3	0.09337928
131	0x3d45cb7f	0.048289772
132	0xbe09198b	-0.1338865
133	0x3e410b06	0.18851861
134	0x3de0a5a7	0.10969096
135	0x3e6fc0af	0.23413347
136	0xbcd4216a	-0.02589484
137	0xbe03a4dd	-0.12855859
138	0xbeba346f	-0.3636813
139	0xbdd4c757	-0.103895836
140	0xbc08c9de	-0.00834891
141	0xbecfc488	-0.4057963
142	0xbde8ad0c	-0.11361131
143	0x3d9b6e3c	0.07589385
144	0x3df3fd3f	0.11913537
145	0xbe2061d0	-0.15662313
146	0x3d6b7ebd	0.057493914
147	0x3ed35e7e	0.4128303
148	0xbce76266	-0.028245162
149	0x3df154bc	0.1178374
150	0xbe107b07	-0.14109431
151	0x3e63dfed	0.2225339
152	0x3e843979	0.25825098
153	0x3e299e50	0.16564298
154	0xbd6b1435	-0.057392318
155	0xbdf98643	-0.121838115
156	0xbdd06252	-0.10175003
157	0x3dcfe223	0.10150554
158	0x3dd442b9	0.10364289
159	0x3f070214	0.52737546
160	0xbe1543c0	-0.14576626
161	0x3e2a0133	0.1660202
162	0xbdb08b0b	-0.0862027
163	0x3e526911	0.20547892
164	0xbb926432	-0.0044675106
165	0x3e4ccf9d	0.20001073
166	0x3e932731	0.28740838
167	0x3e87af54	0.26500952
168	0xbd9dffb6	-0.077147886
169	0xbd0ed114	-0.03486736
170	0x3e8a70f5	0.27039304
171	0xbe56e8e3	-0.20987277
172	0xbdb8a275	-0.09015361
173	0x3e847640	0.25871468
174	0xbdf86c39	-0.12130017
175	0xbe8b7eef	-0.2724528
176	0xbe917060	-0.28406048
177	0x3ddd7523	0.10813358
178	0x3e94f7f7	0.29095432
179	0x3eb42bc3	0.35189638
180	0x3e6eee2a	0.2333304
181	0x3e79e9d8	0.2440561
182	0xbd99ba59	-0.07506246
183	0x3c6c4565	0.014420842
184	0x3ccfe579	0.025377976
185	0xbd0f955c	-0.03505455
186	0xbcbebcfd	-0.023283476
187	0xbed244a4	-0.41067994
188	0x3e47f26c	0.1952607
189	0x3dd16111	0.10223592
190	0x3e94d30d	0.2906727
191	0xbd815232	-0.06314506
192	0xbdbaa61c	-0.09113714
193	0xbb6be161	-0.003599249
194	0x3e0529d6	0.1300424
195	0x3c9a118b	0.018807193
196	0x3d3a8644	0.045538202
197	0xbea6d420	-0.32583714
198	0xbdc26a61	-0.094929464
199	0x3e51af4d	0.20477028
200	0x3f0592c7	0.5217709
201	0xbeb5487f	-0.35406873
202	0x3d041813	0.03224952
203	0x3d5cbca8	0.053890854
204	0x3e7f1fd7	0.2491449
205	0xbec1862c	-0.37797678
206	0xbe5105de	-0.20412394
207	0xbeffcc34	-0.49960482
208	0x3df7edeb	0.12105926
209	0x3e545d8e	0.20738813
210	0xbd9d2eac	-0.076749176
211	0xbdba3c29	-0.09093506
212	0x3e33ea60	0.17569876
213	0xbe2b276f	-0.16714261
214	0xbe827856	-0.25482434
215	0x3e3a56fc	0.18197244
216	0x3d9bb95a	0.076037124
217	0x3d5c87af	0.053840335
218	0x3e836cd0	0.25668955
219	0x3e986ed7	0.29772064
220	0x3eb35be9	0.3503106
221	0x3e93c7de	0.28863424
222	0xbe6c2357	-0.23060356
223	0x3edd9cab	0.4328359
224	0xbd736ee1	-0.059431914
225	0x3d6e310e	0.05815225
226	0x3ead2de8	0.33824086
227	0xbd9e0ae6	-0.077169225
228	0x3e54416d	0.20728083
229	0xbe9641d2	-0.29347092
230	0xbe176996	-0.14786372
231	0x3e1f43d6	0.15553221
232	0xbd8bc4e2	-0.06824662
233	0x3e6d926e	0.2320039
234	0xbee6b4d1	-0.45059827
235	0x3ddb0ef3	0.10696211
236	0x3e606a22	0.21915486
237	0x3e302153	0.17200212
238	0xbd1ba5a8	-0.03799978
239	0x3d7216d5	0.059103806
240	0xbece5d2a	-0.40305454
241	0x3e10235d	0.1407599
242	0xbd1baadc	-0.03800474
243	0xbf01b3ab	-0.50664777
244	0xbdd6130d	-0.104528524
245	0xbc2a4cf4	-0.010394324
246	0xbd58ca7f	-0.05292749
247	0xbe4e16d9	-0.20125903
248	0xbf47f51e	-0.78108394
249	0xbda82af3	-0.08211317
250	0x3e53b8aa	0.20675912
251	0xbe08dc3a	-0.1336526
252	0xbf1c936f	-0.61162466
253	0xbe05d99b	-0.13071291
254	0xbed7f61b	-0.4217995
255	0xbce9ace3	-0.028524822
