ProG/pre_trained_gnn/CiteSeer.GraphCL.TransformerConv.pth (torch, 329015 bytes, 16 tensors)

conv_layers.0.lin_key.weight f4 [100, 100]
000000 91 0f 85 bd 38 62 6a 3b 30 8a 86 bd 82 74 0d 3d
       -0.0649711 0.003576411 -0.06569326 0.03453494
000010 7b 8e 14 bd 1a ea 03 3d e5 64 0d 3e db bf 84 3d
       -0.036268692 0.03220568 0.1380802 0.06481906
000020 58 00 0e 3c 18 fb f5 bd 83 a4 99 bd 51 e6 fe bd
       0.008667074 -0.12010783 -0.07502081 -0.12446273
000030 5f 66 61 bd d1 54 75 3d 88 82 11 3e 81 8a 84 3d
       -0.05502927 0.05989534 0.1420995 0.0647173
000040 ec d3 5a bd 2d 15 81 3d 7b 35 b6 bb f4 b2 f8 3c
       -0.05342476 0.06302867 -0.0055605746 0.030358769
000050 25 8a d8 3b 4f 02 f0 bc 14 a3 ca bd 02 1c 39 3c
       0.006608265 -0.029297976 -0.09894386 0.0112981815
000060 9b b8 f6 bc 47 8e 08 3d d0 93 9e bd bf 70 84 bd
       -0.030117324 0.03333881 -0.07743037 -0.06466817
000070 4e 12 34 bd c6 58 c7 bc 64 4d 92 bd 9f 5a 8c 3c
       -0.04396277 -0.024334323 -0.07143667 0.017133055
000080 f4 de 06 bd 90 d3 00 3d fd 23 8e 3b f6 1c ee bd
       -0.03292747 0.03145176 0.004337786 -0.116266176
000090 c7 a6 4a 3c 53 01 37 3b a3 fe 34 3d 20 b8 5a bd
       0.012368864 0.0027924373 0.044188153 -0.05339825
0000a0 cd 92 ee 3c 1e 13 e0 bc 87 6a c5 bc b6 a7 95 3d
       0.029122734 -0.027352866 -0.024098648 0.07307379
0000b0 4f ef c1 3b 39 18 04 bd c7 79 ef 3c f9 6e 44 3d
       0.0059184204 -0.032249663 0.029232873 0.047957394
0000c0 03 4b 81 bd 7f 17 0c bd 25 83 64 bd 3b 93 d5 3c
       -0.063131355 -0.034202095 -0.05578913 0.026071182
0000d0 39 a0 81 bd d0 bf d6 bd ce 11 17 bd 4b 66 44 3c
       -0.06329388 -0.10485804 -0.036882214 0.011987279
0000e0 32 2a a4 3d a7 70 04 bd 17 ab 95 3d 1b f7 50 bd
       0.080158606 -0.032333996 0.073080234 -0.05101691
0000f0 02 99 5f bc 6c fa 94 3d 51 74 b7 bb cc 19 18 3d
       -0.01364732 0.07274327 -0.005598583 0.037133977
000100 6b e5 df bd 51 2d 83 bd 99 f1 70 bd 2f 22 28 bd
       -0.1093243 -0.06405128 -0.058824155 -0.041048225
000110 10 a9 14 bd 09 c1 e2 b9 71 05 3b bd d7 8b ff 3d
       -0.036294043 -0.00043249902 -0.045659486 0.12477844
000120 a4 e2 7f bc 09 c7 66 bc 12 66 0c 3c dc 1d 25 3d
       -0.015618 -0.01408554 0.008569257 0.04031168
000130 7e 4b b6 3c 45 78 d4 3c 6e 8d 34 3c bf 1e cf 3c
       0.022252794 0.025936255 0.011020048 0.025283216
000140 f6 81 bd 3d 26 bf 9f 3b 95 d1 8f bb 97 99 48 bc
       0.09253304 0.0048750816 -0.004388998 -0.01224365
000150 32 1e 12 3d b7 1b af 3d 2b 6a 95 bc bd b5 d5 3c
       0.035673328 0.08550208 -0.018239101 0.026087636
000160 58 05 38 3d 65 1f 88 bc 88 02 2b 3d 33 4e e0 3c
       0.04492697 -0.016616533 0.04175046 0.027381038
000170 9e b6 c1 3d e9 f2 88 3d 4f 51 f5 3c ae 16 65 3c
       0.094586596 0.066869564 0.029945998 0.013982458
000180 c3 21 9e ba 53 50 2b 3b e1 82 05 3d 10 7d 1d 3d
       -0.0012064505 0.0026140406 0.03259552 0.038449347
000190 19 14 c9 bd f5 b1 15 3e 5e bf b5 bc 6b f6 3d 3d
       -0.098182864 0.14618666 -0.022185978 0.04637758
0001a0 d2 3f ec bd bb 86 e5 3c 9a b2 1d be 46 86 2e 3c
       -0.1153561 0.028018346 -0.15400162 0.0106521305
0001b0 d5 98 0b 3e 70 26 c0 3d 02 4b 44 be 59 7d 04 3e
       0.1363252 0.09382331 -0.19169238 0.12938441
0001c0 68 cb 4f bd c5 fe 21 bd be 65 57 bd 2d 38 87 3d
       -0.050731093 -0.039549608 -0.052587263 0.066025116
0001d0 45 f2 e9 bd a3 ef 37 bb 6d 30 d6 bd 87 05 6a bd
       -0.11423162 -0.0028066419 -0.10458455 -0.057134178
0001e0 5b 22 b3 3c b4 dd 81 3d 2b 95 cb bd db a0 e4 3d
       0.021866968 0.06341115 -0.09940561 0.11163493
0001f0 23 78 3b bc f6 c4 51 bc 9e 8e df bd a2 10 62 bd
       -0.011442217 -0.012803307 -0.10915874 -0.055191644
000200 8e 18 4a bc c2 8e d0 3d 06 2e 02 3d 2a 24 d2 3c
       -0.012334956 0.10183479 0.031782173 0.02565201
000210 20 ab f8 bc 9f 0d b7 3c 44 6f a9 3d 19 d7 cf 3c
       -0.030355036 0.022345362 0.08273175 0.025371121
000220 43 1f f3 bd ba 70 24 bd e1 df ab 3d 2d 88 eb 3d
       -0.11871197 -0.040146567 0.08392311 0.11500583
000230 a5 91 a6 bc aa 35 fa 3d 20 b7 93 3d fd 10 59 3d
       -0.02033312 0.12217267 0.07212663 0.052994717
000240 aa de 0c 3d 0c b0 06 bd 3f 2c 81 3d 24 ab ca 3d
       0.034392036 -0.032882735 0.063072674 0.09895924
000250 b5 f1 23 3c b7 bd 6a 3d 50 02 37 be 2c 3e 15 3e
       0.010006358 0.057309832 -0.17871976 0.14574498
000260 fa 12 40 bd c8 50 04 bd fc 7b c2 3d 4b f4 8a bc
       -0.046893097 -0.0323036 0.094963044 -0.016962191
000270 fd 67 b4 bd aa 51 09 3e b8 82 de 3d 7a 10 b9 bc
       -0.08808897 0.13410059 0.108647764 -0.022590864
000280 5d b8 bd bd ba 0f f6 bd fd 8c 09 bc fe 4a 29 3d
       -0.0926368 -0.12014718 -0.008395431 0.041331284
000290 27 43 ae 3c f5 f4 cf 3c 48 64 a8 3d f6 d9 22 bd
       0.021272255 0.02538536 0.08222252 -0.039758645
0002a0 45 74 96 3d 96 a4 0d 3d 85 61 1e bd 69 65 27 3d
       0.073463954 0.03458079 -0.03866722 0.040868197
0002b0 66 b2 24 3d 99 9d fd bc dd 04 ad bd fd ac 3b 3d
       0.040209197 -0.030958937 -0.08448193 0.04581927
0002c0 16 a3 81 3d 5d 6c 92 bd 60 53 6d bc 6a 55 80 3d
       0.06329934 -0.07149575 -0.01448521 0.062662914
0002d0 43 ee 14 be 15 05 98 bd 48 ce b4 3b ab 66 73 bd
       -0.14544015 -0.07422844 0.0055177547 -0.059424084
0002e0 92 6b 31 3a 06 f3 8f 3c 23 93 10 bd 4f 99 a9 3b
       0.00067680434 0.017571937 -0.03529657 0.0051757465
0002f0 a6 81 24 bd 0c a7 da 3c ab 21 d2 3c 01 2d 92 3c
       -0.040162705 0.026690982 0.02565082 0.017843725
000300 1e 30 3d 3c df 76 9d bd 93 9b 09 3e da 69 9f 3d
       0.011547117 -0.076886885 0.13438253 0.077838615
000310 af 9e 8a 3d c8 96 8d b9 bd 8a d7 bd b0 31 9f 3c
       0.06768548 -0.00027005957 -0.10524509 0.019432873
000320 f4 81 52 3d 7d a2 98 bc 49 a7 83 3d 62 6e 3f bd
       0.051393464 -0.018632168 0.064283915 -0.04673613
000330 7e 6c fc bd d5 2a fa bc 2a 36 81 3d 8b 6e 7b bc
       -0.12325381 -0.030538002 0.06309159 -0.01534618
000340 3c ab 06 3d 7c 06 0c 3d c5 60 1b 3d de 7a 1b be
       0.032878146 0.03418587 0.037934083 -0.15183589
000350 ac cf 8d 3b 9d e5 0a be 5e 33 4b 3d 40 06 6e bd
       0.004327735 -0.13564153 0.049609534 -0.05811143
000360 68 0f 69 3d fa e7 a8 3d 73 81 e7 3d d2 f8 bd bc
       0.05689946 0.08247371 0.11303987 -0.023189936
000370 e2 04 2c 3d 7f f6 87 bd bb c9 57 3b 0a 31 9f bd
       0.041996844 -0.06638812 0.0032926637 -0.07773025
000380 63 aa 90 bd a7 3c 72 bd 55 e1 10 bc 9e 97 ba 3c
       -0.07063749 -0.059139874 -0.008842786 0.022777375
000390 44 13 9c bd 4d 74 a3 bd 01 c6 29 3c 7d 0c 10 3d
       -0.07620862 -0.07981167 0.010362149 0.03516816
0003a0 f6 81 bf bd 57 95 90 bc 39 a3 ac bd 17 dc 78 3c
       -0.0935096 -0.017649336 -0.0842957 0.015189192
0003b0 9e 8c 26 3e 08 24 03 3e fa 95 a4 bd 63 b6 88 bd
       0.16264579 0.12806714 -0.08036418 -0.066754125
0003c0 d9 db f0 bd 20 4a 57 bd e5 7b 87 bd 0f 26 94 bd
       -0.117606826 -0.052560925 -0.06615428 -0.072338216
0003d0 a1 9a 9c bd 24 12 19 3c 62 6e e0 bc 70 b7 23 bd
       -0.076466806 0.009342704 -0.027396385 -0.03996986
0003e0 b1 fc c3 bd 82 5e 87 bd 78 3a 8e 3d fd ca 07 be
       -0.095696814 -0.06609823 0.06944746 -0.13261028
0003f0 29 0c 70 3c 05 52 ed 3d 55 f0 96 3d 9c 98 b4 bd
       0.014651337 0.115879096 0.073700584 -0.088181704

conv_layers.0.lin_key.bias f4 [100]
000000 e8 54 2c 38 94 a2 fb 38 15 2f 84 39 a0 4f 7b b9
       4.108707e-05 0.00011998895 0.0002521208 -0.00023966888
000010 6a ad de 38 00 f2 4d b6 3e a1 97 38 6e d7 88 b9
       0.00010618086 -3.0688243e-06 7.230275e-05 -0.0002610045
000020 92 04 97 38 8c f2 dd b8 80 53 73 39 e8 70 84 b8
       7.2010924e-05 -0.00010583279 0.00023205392 -6.315281e-05
000030 fe 80 fa b9 11 8e b7 39 43 c9 12 b9 a6 45 78 b8
       -0.00047779822 0.00035010328 -0.00013998621 -5.9192673e-05
000040 10 35 0d 39 80 2a 83 b9 6d 89 31 38 69 c6 0d 39
       0.00013466575 -0.00025017932 4.2328076e-05 0.00013520721
000050 ac d4 d6 b9 76 1a 89 b9 0d d0 bb 39 d0 93 17 b8
       -0.00040975714 -0.0002615039 0.0003582243 -3.6138867e-05
000060 60 0f c3 37 d9 7c ab 39 b6 9a 0d 38 38 24 c8 b7
       2.3252971e-05 0.0003270868 3.3761105e-05 -2.3858724e-05
000070 49 b4 d7 39 9a 54 16 b9 5c 1e dd 39 f4 bc 67 b7
       0.00041142319 -0.00014336631 0.00042175024 -1.3812667e-05
000080 c2 ee 7f b8 b6 1e 07 39 79 37 a6 b8 cd b5 2d b8
       -6.10191e-05 0.00012886044 -7.9258294e-05 -4.141573e-05
000090 05 30 d2 39 f0 6c 5e b7 f7 8a 96 39 88 bd 37 39
       0.000400901 -1.3257595e-05 0.00028713766 0.00017522846
0000a0 b2 36 42 b8 2a 59 98 b9 da 9f 97 b8 13 f0 c1 b8
       -4.6304143e-05 -0.00029058132 -7.230016e-05 -9.2476745e-05
0000b0 5c 4b b4 b9 be 4f 37 b8 08 4d c8 37 f0 ec ab b9
       -0.00034388423 -4.3704866e-05 2.3877728e-05 -0.00032792194
0000c0 9d 75 ed b9 be 70 82 38 ce 5a 2e b8 c1 90 82 b9
       -0.0004529179 6.219883e-05 -4.15694e-05 -0.00024903382
0000d0 2d 6a fe 39 0a cf 96 37 3c 59 9d 39 74 b1 ea 38
       0.00048525762 1.7977804e-05 0.00030011858 0.00011191043
0000e0 f9 a8 da 39 d8 a2 c7 b9 e8 4b 85 b7 54 3f 66 b9
       0.00041706095 -0.00038077566 -1.5890182e-05 -0.00021958101
0000f0 1c dc 3f b9 8c 95 6d 39 ea c5 cc b8 60 59 a5 b9
       -0.00018297177 0.00022657792 -9.7643424e-05 -0.00031537842
000100 06 21 05 ba 18 56 96 39 9b fe 0a ba ef c3 3d 39
       -0.0005078468 0.00028674374 -0.00053022214 0.00018097436
000110 20 53 a2 b9 48 78 94 39 0d 01 1d 38 c9 a2 ab 39
       -0.0003096098 0.00028318376 3.7432696e-05 0.00032736946
000120 7d d8 95 b8 e0 a0 32 b9 34 bd bf b8 78 59 81 b9
       -7.145198e-05 -0.00017035333 -9.1428315e-05 -0.00024671457
000130 e4 eb dc b7 aa c0 bc 37 a4 0f 8f b7 a2 6f ab 39
       -2.6335889e-05 2.2501063e-05 -1.7054212e-05 0.00032698835
000140 b5 68 c7 b8 78 b2 5c 39 f8 31 3a 39 6c 9e 0d b9
       -9.508563e-05 0.0002104732 0.00017756957 -0.00013505825
000150 50 f3 ae 39 8f f7 65 39 f9 29 63 b9 1a c0 d8 b9
       0.00033369148 0.00021931365 -0.00021664043 -0.00041341857
000160 85 32 b9 39 45 3d df b9 04 19 35 b8 0c 67 ae 37
       0.0003532359 -0.00042579524 -4.317706e-05 2.0790401e-05
000170 38 47 b8 b6 6e 1b a1 b8 9b 43 1c 39 a1 b2 39 b9
       -5.4919183e-06 -7.6821874e-05 0.00014902504 -0.0001770952
000180 48 11 d8 b9 5e ea 8a 39 56 ec 48 38 58 90 90 39
       -0.00041211606 0.00026496028 4.790382e-05 0.00027573365

conv_layers.0.lin_query.weight f4 [100, 100]
000000 5f c3 56 3d e2 e1 22 be 10 e3 77 bd c5 4e a4 3c
       0.052432414 -0.1590648 -0.060519278 0.020057091
000010 81 99 a4 bd 71 0c c6 bd ee b8 9c 3d 0b 73 3a bd
       -0.08037091 -0.09670342 0.0765246 -0.04551987
000020 f6 99 cf 3d 14 cb f7 bb a0 8e 65 3d 96 7d 00 3e
       0.101367876 -0.0075620506 0.05604422 0.12547907
000030 7c 1b 82 3b ec 38 29 bd 5c 53 b7 3c 07 4d ba bd
       0.0039705615 -0.04131405 0.022378616 -0.09096723
000040 b2 51 4d bd bd 80 aa bd c5 6e a1 bd ff 4e 43 bd
       -0.05012674 -0.08325336 -0.07882456 -0.04768276
000050 d2 5a 8d bc 2a 2a e2 3c ed 0d 20 3d 64 33 85 3d
       -0.01725522 0.027607996 0.03907578 0.065039426
000060 14 35 a9 bc f7 e3 85 bc 34 1a a1 bd 24 14 cc bd
       -0.020655192 -0.016344054 -0.07866326 -0.09964779
000070 e6 fc 96 bd 3c aa 82 bc c9 5c e1 bc 35 49 c7 3c
       -0.07372455 -0.015950315 -0.027510064 0.0243269
000080 ac ab c4 bc a3 d9 10 3d 27 5f 95 3d 66 af b9 3d
       -0.02400764 0.035363805 0.072935395 0.09066658
000090 4b 7c bd 3b ee d6 53 3d 48 a9 01 bd 21 a5 7f bd
       0.005782639 0.051718645 -0.03165558 -0.06241334
0000a0 9f 15 10 3d 2e 4b 7a 3b 54 51 76 3d 29 28 5e 3d
       0.03517687 0.0038191783 0.060136154 0.05423752
0000b0 7b 72 8d bc 56 f4 c7 3d a8 8c 68 3d 81 90 84 bb
       -0.017266503 0.097634 0.056774765 -0.0040455465
0000c0 09 90 02 3d 9e 63 15 3d e0 59 93 bc 7b b4 23 3d
       0.031875644 0.036471955 -0.017987192 0.03996704
0000d0 0c 03 b8 bc 2a 3c bd bc 3f 08 b9 3c 6e 73 96 bd
       -0.02246239 -0.023099978 0.02258694 -0.07346235
0000e0 7d 0e 30 bd 9d 0b ba bc 88 72 64 3c 98 e7 49 bc
       -0.042982567 -0.022710616 0.013943322 -0.012323283
0000f0 b0 b5 92 bd e9 57 7a bd b9 37 96 bd d2 9a c9 3c
       -0.071635604 -0.061118994 -0.07334847 0.024609957
000100 17 fc 0f bd 90 fb 90 3d e3 a8 64 3d 28 ca 51 bd
       -0.03515252 0.07079232 0.055825125 -0.05121818
000110 72 f6 2d 3d 69 45 06 bd 23 1a b7 bd 90 03 8c 3d
       0.042471357 -0.03278104 -0.08940532 0.06836617
000120 22 4f d7 3c ea d2 59 bb 4b 4f cf 3d 59 16 7a 3d
       0.02628285 -0.0033237287 0.10122546 0.06105647
000130 47 19 69 3d 86 21 74 3b e2 79 eb 3c 36 56 a7 bd
       0.056908872 0.0037251427 0.028744642 -0.0817074
000140 df a1 dd 3d ff 46 dc 3b 95 d5 94 3c f9 b7 21 3d
       0.1082189 0.0067223306 0.01816825 0.03948209
000150 aa 61 89 3d 91 62 eb bc 93 6f 0e 3d a0 09 67 3d
       0.06708081 -0.028733524 0.034774374 0.056405663
000160 ea ad 18 3c 9b fe 7f bc 43 15 99 bb 6f 5f 7d 3d
       0.009318808 -0.0156246675 -0.004671724 0.06185859
000170 c1 0c 99 3b 99 98 4c 3d b2 e5 87 bc 2e f7 ca bc
       0.00467071 0.049950216 -0.01658902 -0.024776068
000180 0a 54 a4 bd be 71 b4 3c bc 19 5a 3c 76 48 1e bc
       -0.08023842 0.022026893 0.0133118 -0.009660831
000190 75 47 8f bd f3 3e 11 3e a6 f7 34 be 81 61 14 be
       -0.06996051 0.1418417 -0.17672595 -0.1449032
0001a0 d5 af c5 bd 98 60 7b 3c 76 41 41 be 44 68 31 3e
       -0.09652678 0.015342854 -0.18872628 0.1732493
0001b0 4d bb 8f bd 9d a0 cc 3c 82 8e 60 bd 78 23 a8 3c
       -0.07018147 0.02497893 -0.054823406 0.020524725
0001c0 24 cb c7 3d 16 29 fa 3d 14 39 64 3d 3a e7 a5 3b
       0.09755543 0.12214868 0.055718496 0.0050629647
0001d0 97 e5 12 bd 7b cb ff 3d e7 5e bf bc e2 fb 59 bd
       -0.035863485 0.12489983 -0.023360683 -0.05321873
0001e0 bf 4e 0e be dc 38 3f bd a4 60 43 3c 32 0e 2c 3d
       -0.13897227 -0.046685085 0.011924896 0.042005725
0001f0 3a 7a ea bd f4 24 aa 39 75 02 fd bc 4c c1 0a be
       -0.11449094 0.0003245246 -0.03088496 -0.135503
000200 cc 5f 9e 3c 69 cb 9c bc 15 e0 ac 3d d2 3f 95 bd
       0.019332789 -0.019139962 0.08441178 -0.072875634
000210 5c fa 04 3c 69 7a 05 3d 0c 4d e8 3b 1e b5 91 bd
       0.008116331 0.032587443 0.007089263 -0.071146235
000220 fb 4e dc bc d6 7c 9f 3c e9 b8 93 3c d0 48 a8 3b
       -0.02689313 0.019468706 0.018032508 0.005135633
000230 ce 63 56 3d 7e ee 0d be 33 cc 15 bd b4 96 35 3d
       0.052341275 -0.13860509 -0.036571693 0.044333175
000240 a0 e1 88 3c e2 a8 9f 3d 70 e8 61 3d 7a 56 a8 bb
       0.016709149 0.07795884 0.05515331 -0.005137262
000250 19 02 a0 3d be cf c7 3b b2 65 97 bd 49 c4 e0 3b
       0.078129 0.006097763 -0.07392444 0.0068593365
000260 de 46 29 3d 13 a3 86 bd bd b5 10 bd 94 74 ea 3c
       0.04132735 -0.06574073 -0.03532957 0.028620042
000270 39 47 2f 3d f7 b6 4b 3d d0 28 e2 3c 7e 8d 2a bb
       0.042792533 0.049735036 0.027607352 -0.0026024277
000280 4d 06 f4 3d db 6d 03 3d 41 23 eb 3c d3 60 ad 3d
       0.11915264 0.03208719 0.028703334 0.084657334
000290 f8 b9 87 3c 7f 8d 65 bc 89 28 77 3c 6d 3b a6 3d
       0.016568169 -0.014010786 0.015085348 0.08116803
0002a0 52 be 61 3d a1 2b 11 3d 13 37 83 3c 34 75 23 bd
       0.055113144 0.035442 0.016017472 -0.039906695
0002b0 f3 6a dc 3c 13 ba a2 3d ce b7 a8 3c cb c3 85 bc
       0.026906466 0.07945647 0.020595457 -0.016328713
0002c0 6c c4 37 bb e4 71 cc 3b bd 59 2f 3d 5a f4 8b bd
       -0.002804066 0.0062391628 0.04281019 -0.06833716
0002d0 9c 50 da 3c 69 f4 f5 bc ea 66 00 3d 46 04 99 3b
       0.026649766 -0.03002377 0.031348146 0.004669699
0002e0 50 a0 bb bc 1b be bd 3b a0 b8 6a bd 29 06 3d 3c
       -0.022903591 0.0057904846 -0.05730498 0.011537113
0002f0 60 33 15 3d d3 63 48 bc 2e 53 07 3e 7d 26 14 3d
       0.03642595 -0.012230831 0.13215324 0.036169518
000300 77 c9 b7 3b 78 28 7e bc 1f 6e 8b 3d 9a 0b bf bc
       0.0056087333 -0.015512578 0.06808113 -0.023320962
000310 96 ad 5d 3d f4 cf 82 bd bc 0d 8f 3d a2 13 93 bd
       0.054120623 -0.0638732 0.069850415 -0.07181479
000320 07 7a 3d 3e 1a d2 0a be 54 ed 4d 3d e0 20 85 3c
       0.18503581 -0.1355671 0.05027516 0.016251028
000330 e5 2a 0e 3d ff c8 af bd 2d 72 84 3d b0 ee c3 bd
       0.034708876 -0.08583259 0.0646709 -0.095670104
000340 17 00 4b bd de df 54 bc 43 65 23 bc b9 24 19 be
       -0.049560633 -0.012992827 -0.009972873 -0.14955415
000350 ed f1 81 3d 12 9d bb 3c 12 6c 40 3d 58 6f 85 bb
       0.06344972 0.022902045 0.046978064 -0.004072111
000360 69 f1 24 bc 5d 18 5d bd 0a 8b ff bc 05 c6 49 3d
       -0.010067322 -0.053978313 -0.031194229 0.04926111
000370 e5 03 95 3d 1f 8d b4 bc 04 56 fd 3c 73 27 ad bd
       0.072761334 -0.022039948 0.030924805 -0.0845479
000380 b2 7f a9 3d 0e 57 4b 3b 32 8a 02 be 97 82 88 bd
       0.08276309 0.003102723 -0.1274803 -0.06665533
000390 6b a2 a7 bd 39 38 15 bd 10 5c 95 bd 97 96 2e 3d
       -0.08185276 -0.03643057 -0.0729295 0.042624082
0003a0 13 29 07 3d 11 1b 8a bd b4 0b 0a bc f0 47 0c 3d
       0.032998156 -0.06743444 -0.008425642 0.034248292
0003b0 cd d3 ff bd 30 20 66 3d a3 7b cb 3b 6c 5d b9 bd
       -0.1249157 0.05618304 0.006209807 -0.09051022
0003c0 b2 c4 70 3d ad 13 4e 3d 05 24 07 bd 6a b7 aa bc
       0.058781333 0.050311733 -0.032993335 -0.020839412
0003d0 f6 41 24 3d 23 cd 35 bd 8d 74 85 bc 16 25 e2 bb
       0.040101968 -0.044385087 -0.016290927 -0.0069013936
0003e0 0c cd f7 3c 11 53 82 bd 48 70 f4 3c 7c d0 a4 bc
       0.030249141 -0.063635 0.029838696 -0.020118944
0003f0 e4 de 9c bd ca 0d 55 3c a5 0e 98 bc 0c 42 9c 3c
       -0.076597005 0.013003776 -0.01856167 0.019074462

conv_layers.0.lin_query.bias f4 [100]
000000 cc 5f be 3d e1 98 20 3e 4a 4c f0 bd 85 f3 4f bd
       0.092956156 0.15683319 -0.11733301 -0.050769348
000010 8c 89 04 be b1 04 fe 3d 09 cb 34 be c1 6e 01 3d
       -0.12943095 0.124032386 -0.17655577 0.031599764
000020 f2 7c f0 bd 36 9f 13 3d c7 b1 bf bd 32 7b 40 3e
       -0.117425814 0.036040507 -0.0936008 0.18796995
000030 14 bf f5 3d 0d e6 57 3d 69 6d 49 3d 63 0c 83 3d
       0.11999336 0.052709628 0.049176607 0.06398847
000040 4c a5 8f bd a9 91 30 be c1 1f 89 3d b5 02 ea bd
       -0.0701395 -0.17243065 0.0669551 -0.114262976
000050 5e 81 06 bc c9 d1 6e 3c ff c1 0d bd 7a 32 3a bd
       -0.0082095545 0.014576384 -0.034608837 -0.045458294
000060 16 81 e2 bd 23 36 bf 3d 10 fc 05 bb a4 a1 0f 3d
       -0.110597774 0.09336498 -0.002044443 0.035066262
000070 98 67 6c 3b de cf 47 3c d0 da 10 3e a3 15 cb bd
       0.003607249 0.0121955555 0.1414597 -0.09916236
000080 1f 71 06 3e b5 e6 7d bd e2 b6 48 3d ed 03 bc bd
       0.1312909 -0.061987597 0.049002536 -0.09180436
000090 ec 01 e4 bd 7d ba 87 3d b6 ff a4 3d cd b0 8c bc
       -0.11133179 0.06627367 0.080565855 -0.017174149
0000a0 b6 bb 29 bc 1a 05 2f 3e ff 28 f0 3d 19 5f 12 be
       -0.010359695 0.1709179 0.117265694 -0.1429409
0000b0 71 c9 9c 3d 46 e7 de bc a0 fb 13 3e 76 4c 11 be
       0.076556094 -0.02720989 0.14451456 -0.14189324
0000c0 ff 25 47 be ee 67 f5 bc 37 e9 04 be 5f 20 4d 3d
       -0.19448088 -0.029956784 -0.1297959 0.0500797
0000d0 b1 83 8b bc 02 f2 5e 3e 95 de 15 bd 7b 15 e8 3c
       -0.017030569 0.21772006 -0.036589224 0.028330555
0000e0 7c 28 b4 3d 84 40 70 3d 58 18 27 be 16 1c fd 3d
       0.08796784 0.058655277 -0.1631788 0.123588726
0000f0 0f c8 e1 3c ec 5a 08 3e 04 50 d7 3d 07 11 47 bd
       0.027561216 0.13315934 0.10513309 -0.048600223
000100 fc 64 b3 bd 5e 1e a4 bd f5 96 23 bc bc 99 3a 3e
       -0.087594956 -0.080136046 -0.009984721 0.18222708
000110 83 fb fb bd d2 5a ae bd cb 44 9d 3d dd ff 07 3e
       -0.123038314 -0.08513416 0.07679137 0.13281198
000120 2c db a7 3d e7 54 1f 3e ea 7d e3 bd b0 2b 17 3d
       0.081961006 0.15559731 -0.111080006 0.036906898
000130 12 61 74 3c 4f 3a f4 3c f0 fd e2 bd 31 ab 48 3d
       0.0149157215 0.02981296 -0.11083591 0.048991386
000140 28 0f f7 3d 4c 61 c9 bd 0f da c3 3d 40 76 b8 bd
       0.12063438 -0.09833011 0.09563076 -0.090069294
000150 43 f0 11 3d eb 9c c0 3b f1 80 28 bd 3c c3 98 bd
       0.035629522 0.005878081 -0.041138593 -0.07459113
000160 37 40 18 be e3 ad d8 bd 4b d9 26 3d 57 6e f2 bb
       -0.14868246 -0.10580041 0.04073457 -0.0073984074
000170 47 02 18 3e 42 d3 2a be c1 fb de bc 44 f1 e0 3d
       0.14844619 -0.16682151 -0.027219655 0.10983518
000180 70 7c 89 3d 00 22 34 3e 6f fe d0 bd d7 66 eb 3d
       0.06713188 0.17591095 -0.10204779 0.114942245

conv_layers.0.lin_value.weight f4 [100, 100]
000000 aa 4b ad bc d4 b2 10 be 5d 1d 3f 3d d2 d2 e8 b9
       -0.021154243 -0.14130718 0.046658862 -0.00044407562
000010 e3 66 d5 bb f5 55 ea bd 3f df 85 bc d1 7d 8c 3d
       -0.006512509 -0.11442176 -0.016341804 0.06859935
000020 08 ea d3 bc ce 30 87 3c 4f 2a 20 bd 81 a2 5a 3e
       -0.02586843 0.016502764 -0.03910285 0.21351053
000030 be d5 64 3d f4 eb 79 bc e2 40 38 3e 33 84 ee 3c
       0.055867903 -0.0152540095 0.17993501 0.029115772
000040 ca 71 38 bd a9 0c e3 bd 52 33 2a 3c 37 62 3d 3b
       -0.045030393 -0.11086399 0.010388212 0.0028897652
000050 8c cd 47 bd 7b 72 6d bd 38 2c 93 bb b6 fc 98 bd
       -0.04878001 -0.057970505 -0.0044913553 -0.07470076
000060 54 60 79 3d 6b 25 79 3c 59 e0 50 bd 1d cf bd bd
       0.06088288 0.015206675 -0.050995205 -0.09268019
000070 5e 08 12 3e ce 8d 8d 3c 2b 4a 9b bd 92 14 01 bd
       0.14261004 0.017279532 -0.07582506 -0.031513758
000080 a5 02 d1 bd 6d de bd bc dc 1d 57 3e 54 71 cc 3c
       -0.102055825 -0.02317735 0.21007484 0.024956383
000090 01 d5 54 3d 78 23 fe bd 72 a5 06 3e e3 97 52 be
       0.05196095 -0.12409109 0.1314905 -0.20565753
0000a0 56 6c 1d bd 2c e3 16 be d9 8e d0 3d 05 de 28 bd
       -0.038433395 -0.14735097 0.10183496 -0.04122736
0000b0 45 9b 02 bc b6 e2 dc bc de 4a 8b bc f9 3f a0 3d
       -0.007971589 -0.026963573 -0.017003473 0.07824702
0000c0 b6 32 e3 3d a9 30 b0 3d 4a 32 bd bd b6 42 0e bd
       0.11093657 0.08603031 -0.092381075 -0.03473159
0000d0 5c 69 6d bc f9 25 cf bc 85 d5 06 be 1c af 11 3e
       -0.014490452 -0.025286661 -0.13167389 0.14226955
0000e0 ac 8e 14 bc db 84 f3 3a b2 7e f2 3c b2 c4 94 3b
       -0.009067219 0.0018579023 0.029601429 0.0045400495
0000f0 48 20 2d be 22 e5 f1 bc 52 b7 e8 bb bf 2b e7 3d
       -0.16906846 -0.029528204 -0.0071019316 0.11287641
000100 bf 78 f7 bd 5c cd 36 3d fa f6 d0 bd c6 b8 32 bc
       -0.12083577 0.04462944 -0.10203357 -0.010908311
000110 6e 75 3b 3c 63 45 27 3a 60 11 c2 bb da 84 98 3d
       0.011441572 0.0006380884 -0.0059224814 0.074472144
000120 2c e8 4a bd 53 94 f7 3c 94 1d 1b 3d a3 09 3f bc
       -0.049537823 0.030222094 0.037870005 -0.011660012
000130 2a 56 98 3b 4c 7c d2 bb fe a2 17 3e b4 a1 87 3d
       0.0046489434 -0.0064235087 0.1480827 0.06622639
000140 e8 2f a4 bd 7e 0a 1d bd 13 50 f1 3c a7 60 dd 3c
       -0.0801695 -0.038340084 0.029457128 0.027023626
000150 e5 5a 04 3d 8f d6 10 3c 66 ae 28 3d fb 92 d3 3d
       0.032313246 0.008840217 0.041181944 0.10330769
000160 47 90 1d be 9d db 8d bd 08 77 d9 3d 70 09 2a bc
       -0.15387069 -0.069266535 0.106184065 -0.010378227
000170 ea 76 93 bd 70 76 b2 3d 2f be 51 bc 36 ad e4 3d
       -0.072004154 0.087139964 -0.012801691 0.1116585
000180 f8 8a 97 bd 5b ee 6c bd 53 8b dd 3c 6c c4 13 3e
       -0.07399553 -0.0578445 0.027043974 0.14430398
000190 eb 89 30 3d 4f 30 48 bd 45 a7 1c 3e 3f 16 f8 bc
       0.04310028 -0.048874196 0.15298183 -0.030284045
0001a0 52 42 0a bd eb a7 38 bd 22 a6 11 3e 0a 0a 47 3d
       -0.033754654 -0.045082014 0.14223531 0.04859356
0001b0 6c 82 a1 bd 42 b6 5d bd 16 e1 14 be 53 b4 fc 3d
       -0.07886204 -0.054128893 -0.14538988 0.123390816
0001c0 6d 3a 00 be 22 7e ac 3d 56 6a 87 3c 16 ae 90 3b
       -0.12522288 0.084224954 0.016530197 0.004415284
0001d0 05 79 2a 3d b0 df 18 bd 58 cf b9 3d 11 a8 e7 3d
       0.04161932 -0.0373227 0.09072751 0.11311353
0001e0 ac 76 da bd c9 ec 08 be 8d cc 1a 3d af e6 d2 bd
       -0.10667166 -0.13371576 0.03779273 -0.10297906
0001f0 85 8c ad 3d 83 4d 2c 3d be b6 9d 3d b4 b4 67 bd
       0.084740676 0.04206611 0.07700871 -0.056568816
000200 0d 15 83 3d 66 63 ba 3d 58 92 1c be d1 6b db 3d
       0.064004995 0.0910099 -0.152902 0.10713924
000210 1a 59 94 3d f8 50 a9 bd 38 00 a6 3d e0 36 ec 3b
       0.07243557 -0.08267397 0.081055105 0.00720869
000220 de 9f 02 3e 30 40 4e be 0d 74 40 3d c0 ac d3 bd
       0.12756297 -0.20141673 0.046985675 -0.10335684
000230 b1 af 0c 3d 60 f2 ed 3d 10 65 e7 bd ef 69 c9 3c
       0.03434724 0.11618495 -0.11298573 0.024586646
000240 29 8f 11 be b3 1e 37 3d 26 d1 15 3e 9b 7f 3f 3d
       -0.14214768 0.04470701 0.14630565 0.046752553
000250 3d a1 07 3e 86 fb 09 3d 81 1f 7d bd ad 56 ca bc
       0.13245101 0.033687137 -0.061797623 -0.024699533
000260 f2 77 fe 3b 55 4a cc bd 98 b4 80 bd ee 5b a5 3d
       0.0077657634 -0.09975115 -0.062844455 0.08074175
000270 a4 01 41 bd cd 08 aa 3d 27 6a b0 3d 53 2f c5 3d
       -0.047120705 0.0830246 0.08613997 0.09628167
000280 1b cf 79 bc 48 82 48 3d a1 11 ad bd 40 a7 06 3d
       -0.015247132 0.04895237 -0.08450628 0.032874346
000290 34 39 ef bd f5 04 38 3d 82 3d b1 3d 04 9f 9f bd
       -0.116808325 0.044926602 0.0865431 -0.07794002
0002a0 0c 79 63 3c 50 eb 42 bd de 4a 70 bd 91 4c 14 bd
       0.01388384 -0.047587693 -0.05866515 -0.036205832
0002b0 90 4e b8 3c 78 ba 36 3e 7c 46 b5 bd 73 89 9a bd
       0.022498399 0.1784457 -0.088513345 -0.075457476
0002c0 76 bf 19 3e 6f 70 93 bd 9b 44 bc 3c bc 8e 3a bd
       0.15014443 -0.071991794 0.022981932 -0.04554628
0002d0 33 eb 10 3e 88 f2 ea 3c 23 7a 0f 3e 47 a0 5b 3c
       0.14152221 0.028680101 0.14011435 0.013404912
0002e0 31 38 37 bd ab f1 8a 3d 10 e6 8f bc 2c 98 b1 3d
       -0.044731323 0.06784376 -0.017565757 0.086716026
0002f0 5a 5b c1 3b 65 27 b8 bd b0 fc 13 3e ce 71 9c bd
       0.0059007825 -0.08991889 0.14451861 -0.07638894
000300 fb 23 4b 3e 17 7f cc bd e9 3b 76 3d 3f c4 f9 bb
       0.19837944 -0.09985178 0.06011573 -0.0076222713
000310 3b bc 9b 3d ac 74 9f 3c 3b 97 2c 3d 61 f6 23 3d
       0.076042615 0.019464813 0.042136412 0.040029887
000320 7b 20 a3 3c 36 a0 47 be 3c 7f 2c 3e 88 88 ad bd
       0.019912949 -0.1949471 0.16845411 -0.08473307
000330 7a 0b aa 3c 17 a4 17 bc 54 c3 8d 3d 46 ec 8c bd
       0.020757426 -0.009255431 0.069220215 -0.06881003
000340 8c a8 30 3d 0d 50 3d 3d 79 f8 7c 3d 1b 4b dd bc
       0.04312949 0.04621892 0.0617604 -0.027013352
000350 8d 31 98 3d e1 e5 1f bd cd 95 36 bb cf 62 90 bd
       0.07431326 -0.03903759 -0.0027860284 -0.07050096
000360 fc 75 b8 bc 7f 8f be 3d 8c 86 f4 3d b3 43 38 3d
       -0.022517197 0.093047135 0.11939725 0.044986438
000370 e9 30 b7 3d 54 28 83 bc ae 51 1e be a8 dc 8f bb
       0.08944876 -0.01601044 -0.15460846 -0.004390318
000380 31 0f 14 be 56 6e 3c 3e af 56 b5 3c bc d5 dc bd
       -0.1445892 0.18401465 0.02213606 -0.10782954
000390 df 7f 94 3c bf 17 2f bc 40 8c d5 3d 56 d0 68 bd
       0.01812738 -0.010686814 0.10427141 -0.05683931
0003a0 8e a3 29 bd d0 0a bf bb 92 23 55 bd 56 b9 bc 3c
       -0.041415744 -0.0058301464 -0.052035876 0.023037594
0003b0 d9 a2 f8 bd f4 0a f0 3d 08 fd 57 bd 84 52 52 bd
       -0.12140436 0.11720839 -0.052731544 -0.051348224
0003c0 fb f1 0f be a9 5e c8 3c 1b a2 c9 3c d4 d8 d0 3c
       -0.14057152 0.0244592 0.02461343 0.025494017
0003d0 3c e4 7c bd 46 10 d5 bc 51 20 b4 bd fc 4e 6e bd
       -0.0617411 -0.026008736 -0.08795226 -0.058180794
0003e0 30 6a c7 3d a8 28 10 bd 8c be 74 bd 16 47 12 3e
       0.097370505 -0.035195023 -0.059752032 0.1428493
0003f0 67 e2 8c 3d 4d ff 47 bd 03 d5 14 3c cb b4 76 bd
       0.0687912 -0.04882746 0.009083989 -0.06023101

conv_layers.0.lin_value.bias f4 [100]
000000 79 fb 4d bd e2 a0 9a bc 85 22 3c 3d 28 cf 3f ba
       -0.05028865 -0.018875543 0.045931358 -0.00073169405
000010 80 96 d2 3b 56 3c 80 3d da 0d b7 bd 91 ea 4f bc
       0.0064266324 0.06261508 -0.08938189 -0.012690202
000020 85 bb 96 bd 68 97 a3 bd f5 fd 8e bd 94 b7 d3 bc
       -0.07359985 -0.07987863 -0.06982032 -0.025844373
000030 bc 77 1c 3d e0 64 99 3c 6d 05 31 3c 32 9d ce bd
       0.038200125 0.018724859 0.010804516 -0.100885764
000040 de 3f 32 3d 94 7a 5a 3c 4b ff 7a bd ae e8 ac bd
       0.04351794 0.013334889 -0.061278623 -0.08442818
000050 26 25 19 3d 29 6e 74 3d 36 b9 ac bd 80 fe d9 bd
       0.037388943 0.05967537 -0.08433764 -0.10644245
000060 81 c7 15 bd 46 4b fe 3c 59 86 77 3d 88 bd 17 3d
       -0.036567215 0.031041753 0.06043086 0.037045985
000070 fd 2e 9f bd d7 da 51 bc 22 e1 bd 3c 3f 89 97 bd
       -0.07772634 -0.012808523 0.02317864 -0.073992245
000080 2d 60 93 bd fa 46 24 bd 53 e4 b5 bd 97 c0 95 bd
       -0.071960784 -0.04010675 -0.0888144 -0.07312124
000090 58 48 98 3d 0a 39 55 bc 7f 78 6b bd 18 27 9e bd
       0.074356735 -0.013014087 -0.05748796 -0.077223
0000a0 07 37 a4 bc 8b df 8e 3a 62 51 c2 bd e4 15 c1 bd
       -0.02004577 0.0010900361 -0.09488179 -0.094280034
0000b0 f1 a6 8c bb 15 1c f7 bc 08 74 28 3d d4 a3 45 3d
       -0.004292362 -0.030164758 0.04112628 0.04825194
0000c0 18 af 4d bc 33 54 8f 3c ba a8 9b bd cc fc 36 bd
       -0.012553953 0.017496204 -0.076005414 -0.04467468
0000d0 f8 4d 5f bd 7b 87 aa bd ce 30 7b bd 50 d5 25 3d
       -0.054517716 -0.08326622 -0.06132584 0.040486634
0000e0 13 4c 4b bd 2a a0 f0 bd 82 b3 81 bd ec 36 a5 bc
       -0.049633097 -0.11749299 -0.063330665 -0.02016779
0000f0 48 8f 77 3d 26 fc 98 bc 21 15 98 bc 4f 51 b6 bd
       0.060439378 -0.018674921 -0.018564763 -0.08902227
000100 2e 18 0d bd ef b8 ac bb 25 f9 8b bd d9 4b a2 3d
       -0.034446888 -0.0052710692 -0.0683463 0.07924623
000110 72 1e bf bd 0d 40 9a bd 77 c0 e5 3b 10 0c a4 3c
       -0.09331979 -0.07531748 0.007011469 0.020025283
000120 2f ec 3b bd 8e 04 e0 bc 58 81 5d 3d c9 ad 2d bd
       -0.04587954 -0.027345922 0.05407843 -0.042402063
000130 37 bd 5d 3d f5 5a 7f 3c c0 14 37 3d 2a c1 12 be
       0.054135527 0.015585651 0.044697523 -0.14331499
000140 69 13 c2 bd 04 92 8d 3d 96 16 57 3c ee af 9e bc
       -0.094763584 0.06912616 0.0131279435 -0.019371
000150 e0 36 7a bc 75 d3 97 3c 42 fe ae 3d 35 91 09 be
       -0.015271872 0.018533448 0.085445896 -0.13434298
000160 f8 06 ea bd a2 69 b1 bd 3d a4 e3 bd 67 e0 a1 3d
       -0.114271104 -0.08662726 -0.1111531 0.079041295
000170 38 9c 84 bd ff c5 f2 3c 39 fc e9 bd e6 27 9d bd
       -0.06475109 0.029635428 -0.11425061 -0.07673626
000180 03 55 02 3d 15 7f 6f 3d ab b8 28 bd 54 69 df bd
       0.031819355 0.058470804 -0.041191738 -0.109087616

conv_layers.0.lin_skip.weight f4 [100, 100]
000000 50 ae 7c 3d c2 79 ed bd 97 11 f5 3d d7 cc 31 bc
       0.061689675 -0.11595489 0.119662456 -0.01085206
000010 8a 8f 5d 3d c5 cf 93 bd e5 20 08 3d 92 32 09 3e
       0.054091968 -0.07217363 0.033234496 0.13398197
000020 f5 1d 81 bd 28 13 72 3d 61 9b 3c bc 2a 24 10 3e
       -0.06304542 0.0591003 -0.011511655 0.14076295
000030 1e 6d 83 bd ed c8 f9 3d 32 e6 ed 3d a8 0a 95 3d
       -0.06417297 0.12196527 0.11616172 0.07277423
000040 36 67 9d 3b c5 cd a4 bc 06 77 91 bd 12 da 9d 3c
       0.0048035635 -0.02011765 -0.0710278 0.019269023
000050 a2 48 05 bd 7f 50 12 be 01 ea c3 3d 93 be 20 be
       -0.03253997 -0.1428852 0.09566117 -0.15697698
000060 0b c5 01 bd b0 13 68 bc ce c4 54 bd f3 86 77 bc
       -0.031682055 -0.01416485 -0.0519455 -0.015107858
000070 70 20 15 3c b8 09 d2 bd fd 40 fc bc 76 d6 8a 3d
       0.009101972 -0.1025576 -0.030792708 0.067791864
000080 05 39 13 be e3 c2 66 3d 91 7e 9a 3c b0 f5 0f 3c
       -0.1437722 0.056338202 0.01885918 0.008786604
000090 de f3 63 bd 5a 15 91 bd 50 52 09 3e 68 f4 54 bd
       -0.05565249 -0.070841506 0.13410306 -0.051990896
0000a0 11 6f c7 3d 47 a2 04 3d 49 a1 a1 3d d9 30 ec bd
       0.09737981 0.032381322 0.07892091 -0.115327545
0000b0 9a b0 34 be 67 5d 0c 3e 2f 7f 0b bd a4 ca d4 3d
       -0.17645493 0.13707505 -0.03405684 0.10390213
0000c0 0d f8 04 3e 5c 0d b9 bc 36 55 38 3d 17 c0 b5 bc
       0.12985249 -0.022589378 0.04500314 -0.022186322
0000d0 b7 5f 2e bc be db 2b 3d 59 01 bb bd 8d 48 62 3d
       -0.010642937 0.04195761 -0.091311164 0.05524497
0000e0 42 c6 45 bc 64 68 08 bd a2 35 83 b8 33 33 48 3d
       -0.012071194 -0.03330268 -6.256557e-05 0.048876952
0000f0 0e 54 41 bd 8c ad 83 bd 3f 62 24 be d0 79 f2 3c
       -0.0471993 -0.06429586 -0.16053103 0.0295991
000100 79 71 2b 3e 7b 0c cf 3c ba 27 22 be 87 b1 eb bd
       0.16742505 0.025274506 -0.15835467 -0.1150847
000110 d3 fd d1 3c 26 0b 53 bd 5c 23 83 bc 21 92 7d bd
       0.025633728 -0.051524304 -0.016008072 -0.061906938
000120 91 09 4f bd da 2b 08 bd 99 b3 3f bc 59 1c 29 3e
       -0.050546233 -0.033244945 -0.011700534 0.1651472
000130 aa cd 12 3e ce 9c 34 be 63 77 06 3c 64 69 1d 3d
       0.14336267 -0.17637941 0.008207175 0.038430586
000140 00 56 e4 bc f4 b5 0b bd 05 bb 85 3d 75 1f 98 bd
       -0.02787304 -0.03410907 0.06529812 -0.07427875
000150 8e 95 cf bd c1 aa 27 bd 18 7c 61 3d 7d 93 07 3d
       -0.10135947 -0.040934328 0.055049986 0.03309964
000160 a4 5f 9d bd c0 bb bb 3b 62 77 e3 3d 6b 32 16 bd
       -0.076842576 0.0057291687 0.11106755 -0.036669176
000170 16 11 da bd ce e8 5d 3c 59 eb fa 3d e6 86 d3 bb
       -0.1064779 0.0135442745 0.1225192 -0.00645529
000180 30 01 42 3d e2 1f ae 3c d2 19 9a 3c dc 99 f4 3d
       0.047364414 0.021255437 0.01881114 0.11943409
000190 10 d0 50 3b d4 a0 3d be 9e fe 0e 3e 4b 4b d3 bd
       0.0031862296 -0.18518382 0.13964316 -0.10317095
0001a0 a3 49 13 3e 31 49 00 bd 2e 99 22 3e 23 08 5d bd
       0.14383559 -0.0313198 0.15878746 -0.053962838
0001b0 f7 85 d0 bd 58 6c f0 bc 21 28 93 bd de d3 19 3e
       -0.10181802 -0.029348537 -0.07185388 0.15022227
0001c0 c1 2c 63 3d 21 67 0d 3d 32 2d d5 3d cd c7 35 3d
       0.055462603 0.03452218 0.10409011 0.044379998
0001d0 88 ae 9b bd d1 4d ca bd e6 76 2c ba 5d 0f 85 3d
       -0.076016486 -0.098781236 -0.00065789965 0.06497071
0001e0 82 25 62 3c d9 f1 77 bd 4c 85 1f 3e fb 8a 8e 3d
       0.013802888 -0.06053338 0.15578192 0.06960102
0001f0 0c a2 23 3d 60 94 89 bd f9 01 cb 3d 19 d0 9b bc
       0.03994946 -0.067177534 0.09912486 -0.019020127
000200 b4 3a b4 3d 2a e8 dd 3d 30 77 55 bd e3 51 b7 3d
       0.08800259 0.108352974 -0.05211562 0.089511655
000210 f9 c1 1c 3e de 47 53 be f6 9d 1f 3e cf 05 fc bd
       0.1530837 -0.20632884 0.15587601 -0.123057954
000220 56 ab 1c 3d e9 f1 4b be dd 08 a5 3c 2c ed 65 bd
       0.038249336 -0.199165 0.020145828 -0.056134388
000230 00 41 6c 3d ec 9e 4e 3d 34 37 9d 3a 3b 2c e4 bc
       0.057679176 0.05044453 0.0011994601 -0.027853122
000240 79 85 39 bd 6b 77 ca bd fd 98 38 bd a5 19 e9 bc
       -0.045293305 -0.098860584 -0.045067776 -0.028454611
000250 34 8f b1 3d 95 ff 07 3d 13 3f 6f bd da da 42 bd
       0.08669892 0.033202726 -0.05840976 -0.047571994
000260 05 67 c0 bd 37 a0 34 be bb be f0 3c 36 37 99 3d
       -0.093946494 -0.17639242 0.029387822 0.07481234
000270 b7 af 73 bd d1 27 20 3e 3f 78 a2 bd 64 6c 0d 3e
       -0.059493747 0.15640189 -0.07933091 0.13810879
000280 1c aa 69 3d 90 d6 1e bd 01 5a 34 be 7a 5d c8 3c
       0.057046995 -0.03877884 -0.17612459 0.024458636
000290 69 97 91 3c 2c 3a 61 3d f1 83 2d bd 30 f3 0b 3c
       0.017772393 0.054987118 -0.042362157 0.008541867
0002a0 96 d1 c4 3d 38 0c b8 3d b6 7b 6b bd b7 12 af ba
       0.09610288 0.089867055 -0.057491027 -0.0013357018
0002b0 cf cc c1 bc 18 6a 0f 3e b0 07 98 bb 43 0f 75 3d
       -0.02365723 0.14005315 -0.0046395883 0.059829008
0002c0 a2 03 d6 3d 4f 5a 2b be 97 b5 f4 bc 23 c6 28 3d
       0.10449912 -0.16733669 -0.029871745 0.041204583
0002d0 c5 46 ce bc 1e ba 04 bd 62 1a cc 3d fd 5f e7 3d
       -0.02518023 -0.032404058 0.099659696 0.11297605
0002e0 67 b2 be bd d4 ae 10 3e 5a bc 3a bc 4e c4 d3 3d
       -0.09311371 0.14129192 -0.011397446 0.103401765
0002f0 74 e0 fb bd e5 14 e6 3c 6c ce 50 3e 2e f0 a5 bb
       -0.122986704 0.028086135 0.20391244 -0.005064032
000300 6e d3 21 3d d1 d6 ab bd 4c 30 5f 3d 4b 69 83 3d
       0.039508276 -0.08390582 0.05448942 0.064165674
000310 98 a5 8a 3d 3a df c5 bd 49 b5 b2 3c ab 15 4e 3d
       0.06769866 -0.09661718 0.02181496 0.050313633
000320 fe 8f bd 3d 53 54 f6 bd 55 b4 49 bc a3 af c7 bd
       0.0925598 -0.12027802 -0.012311061 -0.09750297
000330 3f 01 1a bd 23 9b bf 3c a0 39 3f 3d 51 26 c5 3d
       -0.037598845 0.023389405 0.046685815 0.09626449
000340 50 0e 9e bc f3 86 e1 bc 16 a1 98 3d f7 c1 d3 bc
       -0.019293934 -0.02753017 0.074526 -0.025849326
000350 59 85 9e 3d b9 a1 33 3c 17 52 be bc 03 bb 5c 3d
       0.07740278 0.010963851 -0.023232503 0.053889286
000360 42 87 05 bc 41 a2 c3 3d 45 9a 69 3d fe d8 fd bc
       -0.008149924 0.09552432 0.05703189 -0.030987259
000370 02 53 6c bc eb 43 07 3d 78 4d 28 be 31 f7 2c 3d
       -0.0144240875 0.033023756 -0.16435802 0.042227928
000380 5b 5e 61 3b e5 3f 09 3d d3 6f 5e bc 64 d7 35 be
       0.0034388516 0.0335082 -0.013576466 -0.17757946
000390 13 92 c3 bd 5a a8 f3 bd ca 9c 7a 3e bf 1b 4a bd
       -0.09549346 -0.11897345 0.24473873 -0.049342867
0003a0 f1 e9 65 3d 89 0e a8 3d 12 71 08 3d dc 66 a5 3d
       0.056131307 0.08205897 0.033310957 0.080762595
0003b0 8d 7f 24 be 9a 6c 06 3d c8 f8 6b 3d 7b c0 ac 3d
       -0.16064282 0.032818414 0.057610303 0.0843515
0003c0 b3 14 a8 bd 22 be 9a bc b7 f4 1b be 15 d1 02 bd
       -0.08207073 -0.01888949 -0.1523007 -0.031937677
0003d0 10 81 42 3d d0 95 87 3d 78 f9 79 bd 52 34 c1 bc
       0.047486365 0.06620371 -0.061028928 -0.023584519
0003e0 0f 00 12 3d 33 20 00 be c8 8f 48 bd 8d 00 8e 3d
       0.035644587 -0.12512283 -0.048965245 0.06933699
0003f0 31 88 ce 3d a2 96 0b be e3 60 df 3d 84 20 ef bd
       0.1008457 -0.1363168 0.109071516 -0.11676124

conv_layers.0.lin_skip.bias f4 [100]
000000 39 d1 cb bd 88 a3 9b 3c c8 6c cc bd 47 28 98 3c
       -0.099520154 0.018998876 -0.09981686 0.018573893
000010 6e bf b7 3a 95 0a 42 3d 2f 71 da bc dc eb 16 3c
       0.0014018842 0.047373373 -0.026665298 0.009211507
000020 fe fc 51 bd 1a f6 8c bd 10 73 6d bd 94 e2 6c bd
       -0.051266663 -0.06882878 -0.05797106 -0.05783327
000030 b2 dd a1 bd 6d 27 0d bc b1 e1 a9 bc 40 00 b4 bd
       -0.07903613 -0.008615357 -0.0207375 -0.0878911
000040 e0 78 fe 3c 6b 22 d2 bd 0c 80 88 bc 74 52 31 ba
       0.031063497 -0.10260471 -0.01666262 -0.00067643006
000050 21 cb 0c 3d 3d f9 ac bc 45 8d 9c 3d 35 5d 1b bb
       0.034373406 -0.02111494 0.076441325 -0.0023706679
000060 ac 82 c7 bc 1c 32 2a bc 4b c9 b2 bc 22 cf de bd
       -0.024354301 -0.010387924 -0.0218245 -0.10879351
000070 b9 fe 8c 3d 33 e8 06 bb db d0 53 3d e7 a7 87 3c
       0.06884522 -0.002058518 0.051712852 0.016559554
000080 33 bc 96 bd 13 3c 44 bc f5 b6 23 be 75 57 2c 3c
       -0.07360115 -0.011977213 -0.15987761 0.010518898
000090 cb cf c7 bd 30 a3 46 bc 58 c8 b0 bd e5 61 0e 3d
       -0.0975643 -0.012123868 -0.086319625 0.03476133
0000a0 80 8c 17 bd 3d 2b 9c 3c 18 58 56 bc eb d6 b4 bd
       -0.036999226 0.019063586 -0.013082527 -0.08830055
0000b0 09 3d 16 3b 86 6a da 3d f9 5d 04 3d 81 f8 5a 3b
       0.0022924563 0.10664849 0.03231618 0.003341228
0000c0 2d 67 f4 bd bf bc 77 bd fa 72 96 3c f2 f6 a8 3d
       -0.11933742 -0.060482737 0.018365372 0.08250226
0000d0 38 31 a1 bd c8 89 82 3d 51 b4 04 be 1f 10 9e 3d
       -0.07870716 0.06373936 -0.1295941 0.077179186
0000e0 91 47 62 bd 66 07 9d 3d a8 f6 d0 bd 13 22 37 3d
       -0.055244032 0.07667427 -0.10203296 0.04471023
0000f0 d2 ae 9c bd 26 c6 dd bd 76 cf 82 3c 83 b7 13 3c
       -0.07650532 -0.108288094 0.015968066 0.009015921
000100 78 31 65 bc b4 89 95 bd 4c 76 08 3d dd 3b c0 3b
       -0.013988845 -0.073016554 0.03331594 0.0058665113
000110 75 9f f8 bd f9 22 3b bd 42 be 9a bd 97 27 16 be
       -0.12139789 -0.04568765 -0.0755582 -0.1466354
000120 c6 38 8e bd 87 6f da 3c 53 87 fe bd 02 e3 ab bd
       -0.069444224 0.026664509 -0.12428155 -0.08392908
000130 1b e3 ad bd 16 a9 00 be 16 a0 72 bd 53 e2 a9 3c
       -0.084905826 -0.12564501 -0.0592347 0.020737803
000140 46 b9 d1 3b 31 08 8c bd 2e 2a 18 3d 8d bb 2b bd
       0.00640026 -0.068375 0.0371496 -0.04192691
000150 1b 6e 12 3d 11 74 40 3d de f8 ce bd 09 f6 84 bc
       0.035749536 0.04698569 -0.101060614 -0.0162306
000160 99 62 cb bc a6 5c 85 bc fb c1 a1 3b 71 dd 0d bd
       -0.024827288 -0.01627953 0.0049364544 -0.03463501
000170 72 7d 22 bd da 1f b5 bc 17 79 68 bd 7d 23 b6 bd
       -0.039670415 -0.022109915 -0.056756105 -0.088934876
000180 8c 3d ed bd 52 a8 d4 bd b0 48 9a bd ab 60 80 bd
       -0.11584005 -0.10383667 -0.07533395 -0.06268438

conv_layers.1.lin_key.weight f4 [100, 100]
000000 4b 6a 8b bc 25 1d 19 bd 43 9c 36 bd 5f 56 84 bd
       -0.017018458 -0.03738131 -0.044582617 -0.064617865
000010 d9 5d 31 3d 78 e9 5f bd 62 bc 7c 3d 70 de c3 bb
       0.04330239 -0.054666013 0.061703093 -0.0059774444
000020 db 9a 0b bd 3b 5a 24 3d 7c a9 c6 3c 22 a6 36 3c
       -0.03408323 0.040125113 0.024250738 0.011148008
000030 f2 a8 0e 3d 1d 60 37 3c fe fc 39 bc 5d a6 9d bc
       0.034829088 0.011192349 -0.011351822 -0.019244367
000040 3a ed 2c bd cd 6b a5 bd 8f 66 08 3d 53 e5 7c bb
       -0.042218424 -0.08077202 0.033300932 -0.0038588836
000050 a6 39 a0 bc 6f 94 69 3d 48 53 1f bd 71 2c cf bd
       -0.019558739 0.057026323 -0.038897783 -0.101158984
000060 c8 58 28 3d af 2e 3a 3d 15 02 86 3d 8a 15 37 bc
       0.041100293 0.045454677 0.06543366 -0.011174569
000070 a7 00 b6 bc 18 5f 51 3c 74 eb 2d bc 9d 57 4f bc
       -0.022217108 0.01277902 -0.010615218 -0.012655166
000080 7b 08 d4 3c b6 90 95 bb 9d 83 e0 3b 22 56 82 3c
       0.02588295 -0.00456437 0.006851627 0.015910212
000090 2c d4 a6 3d 3b 82 9a 3c 78 23 36 bd c0 09 24 be
       0.08145937 0.018860927 -0.04446742 -0.16019344
0000a0 cf 99 49 bd ce 28 de 3a 9c ec a7 bd 56 a8 ca bc
       -0.04921895 0.0016949417 -0.081994265 -0.024738472
0000b0 6d ea 8a bd 70 4d 0c 3e 94 ee 2c bd e5 42 16 bd
       -0.067829944 0.13701415 -0.042219713 -0.03668489
0000c0 88 df 48 3c cc 43 08 bd a5 d0 7a 3c 2a 65 b1 bc
       0.012260325 -0.03326778 0.015308534 -0.021654684
0000d0 7c b4 39 bd f0 ec 05 3d d8 e1 44 bc 5a 4a f6 bc
       -0.04533814 0.032696664 -0.012016736 -0.03006475
0000e0 ca c3 c6 39 15 ce 04 3d ee fe c9 3d f8 65 3b 3e
       0.00037911377 0.032423098 0.09863077 0.18300617
0000f0 32 91 3f 3c 0b 74 2d 3d 90 f4 89 bd 62 61 a9 3b
       0.011692332 0.042346995 -0.067361 0.0051690796
000100 f6 41 67 3d 65 05 0f 3d 22 7c 29 bd f8 ee ab 3a
       0.05645939 0.034917254 -0.041378148 0.0013117483
000110 4e 23 7e bb ff a3 15 bd a3 83 00 bc 24 da 2d 3d
       -0.0038778367 -0.036533352 -0.007843885 0.042444363
000120 37 e8 d0 bd ab dc 75 3d e2 40 2d bc 90 45 22 3c
       -0.102005415 0.0600249 -0.010574551 0.00990428
000130 b5 5a de bd 9d 47 e6 bc 1a 9f b6 3d 3b 70 8f 3d
       -0.10857145 -0.02811032 0.08917065 0.07003828
000140 97 33 60 bd 3e 09 fe 3c d4 ba 72 3c b5 f7 df 3b
       -0.0547367 0.031010266 0.014815051 0.006834949
000150 88 04 70 bc bc f3 b1 bc 54 8b 21 3e 87 31 00 3d
       -0.014649518 -0.021722667 0.15775806 0.031297233
000160 74 a3 40 3d 98 9a ce 3a 8a 8c d8 3c d4 2a 9a 3b
       0.04703088 0.0015762625 0.026434202 0.0047048125
000170 ce 12 31 3c 40 32 b5 3c 79 c9 33 3d 00 7f 2b 3d
       0.010807706 0.022118688 0.04389331 0.041869164
000180 31 3e 51 3d c8 f0 3b 3d a5 ed 8a bb 91 c0 37 bd
       0.0510847 0.045883924 -0.004239755 -0.04486138
000190 b9 59 c2 3c af 9a a4 3d c1 6e bb 3c b2 01 59 3d
       0.023724424 0.08037316 0.02287996 0.052980132
0001a0 55 03 d0 3c 13 b3 ab bc 37 52 a5 bc b1 52 1d bc
       0.025392214 -0.020959413 -0.020180805 -0.009602235
0001b0 3c 4d 5b 3d 9c de 4f bd 25 7d 91 3d cc 95 7f 3d
       0.053540453 -0.050749406 0.071039476 0.062398717
0001c0 c3 09 e0 3b 4d 41 73 bb d4 2e f4 3d b5 10 04 3c
       0.006837101 -0.003711778 0.11922994 0.008060624
0001d0 bf 96 04 bc 2e ca 52 3d 6a a5 da 3b 09 12 86 3d
       -0.008092581 0.051462345 0.006672551 0.06546409
0001e0 5f 6f 94 3c 7e c3 19 3d 48 48 41 3d d4 e8 3d 3b
       0.018119512 0.03753995 0.047188073 0.0028977888
0001f0 72 71 7d bd e2 53 8a bd 16 e6 39 3d c8 7a d6 bc
       -0.061875768 -0.067542806 0.045385443 -0.026181594
000200 8f 9e b4 3d f9 62 4e bc 2d 99 a8 3d b8 ec 95 3d
       0.08819305 -0.012596839 0.08232341 0.07320541
000210 f9 e7 3b bb 23 3b a5 3d 34 83 53 bb 65 de e8 bc
       -0.0028672202 0.0806792 -0.0032274248 -0.028426358
000220 24 85 24 bd 2b 54 8e 3d 07 68 d9 3c 5b 2c 84 3d
       -0.040166035 0.069496475 0.026538862 0.06453773
000230 7a ee 12 3d 07 b1 a8 3c 5e 62 17 3c 83 18 fe 3c
       0.03587196 0.020592226 0.009239761 0.031017547
000240 e8 28 08 3c d9 1e 56 bd 65 3e b4 3d 9a 06 87 3b
       0.008310534 -0.052275512 0.08800963 0.00412066
000250 ab 3c ec ba 20 94 25 3c d3 ee 59 3d 0c 27 f8 3c
       -0.0018023452 0.0101061165 0.053206276 0.030292057
000260 76 af 43 bc bd 20 a2 3c 0d 53 04 3c 7e 22 b0 3d
       -0.011943689 0.019791001 0.0080764415 0.08600329
000270 66 e1 39 bb ab d7 16 bd 6c 92 a2 3d 59 99 52 bd
       -0.0028363108 -0.03682677 0.07938084 -0.051415775
000280 54 77 04 bd 85 b7 aa 3c 77 44 ae 3d 4b a0 6c bd
       -0.032340363 0.020839462 0.085091524 -0.057770055
000290 82 11 ed bc d8 4a 02 3d cd 34 22 3d c5 3a 73 3d
       -0.028939012 0.031809658 0.039601136 0.05938222
0002a0 e2 d8 1a 3c 1b 13 e5 3d d6 23 ce 3c f3 ad f4 bc
       0.009451123 0.11185285 0.025163572 -0.029868102
0002b0 05 7f fc bb f5 4c 57 bd 4a 37 e8 3c 49 60 51 3b
       -0.0077055716 -0.052563626 0.028346676 0.003194826
0002c0 0f 5f 89 3d ff d8 a5 3d 02 66 a0 3d 65 37 89 bd
       0.06707584 0.08098029 0.078319564 -0.06700019
0002d0 b8 2b fe 3c f5 29 b4 bc 5b 5b b2 3d 18 31 f4 bb
       0.031026706 -0.021992663 0.08708831 -0.0074521415
0002e0 9e 03 1a 3d 94 33 af bc 55 32 d1 3c 6d 14 70 3a
       0.037601106 -0.021386899 0.025536695 0.0009158317
0002f0 d2 26 18 3d 84 c5 32 3b 66 45 97 3d f2 ac 2c bc
       0.037146397 0.0027278373 0.073862836 -0.01053928
000300 db 49 be 3a 11 c7 02 3d fe b9 3f bc d9 df 1b bd
       0.001451786 0.031928126 -0.011702059 -0.038055275
000310 3f 5f 36 3b be 28 d3 3c 02 1e 5e bd d1 f7 5d 3c
       0.0027827767 0.025776263 -0.054227836 0.013547854
000320 15 4d 1c 3c ba aa a5 3d 96 90 a7 3c 28 d2 a0 3d
       0.009539862 0.08089204 0.020454686 0.07852584
000330 db 7e 59 3d 89 9a a3 3c 9d 2c 6c 3d 82 53 36 3c
       0.053099494 0.019971149 0.057659734 0.011128308
000340 7f 1b e4 3c 3e 40 6d bd 2f 62 7a 3d e1 c9 b0 3d
       0.027845142 -0.057922594 0.06112879 0.08632255
000350 ad 9f 34 bd c9 4f 0c bd bc b5 90 3c 54 1d a8 bb
       -0.04409759 -0.034255777 0.017664783 -0.0051304493
000360 b3 c9 07 bd 26 46 7e 3d dd 9b 03 3d 6b 82 ca 3d
       -0.03315134 0.062078618 0.032131065 0.098881565
000370 0e c4 a0 3c 46 b5 0e 3e 16 18 a0 3c 4d 7f 01 bd
       0.019624736 0.13936338 0.019542735 -0.031615544
000380 3f cd 37 bd f7 1a 45 bd d6 0e 0d bd 54 b9 9b bc
       -0.044873472 -0.04812142 -0.034437977 -0.01900927
000390 b0 02 12 3e ac c4 73 bc bc 40 4a 3d 52 b9 08 3c
       0.14258838 -0.014878433 0.04937814 0.008344965
0003a0 bd e5 3c 3c 23 13 b7 3d fd 58 25 bc 46 77 42 bc
       0.011529383 0.08939197 -0.010092017 -0.011869257
0003b0 f7 01 7a 3c 64 2f 9d bc b4 a3 f4 3c cb 00 31 3e
       0.0152592575 -0.019187637 0.029863216 0.17285459
0003c0 54 59 d0 3c 7b ae 52 3c 29 22 30 bc 83 49 b6 3d
       0.02543322 0.012858982 -0.010750332 0.0890074
0003d0 6b 61 d2 3d a0 b0 0f bd 20 b0 bc 3d 86 b5 83 3d
       0.10272487 -0.035080552 0.09213281 0.06431107
0003e0 d7 17 31 bc ae fa cc bc a0 da 64 bc de 15 c1 3d
       -0.0108089065 -0.025021877 -0.01396814 0.09427999
0003f0 46 ae 34 3c 5e 1a 39 bd 37 7e 7f 3b c9 2f fc 3d
       0.011027878 -0.04519116 0.0038985142 0.12313802

conv_layers.1.lin_key.bias f4 [100]
000000 4c df 46 39 05 8d 04 b9 70 f7 bc b8 8c 28 14 38
       0.00018965936 -0.00012641035 -9.0106274e-05 3.5323712e-05
000010 ac ec a3 b9 e2 31 5b 39 0c fc b8 39 7b 6b 33 38
       -0.00031266117 0.0002090405 0.00035283004 4.2777025e-05
000020 ae c8 50 39 25 77 24 b9 5f d6 55 39 9c e5 7f 38
       0.00019911185 -0.00015684644 0.00020393122 6.1010578e-05
000030 4d c6 2e 39 a7 44 0f 39 08 44 e0 39 91 9c 0c 39
       0.00016667806 0.00013663118 0.00042775297 0.00013409766
000040 02 96 fe b7 c0 63 1e b9 eb 5b 07 39 83 1c e1 b9
       -3.0349012e-05 -0.00015105214 0.00012908845 -0.00042936587
000050 47 74 75 b9 23 cd 8b b9 f4 2f 70 b9 6d 0c 0b 3a
       -0.00023408337 -0.00026664985 -0.00022906048 0.0005304281
000060 4c 47 fa 38 07 a3 ff 39 48 5e c6 b7 50 5d e0 36
       0.00011934209 0.00048758855 -2.3647342e-05 6.686583e-06
000070 e0 e9 3b b8 ff 56 ab 39 a2 fe 0b ba 76 ae 5b b8
       -4.4802087e-05 0.0003268048 -0.00053403724 -5.237615e-05
000080 ae 52 5a b9 ec 40 cc b9 79 e8 bc 39 46 20 60 39
       -0.000208209 -0.00038958283 0.0003603136 0.00021374327
000090 69 fb 55 39 c0 d9 fa 38 40 b2 bd 38 2d 98 84 b9
       0.0002040692 0.00011961488 9.045424e-05 -0.00025290382
0000a0 44 83 c0 b9 aa 16 f9 b9 80 6f aa b9 86 a2 eb b8
       -0.00036718894 -0.00047509867 -0.00032508 -0.000112359456
0000b0 78 07 ec 38 f8 e2 17 38 ad 6e 39 b9 ad 5d 30 b9
       0.00011254748 3.6212587e-05 -0.00017684205 -0.00016819565
0000c0 2d ee 1e b8 68 c1 e4 b6 d1 7d 91 39 5c d8 91 37
       -3.7891954e-05 -6.817445e-06 0.00027750296 1.7386097e-05
0000d0 31 1c 04 39 d6 ce 7d 39 f6 d8 04 39 20 9d 03 b8
       0.00012599003 0.00024205013 0.00012669325 -3.1379168e-05
0000e0 c2 58 c5 b7 e9 8b 9f b8 8d 73 3f 39 b0 7b 16 b9
       -2.3525561e-05 -7.607771e-05 0.00018258225 -0.00014351192
0000f0 2f 0b 32 b8 2e 4f 00 ba 9c d9 1e b8 be 42 f9 b9
       -4.2448923e-05 -0.0004894611 -3.78728e-05 -0.00047542708
000100 ba 3f 85 39 54 a7 37 b7 30 19 55 b7 80 17 eb b7
       0.00025415217 -1.0946609e-05 -1.2701654e-05 -2.8025126e-05
000110 20 0f 21 39 62 5a 29 b8 5f 9f 9d 38 b8 ea b2 b7
       0.00015359791 -4.0376915e-05 7.5160286e-05 -2.1328553e-05
000120 08 bf ab b6 60 5d c5 b5 a7 e1 18 b8 b0 79 34 37
       -5.118436e-06 -1.470482e-06 -3.644978e-05 1.0757169e-05
000130 f0 0e 94 39 43 a4 7e 38 8e 51 f6 38 6f 09 ac b9
       0.0002823989 6.07113e-05 0.00011745385 -0.00032813425
000140 5e 60 38 38 68 e3 70 38 f0 eb 00 3a ac 2d a1 39
       4.3958767e-05 5.7432248e-05 0.000491797 0.0003074234
000150 06 b5 22 b8 e2 b1 a9 38 00 77 fb 36 35 58 65 b9
       -3.87924e-05 8.091681e-05 7.4942363e-06 -0.00021872002
000160 40 55 bd 35 54 c8 a2 39 6d d4 3c 38 c1 97 c6 b9
       1.4106408e-06 0.00031048304 4.502053e-05 -0.00037878568
000170 2d 1c db b9 32 72 bc b9 34 e9 e1 38 ce 11 06 ba
       -0.00041791928 -0.00035943236 0.000107722735 -0.00051143474
000180 d7 ee 96 39 4c 0b 0e b9 fc 81 c3 b7 04 df 10 38
       0.0002878818 -0.00013546384 -2.330634e-05 3.4539975e-05
