ProG/pre_trained_gnn/CiteSeer.GraphCL.GCN.pth (torch, 82733 bytes, 4 tensors)

conv_layers.0.bias f4 [100]
000000 86 29 51 be 19 54 88 be 82 56 27 be 1a 68 08 be
       -0.20425996 -0.2662666 -0.16341594 -0.13320962
000010 4c 7f 35 be a5 7f ee bd b3 29 a2 be c9 93 24 bd
       -0.17724341 -0.1164544 -0.3167244 -0.04018
000020 06 97 77 be 58 73 97 be d9 55 82 be 8f 24 de be
       -0.24178705 -0.29580188 -0.25456122 -0.43387267
000030 b0 25 19 be d5 dc be bd ac fb a1 be dd 63 23 be
       -0.14955783 -0.09319464 -0.31637323 -0.15956064
000040 55 41 81 be b6 57 25 be a3 fe 96 be 37 5b 09 be
       -0.25245157 -0.1614674 -0.29491147 -0.13413702
000050 72 5f 43 be 32 b5 6d be 5c 2d 93 bd aa b7 83 be
       -0.19079378 -0.23213652 -0.07186386 -0.25726062
000060 d6 e7 80 be bf fb 67 be da c1 41 be 4d b7 48 be
       -0.25176877 -0.22654627 -0.18921605 -0.19601174
000070 fa ff fc bd 41 16 9b be c5 ee a0 be 46 bd a9 be
       -0.12353511 -0.30290416 -0.31432167 -0.33152217
000080 16 e0 18 be 19 08 89 be 06 46 74 be f2 d5 bc be
       -0.14929232 -0.2676399 -0.23854837 -0.36881977
000090 96 b4 e5 bd 5f d1 7d be b3 ae 7a be f5 93 94 be
       -0.11216085 -0.247869 -0.24480705 -0.29019132
0000a0 c0 57 90 be 8d 73 6c be ce 4f 24 be 1d 58 8e be
       -0.28191948 -0.23090954 -0.16046068 -0.278016
0000b0 59 25 57 be de a0 8b be 7a 44 f8 bd 0a a2 9a be
       -0.21010341 -0.2727117 -0.12122436 -0.3020175
0000c0 e6 f5 64 be 5a 45 a3 be 28 dc 97 be a2 ec 7d be
       -0.22359428 -0.3188885 -0.29660153 -0.247973
0000d0 d8 12 72 be f9 7b 48 be f7 32 30 be 2d 62 4f be
       -0.23640001 -0.19578542 -0.17206942 -0.20252295
0000e0 02 23 91 bd 3c a2 80 be 9c fa 96 bd 96 26 10 be
       -0.07086755 -0.25123775 -0.07372019 -0.1407722
0000f0 f5 ce 7a be 48 68 c4 be ab ff 5c be 39 b4 30 be
       -0.2449301 -0.3836081 -0.21581905 -0.1725625
000100 02 5e f4 bd 77 64 f6 bd 12 78 6f be 73 5b b8 be
       -0.11931993 -0.12030881 -0.23385647 -0.3600727
000110 4e fa 0a be 42 d4 af be e5 14 8a be 37 c4 68 be
       -0.13572046 -0.34341627 -0.26969066 -0.227311
000120 2e f0 c8 be 21 df 01 be b6 bc 72 be 6d 09 5f be
       -0.39245743 -0.12682773 -0.237048 -0.2178094
000130 a3 9a 80 be d9 84 28 be fc 99 86 be 32 27 55 be
       -0.25117978 -0.16456927 -0.26289356 -0.20815733
000140 e0 54 62 be ea 06 98 be ff b7 53 be 6e bc f1 bd
       -0.2210269 -0.29692775 -0.20675658 -0.11803518
000150 48 75 3f be 96 9f 31 be cb 5a 84 be 54 ff 0e be
       -0.18697083 -0.17346033 -0.2585052 -0.13964587
000160 8f 80 df bd da 8a 83 be 74 90 84 be f9 34 9e be
       -0.109131925 -0.25691873 -0.2589146 -0.3089979
000170 9c a6 62 be 81 ed 8b bd 22 a3 be be 07 f8 06 be
       -0.22133869 -0.0683241 -0.37233835 -0.13180552
000180 c3 88 57 be 9c 79 6a be 40 80 55 be 9f 48 8a be
       -0.21048264 -0.22897953 -0.20849705 -0.2700853

conv_layers.0.lin.weight f4 [100, 100]
000000 d4 d0 a5 3c 77 c0 68 ba 00 d4 b1 be 4d b9 b1 3d
       0.020241179 -0.0008878777 -0.34732056 0.086779214
000010 55 df ef be 82 33 76 3e 2b 18 79 be 0b 9a ca 3d
       -0.46850076 0.24043086 -0.24325626 0.098926626
000020 c1 f4 55 be b6 2d 58 3d d8 67 b5 3e 30 d3 20 3c
       -0.20894147 0.05277797 0.3543079 0.009815976
000030 1d a0 ca 3d f7 5b d8 bd e1 d5 0b 3f 34 84 19 3c
       0.098938204 -0.10564416 0.5462323 0.009369899
000040 35 e9 a6 3d f5 38 1f 3e bd d3 c3 be 86 8f 81 bd
       0.081499495 0.15549071 -0.3824748 -0.06326203
000050 44 55 95 3d f9 60 df 3e 84 2d 91 be 2e 0b 17 be
       0.07291654 0.43628672 -0.28355038 -0.14750358
000060 84 ae 1a bf 20 61 07 3f 42 a8 c1 be 70 c3 1c 3f
       -0.6042254 0.52882576 -0.37823683 0.61235714
000070 35 5f 2f bd 36 34 41 be 48 6d ae be a6 f1 af 3e
       -0.042815406 -0.18867573 -0.3406775 0.3436405
000080 69 f6 48 3e 69 87 ae be 0a 76 51 bf a8 0b a4 bd
       0.19625248 -0.34087685 -0.8182074 -0.08010036
000090 22 08 c8 bd c7 84 5d be 95 ff 79 3e 99 ca ac 3d
       -0.09767176 -0.21632682 0.24413903 0.0843708
0000a0 61 80 7d 3e bc ba 3f 3e fa 86 21 3d aa 14 de bd
       0.24756004 0.18723577 0.039435364 -0.10843785
0000b0 ea a5 82 3d 4c bb ba 3e 9a 4d a8 3e e4 4f 8d bd
       0.06379302 0.3647102 0.32871705 -0.069000036
0000c0 fa d1 5c bd 45 42 a4 3d 7d e4 11 3d ba db 3e 3e
       -0.053911187 0.080204524 0.035618294 0.18638507
0000d0 b4 3f 3f 3e 70 d0 a3 be 47 22 0d be 68 09 b0 3e
       0.18676645 -0.31994963 -0.13782607 0.34382176
0000e0 96 b9 87 3d cc ca b9 bd 8e 7e e0 bc f3 85 f5 3e
       0.066271946 -0.090718836 -0.027404096 0.47953758
0000f0 ea c2 c8 3e 7c 52 a5 bc 6f 4d b5 bd 35 8e 2f 3e
       0.39211208 -0.020180933 -0.0885266 0.17144091
000100 53 7b f3 3c 0a f7 37 3e 61 dd 9b 3e be b1 7c 3c
       0.029721892 0.17965332 0.30442336 0.015423236
000110 41 76 21 3e 87 d4 47 3f e0 15 b9 3c 49 7d 75 3c
       0.15767767 0.78058666 0.022593439 0.014983484
000120 1e db 9f 3e 57 48 92 be 91 92 2d bf 83 e6 c3 bd
       0.3122186 -0.28570816 -0.6780177 -0.09565451
000130 83 ad 6f bd c9 61 1c 3e fc b4 0d 3e 86 f0 f9 3d
       -0.058515083 0.15271677 0.13838571 0.12204079
000140 02 4d 46 3e 3b 55 be 3e 3b b5 d9 3e 7e ec fc 3d
       0.19365314 0.371744 0.4252108 0.12349795
000150 bb 79 16 3f 2c 59 10 be 49 31 10 3e 3e 0c 12 3f
       0.58779496 -0.14096516 0.14081301 0.5704993
000160 f8 a1 c1 bd 21 dc d2 be 31 4f 68 3e ab 43 fa 3d
       -0.09454721 -0.4118357 0.22686459 0.12219938
000170 5e 6a 80 3e bd 37 f9 3e c0 4a 16 be 69 10 cc 3e
       0.25081152 0.48675337 -0.14676952 0.3985627
000180 47 db 02 bf ff 2e 18 3f 20 f6 84 3e 8a 84 07 3f
       -0.5111584 0.5944671 0.25969028 0.52936614
000190 3d a9 b9 3e ed f0 9b bd ce 30 c5 be 5f 88 79 be
       0.3626193 -0.07614312 -0.38513798 -0.24368428
0001a0 e4 5e d8 be ab f3 88 3d ab 38 8b be 1c 29 d2 3e
       -0.42259896 0.06687101 -0.27191672 0.4104699
0001b0 fc 44 ed bd e9 27 ab be df 2e 7a be 77 7e 2a 3e
       -0.11585423 -0.33428887 -0.24431942 0.16649805
0001c0 29 7c 54 be 0f 8d 4f bd 36 7d 17 bf 54 6c 6c 3e
       -0.20750488 -0.050671633 -0.5917543 0.23088199
0001d0 bc 1b 45 3e 07 3d 97 bd 18 e8 13 3f 63 09 8e 3d
       0.19248861 -0.07384687 0.5777602 0.06935384
0001e0 ea 12 87 3e 57 c5 c0 bd 56 2f ba be d8 f3 18 bf
       0.26381618 -0.094126396 -0.3636424 -0.59747076
0001f0 92 b5 a3 be 62 85 35 be 68 f2 2c 3e b9 e4 f6 3e
       -0.31974465 -0.17726663 0.16889346 0.48221377
000200 d1 ea 53 be 1e fa 29 bf d5 eb 0c bf e4 ec 3e be
       -0.20695044 -0.66397274 -0.5504735 -0.18645054
000210 f5 39 21 be 58 38 13 3e d9 9f 63 be 95 12 ed be
       -0.15744765 0.14376962 -0.22228946 -0.4630324
000220 95 25 88 be 48 f2 1a bf 58 a4 b7 3e ae 9e 32 bf
       -0.26591173 -0.6052594 0.35867572 -0.69773376
000230 d6 bb 44 3e 46 3e 68 3c 24 84 ae 3e fd c3 83 3d
       0.19212279 0.014175003 0.3408519 0.06433866
000240 69 12 19 bf 98 91 8d be 05 27 e8 bd 4f 6e d4 3e
       -0.59793717 -0.27650142 -0.113355674 0.4149041
000250 fe 6d a7 bd 82 5d a2 3e b9 e9 93 3e 6a 7a 31 3d
       -0.08175276 0.31711966 0.28889254 0.043329634
000260 09 a2 3c bf 6a d0 45 be cd 94 66 3e b1 fc ba 3b
       -0.73684746 -0.19317785 0.225177 0.0057063927
000270 27 92 67 3d 53 9a ff be 99 0a 91 be d8 27 e0 3e
       0.056535866 -0.49922428 -0.28328398 0.43780398
000280 8e 14 9b 3e 3b af af be 30 de d0 bd 75 f6 0c be
       0.3028912 -0.34313378 -0.10198629 -0.13765891
000290 e1 6b 36 be f7 21 46 3e f6 10 20 3e d6 1f 0f be
       -0.1781459 0.19348894 0.1563147 -0.13976988
0002a0 1c 64 87 be 04 ac 0f 3f be a4 29 bd 1e 1f 3b bd
       -0.26443565 0.5612185 -0.041416876 -0.045683973
0002b0 55 09 28 3e fa 86 29 3e 91 de 65 bd b5 e6 24 3f
       0.1640981 0.16555396 -0.05612046 0.6441453
0002c0 3f 8b 26 3e 3d 70 1a be d3 b8 e8 bd 4d 1d 4b 3e
       0.16264056 -0.15081878 -0.113633774 0.19835396
0002d0 dc 45 0e bf 22 8f 68 3e e0 8a 02 3f 8f 31 16 3f
       -0.55575347 0.22710851 0.50993156 0.5866937
0002e0 50 72 56 bf 89 db 33 3e 94 ba 0d 3d b0 0e b1 3d
       -0.8376818 0.17564215 0.034601763 0.086453795
0002f0 37 b1 cc 3d 46 a9 09 bf 9b a5 ee 3e c7 90 ac 3e
       0.099947385 -0.53773916 0.46610722 0.33704206
000300 71 32 42 3f 35 2b 3d 3e 98 25 87 bd 82 6c e1 3d
       0.7585822 0.18473513 -0.06598967 0.11007024
000310 4f 56 a5 3e fd f7 95 be 2e 23 29 bf c5 8c 6f be
       0.3229241 -0.29290763 -0.66069305 -0.23393543
000320 f6 37 1b 3d 8f b2 85 be 44 9b 3a 3d 0a da ef 3e
       0.037895165 -0.26112792 0.04555823 0.46846038
000330 a3 93 f9 bd 44 49 80 bd 66 9f af be fe f2 a6 3e
       -0.121863626 -0.06263974 -0.343013 0.32607263
000340 38 2f 07 3e d0 3d b5 bc 06 e0 32 3e 77 3a 11 3a
       0.13201606 -0.022124201 0.1746827 0.0005540023
000350 fa 33 00 3f c3 3e d1 bd 7c 01 e6 be ce fc 13 bd
       0.5007931 -0.10217049 -0.44923007 -0.036129765
000360 49 e5 61 3c 08 20 ec 3e d9 90 85 3e b5 f0 ea be
       0.013787576 0.46118188 0.26087072 -0.4588677
000370 31 98 9f 3e ce 76 14 be a5 a2 8c bc 74 13 f5 3d
       0.311708 -0.14498445 -0.017167399 0.11966601
000380 0f 83 c8 be d1 48 a5 be 58 04 9f 3e c8 0e 13 3e
       -0.3916249 -0.32282117 0.31058002 0.14361107
000390 da b1 d3 be 06 23 c2 3e b3 f8 e5 3d d7 8a df be
       -0.41346627 0.37917346 0.11229076 -0.43660614
0003a0 ab cf 84 3e fa 2b 60 be 87 6d e0 be 98 53 78 3e
       0.25939688 -0.21891776 -0.43833563 0.24250638
0003b0 f0 e6 80 3e f4 4f bb bd cd 53 11 3d 2d c8 86 be
       0.2517619 -0.09146109 0.03548031 -0.26324597
0003c0 44 8d d2 3d fc 3e 6f 3e 51 d8 e5 3e c2 3e d4 be
       0.102808505 0.2336387 0.448916 -0.4145413
0003d0 83 8e 0c be 07 14 13 3e 1f c4 a0 3b f5 fe 1b bf
       -0.13726239 0.14363109 0.004906192 -0.6093591
0003e0 b9 a2 b1 3e 0f 07 86 bd 39 da 2d 3e 7e c8 f2 be
       0.3469446 -0.06544315 0.16977777 -0.47418588
0003f0 96 89 c5 3e 65 ea 29 3e e4 f0 f1 be d8 40 3e bf
       0.38581532 0.1659332 -0.47254097 -0.74317694

conv_layers.1.bias f4 [100]
000000 5c 56 b3 bc 63 d7 ab 3b af 6d 92 bd 90 3f ae 3d
       -0.021891765 0.005244182 -0.07149827 0.08508217
000010 a7 2d e3 3d ce 0c f7 3c 80 55 e5 3d e7 45 90 bd
       0.11092692 0.030157473 0.111979485 -0.07044583
000020 f0 9e e2 3c 1e ad 07 3c 58 da dc 3c 7a 8c b2 3d
       0.027663678 0.00828102 0.026959583 0.087182
000030 27 f3 7d bd 74 44 ee 3c ff 33 08 3d 95 6d 76 3c
       -0.061999466 0.029085375 0.033252712 0.015040775
000040 c4 ae ce 3c 78 46 47 3c 0a cd 5d 3c 03 d7 fa bc
       0.02522982 0.012162797 0.013537655 -0.030620104
000050 a2 82 76 3d a4 fb 4d 3d 2e 2c bd bd 57 8f 91 3b
       0.060183175 0.05028881 -0.09236942 0.0044421363
000060 9d 23 60 3c 1d dc 6b bc a2 72 24 bd 49 33 05 3e
       0.013680366 -0.014395741 -0.040148385 0.13007845
000070 d6 27 bc bd e8 89 56 3c 30 17 60 bd bc 7b a1 bc
       -0.091872856 0.013094403 -0.054709613 -0.019712321
000080 f5 2d 83 3d 2d e7 e2 bc 61 79 20 bc c6 b6 a3 bd
       0.0640525 -0.027698124 -0.009794564 -0.07993846
000090 46 5d 88 3d 58 dd 49 3e 92 2b 4f bd 22 1c a1 3d
       0.066584155 0.19713342 -0.05057866 0.07866694
0000a0 ef d6 63 be ab f0 bf 3c 4e ea 1e 3d 5d 74 7a 3c
       -0.2224996 0.02343019 0.03879767 0.015286532
0000b0 05 dd 0d 3d a1 91 8a 3d 07 1e 47 bd 5a fd f9 bd
       0.03463461 0.06766058 -0.04861262 -0.12206526
0000c0 7f 50 94 bd c2 f1 6d 3d 36 1f c9 3a 3e 15 96 bc
       -0.07241916 0.058091886 0.0015344385 -0.018320676
0000d0 3d fb b8 bc cf 1e 25 3d c5 ae 5b 3c c0 36 db bd
       -0.022580737 0.040312584 0.0134083675 -0.10703802
0000e0 b0 ce 8d 3c c4 5d 05 bd 29 01 4d 3d d3 71 1d bd
       0.01731047 -0.032560125 0.050049935 -0.03843863
0000f0 f3 b2 06 3d 3e f8 03 3e ee 0b 1d 3c 17 66 13 3d
       0.032885503 0.12887666 0.009585364 0.035986032
000100 32 a3 ae bc ce 8e b0 bc 55 13 f5 3c 91 5e 04 3c
       -0.021318052 -0.02155247 0.029916445 0.008079187
000110 66 b8 8b bd 3b 75 98 bd bf 29 33 be e6 af 1c 3c
       -0.068222806 -0.07444235 -0.17496394 0.009563422
000120 20 57 dc 3c 35 49 a8 3d 0a 64 51 bd 16 05 48 3d
       0.026897013 0.08217088 -0.051120795 0.048832975
000130 de 45 39 bd e5 36 b2 bd 1f 9c a5 bc 16 a1 0e bd
       -0.045232646 -0.087018766 -0.020216046 -0.034821592
000140 6c bf 38 bd c4 e5 45 3d 76 bb fd 3b 1e 28 25 3d
       -0.04510443 0.048314825 0.0077432944 0.04032146
000150 79 19 b9 3d 16 5b 31 be 1a b7 60 bd 34 73 f1 bd
       0.09038062 -0.17319903 -0.05486212 -0.117895514
000160 72 92 fa 3d f5 75 bf bd 80 c2 2d bd 81 ef 6e 3d
       0.122349635 -0.093486704 -0.042421818 0.058333877
000170 b5 1e 83 bc d3 80 bd bd c5 f7 4d 3d 0a ea 15 3d
       -0.016005853 -0.09253087 0.05028512 0.03660015
000180 ee bd 09 bc 3c 9e a4 bd c5 52 31 3c e0 96 20 be
       -0.008407099 -0.08037993 0.010822956 -0.15682554

conv_layers.1.lin.weight f4 [100, 100]
000000 72 74 8f be 7c 4f 8a be 0d 4f 7a 3d b0 40 03 3e
       -0.28018528 -0.27013767 0.061110545 0.12817645
000010 d1 3c 8a 3d 8b e8 ae 3e e2 b9 3b 3e 30 c7 59 be
       0.06749881 0.3416179 0.18332627 -0.2126739
000020 ef 7d dc 3d f2 0c c5 3e 2d af 41 3e db e0 7c 3d
       0.107662074 0.3848644 0.1891448 0.061737876
000030 58 8b b8 bc 66 e4 fd 3d d4 15 ef bd 58 1d b1 3d
       -0.022527382 0.12397079 -0.11674085 0.08648175
000040 10 69 93 3e 64 8f 80 3e d6 df 2e 3e 77 f5 a7 be
       0.28791094 0.25109398 0.17077574 -0.32804462
000050 0a 89 b0 be 0d 75 77 be b8 7f 82 be 68 c9 c8 bc
       -0.34479553 -0.24165745 -0.25488067 -0.0245101
000060 65 bf 1e be 84 e8 32 bd 43 39 bd 3d 8b b0 bf 3e
       -0.15502699 -0.043678775 0.092394374 0.3743938
000070 77 24 c4 3e 06 90 19 bf 37 8c 80 3e 7e 53 a3 3e
       0.3830907 -0.5998539 0.25106975 0.31899637
000080 9a 5f f6 3d 51 e9 30 be 3c 4e 24 3e e0 a1 6d bd
       0.12029953 -0.17276503 0.16045469 -0.058015704
000090 80 0a 14 be 1b 32 ab 3b ee 97 77 3e 1f 7e 88 be
       -0.1445713 0.005224479 0.2417905 -0.26658723
0000a0 54 c6 e4 3d d8 5c a9 be 04 1c 5f be 0c 23 cb be
       0.111706406 -0.33078647 -0.21788031 -0.39675176
0000b0 1f 31 50 bd b0 d8 da bd 9d ab 5b be 59 b8 fc bd
       -0.050828096 -0.10685861 -0.21452184 -0.12339849
0000c0 3f ba af 3d 20 2f 88 3e 17 17 0f bd 41 66 43 3e
       0.085804455 0.26598454 -0.03493413 0.19081976
0000d0 c4 f3 85 3e e9 53 03 be 0e 40 ea bd ec 15 f8 bc
       0.2616254 -0.12824978 -0.11437999 -0.03028389
0000e0 ef 85 ac 3a 2b a9 90 3e 76 07 c4 be 39 8f 98 be
       0.0013162474 0.28254065 -0.38286942 -0.2979677
0000f0 6b 9d 4c 3e c0 2c e0 bc 79 c9 93 be 03 d0 4f be
       0.19981925 -0.027365088 -0.2886465 -0.20294194
000100 10 1c ea 3d 41 3f 80 bd 09 08 3f 3d 14 e2 90 3e
       0.11431134 -0.06262065 0.046638522 0.28297484
000110 47 39 1a bd 2c 9c b7 3e a9 f7 ac 3e ea 70 cb 3e
       -0.03765228 0.35861337 0.337827 0.39734584
000120 5c 01 b4 bd a6 20 1f be 31 53 22 3e f8 73 e4 be
       -0.08789322 -0.15539798 0.15852048 -0.44619727
000130 b4 1e 52 bd 89 fe c2 be b8 67 4f 3e bc de 34 be
       -0.051298812 -0.3808482 0.2025441 -0.17663091
000140 39 64 ba 3d c0 e0 48 be c0 3f 53 3e 9c a8 34 bd
       0.09101147 -0.19616985 0.20629787 -0.04410611
000150 42 96 50 3d 0e 28 03 bd 68 41 f9 3d d0 6f 18 be
       0.050924547 -0.03202062 0.121706784 -0.14886403
000160 d0 c7 1f 3d 61 66 c7 bd e1 50 16 be 7a 73 5f bc
       0.039008915 -0.09736324 -0.1467929 -0.013638372
000170 ae c8 05 be f5 6f a5 be 05 0a 6b 3d 73 61 3a bd
       -0.13064834 -0.3231198 0.057382602 -0.04550309
000180 88 f6 ac be de 61 93 bd 43 a4 02 3e 90 d8 89 bd
       -0.33781838 -0.07196401 0.12757973 -0.06730759
000190 1d e1 cc be fb 15 e1 be f2 7b 33 bd 22 25 09 3e
       -0.40015498 -0.43962082 -0.043819375 0.13393071
0001a0 7f 68 9c be 92 62 97 3e d5 e1 d2 3c ef 98 0c 39
       -0.30548474 0.2956739 0.02574245 0.00013408413
0001b0 81 a5 e2 bd 8d 3b 33 3e 71 7f 3d be d1 2b ae 3c
       -0.110667236 0.17503186 -0.18505646 0.021261128
0001c0 68 11 df be 4f af d4 3e a9 e2 81 be 87 b1 e9 bd
       -0.43567967 0.4154 -0.2536824 -0.11410814
0001d0 88 8c 5d 3d 07 d0 15 3e 41 20 66 3e 0a 6d 5a be
       0.0540891 0.14630137 0.22473241 -0.21330658
0001e0 95 47 f6 be c8 3a 4e be 6f 80 64 bd b3 dc 8b be
       -0.48101488 -0.20139611 -0.055786546 -0.27316818
0001f0 6c 44 da be 35 52 f9 3c a3 88 f2 3c 2b 3d ac 3e
       -0.42630327 0.030434707 0.02960617 0.33640417
000200 ad 03 fb 3e 93 63 8a be 58 23 84 3e 06 89 fa 3e
       0.49026242 -0.27029094 0.25808215 0.48932666
000210 f9 46 a4 3c c1 0f 76 be 41 a0 32 be 9a 9a 29 be
       0.020053374 -0.24029447 -0.17443945 -0.16562882
000220 4c 12 50 be cb 79 02 3e 88 53 0e be 32 4d 57 be
       -0.2031948 0.12741773 -0.13899052 -0.21025541
000230 d9 72 db 39 03 a1 88 3e 6c 4e 61 be 38 bc d8 be
       0.00041856503 0.26685342 -0.22002572 -0.423311
000240 95 4c 9e be 06 4e a0 bd f2 8c 6a be 79 d2 26 be
       -0.30917802 -0.07827382 -0.22905329 -0.16291226
000250 12 4b bd 3e 99 c1 93 3e 8d 32 6d 3e 57 40 64 3e
       0.36971337 0.2885864 0.23163815 0.22290169
000260 5a fc e0 3e 91 48 9f 3e 2e eb f6 bd 85 1d 0c 3e
       0.4394253 0.3111005 -0.12056576 0.13683136
000270 92 19 8b 3e cf 99 1d 3e 37 44 b9 bd 42 77 5c be
       0.27167946 0.15390705 -0.09046214 -0.21529868
000280 1a 07 36 3e 63 f3 57 3e 0d b6 21 be da 7a d1 bd
       0.17776147 0.21088938 -0.15792103 -0.1022851
000290 34 cc 68 3e 19 09 58 be fa c8 15 bf 83 e6 bf 3e
       0.22734147 -0.2109722 -0.5850979 0.37480554
0002a0 49 c3 df 3e 81 bd fd bd 22 04 22 3f 8b db 83 3e
       0.43703678 -0.123896606 0.63287556 0.25753435
0002b0 41 b7 84 be 3f ef 60 3e 65 41 3d 3e 77 2d 53 be
       -0.25921062 0.21966265 0.18481977 -0.20622812
0002c0 02 34 e2 3d fe dc cb be f7 a7 32 bd a9 60 b3 be
       0.11045076 -0.3981704 -0.043617215 -0.35034683
0002d0 10 61 8c be ec 0f 26 3d 6f d6 1c be 8a d9 10 be
       -0.27417803 0.040542528 -0.15316175 -0.14145485
0002e0 7c b1 08 3e e4 2d 71 bd 99 76 21 3e fc 24 59 be
       0.13348955 -0.058881655 0.15767898 -0.21205515
0002f0 eb e4 eb bc 9f cc a9 bd 7f db 2a be f9 02 22 be
       -0.02879568 -0.082909815 -0.16685294 -0.15821446
000300 b4 3e 2f be 55 71 b7 be fc d3 47 bd 70 67 b7 be
       -0.17113763 -0.35828653 -0.04878615 -0.35821104
000310 d4 35 40 be 3f bb 31 3e 03 7f 93 be d7 c9 ac be
       -0.18770534 0.17356585 -0.2880784 -0.33747742
000320 9b 1a 3f be dd eb ab bc bc c6 55 be 78 e3 0e bf
       -0.18662493 -0.020986492 -0.20876592 -0.5581584
000330 43 c0 b6 3d 1f fc 00 bf f0 7b a1 3e 4e ef c7 be
       0.0892339 -0.50384706 0.3153987 -0.39049762
000340 c0 33 53 be d6 7b e8 3d 19 e5 0e 3f d9 85 d7 bb
       -0.2062521 0.11351745 0.55818325 -0.006577235
000350 fa 80 7c bc 5f 80 6b be 5c b5 1a bf ae e6 43 3e
       -0.01541161 -0.22998188 -0.6043298 0.19130966
000360 d8 54 aa 3e 98 28 0a bf e8 fd 1a bd ce 4c cc 3d
       0.33267856 -0.5396819 -0.0378398 0.09975587
000370 d4 95 6c be 13 bf 53 3d c0 f7 a6 3e 57 51 c1 3e
       -0.2310403 0.051695894 0.32610893 0.3775737
000380 a4 bc a5 3d 06 02 ad 3e f8 f1 c5 3c a5 c3 b5 be
       0.08092621 0.33790606 0.024163231 -0.35500827
000390 85 67 e5 be 1c 2a 8d 3d 95 9b 1d be cc 8f e6 bd
       -0.44805542 0.06892797 -0.15391381 -0.11257896
0003a0 66 29 0c 3d 1c d1 56 bd 3e 90 db 3d e5 d1 d0 3d
       0.034219168 -0.052445516 0.107208714 0.10196284
0003b0 12 49 50 bd 7b 6f d2 3e c7 54 55 3d 64 f4 c1 3e
       -0.050850935 0.41100678 0.052082803 0.37881768
0003c0 48 9b fa 3d a3 d5 2c 3e 86 13 ea bd 65 01 e3 3e
       0.12236649 0.16878371 -0.11429505 0.44337
0003d0 e0 41 d7 bd b1 16 8e be 0c d9 85 3d 4a f9 9a bd
       -0.105106115 -0.27751687 0.06535539 -0.07567079
0003e0 ef ee a6 be 5d 8f a0 be 94 1d 0b bc cf a3 fd 3e
       -0.32604167 -0.31359378 -0.008490939 0.4953904
0003f0 68 cc b3 bc ea 1a 7e bd 62 cd 53 be 58 5b 81 be
       -0.021948054 -0.062037386 -0.20683816 -0.25265002
