ProG/pre_trained_gnn/CiteSeer.SimGRACE.TransformerConv.pth (torch, 329225 bytes, 16 tensors)

conv_layers.0.lin_key.weight f4 [100, 100]
-0.016803246 0.24618672 0.07173534 0.36982176 -0.1982452 0.32965067 0.21409795 0.17349394
0.08133562 -0.8206158 -0.47068965 -0.2125471 -0.20576406 0.05843084 0.052161533 0.34992617
0.24646945 0.07656315 -0.22653843 0.31253213 -0.22169095 0.028621657 -0.14009123 -0.16643459
0.25449094 0.32152832 0.36314023 0.096921526 0.10287633 -0.027763512 -0.08679197 -0.6181867
0.13259628 0.0057476177 0.12558015 0.37225187 -0.19450094 -0.5361263 0.07633441 -0.25059116
0.21745364 0.18375644 -0.39387724 -0.1403736 0.19339612 -0.007418162 -0.17550197 -0.15207192
-0.09386942 -0.050165735 0.094294675 0.18447246 0.28534552 0.50873107 0.08660823 0.67414916
0.1568113 0.024207931 0.6955285 -0.1655458 0.022828642 -0.31557816 0.3311457 -0.060440645
-0.05859465 -0.30622151 0.37618467 -0.10996884 -0.0147028845 -0.2801019 -0.35391486 -0.06935562
0.024644751 0.17736293 -0.30280215 -0.27622193 0.26564893 0.05641299 0.2366568 0.20936188
0.3160313 0.1440145 0.48256126 -0.1028519 0.17684439 -0.12644114 0.10789894 0.2090737
-0.27779338 -0.2919102 -0.07299993 0.053243406 -0.044952042 0.010975655 -0.27191606 -0.13799429
0.047544125 0.24960963 -0.45159423 -0.1614969 0.13736741 0.2975314 0.06662058 -0.015448225
0.23911078 -0.24478032 0.1644685 -0.36585593 0.33887962 -0.1830003 -0.0009483008 -0.24681044
-0.1488517 -0.2725057 -0.26104388 -0.01859317 0.22158687 -0.68052006 0.33800566 -0.16733846
0.15238778 -0.17108375 -0.36707234 -0.07386008 -0.16755897 -0.011805223 0.059566535 0.35384202
-0.21528298 -0.34802327 -0.18965913 0.4023249 0.17528945 -0.3980576 0.5403573 0.11992886
-0.18573497 -0.3111108 0.48500237 -0.143709 0.43243033 0.71798337 0.057678696 -0.07022499
-0.43243653 -0.22653349 -0.48539802 -0.5096797 0.20793687 0.213811 0.3115046 -0.19410299
-0.14741027 -0.355878 0.28372917 0.38645712 0.3277147 -0.099034 0.38263842 -0.3932708
0.21347173 -0.34249285 0.29650944 0.39474764 0.21615076 0.039512705 0.14190586 -0.2212903
0.27054358 0.219254 -0.7777229 0.35522118 -0.030937586 -0.5551685 -0.008326322 -0.06701322
0.20173278 -0.297193 0.42612198 -0.43154225 0.34982437 0.3154435 0.37894514 0.37117296
-0.08083675 0.404199 -0.30054623 -0.28369695 -0.33934405 0.017958038 0.2752908 -0.36007988
0.08935238 0.27629787 -0.0977804 -0.3820155 0.19939667 0.1529322 -0.05524032 0.050494093
-0.13388865 -0.21919301 -0.12770289 0.07283294 0.45007998 -0.35857728 0.17900616 -0.54749346
0.23741706 0.6090697 0.9170792 0.04806226 -0.03541584 -0.34585744 -0.11661651 -0.29564542
-0.42711043 -0.39576125 0.25394377 -0.5348132 0.38611895 -0.32355046 -0.66357803 0.04222029
-0.2848798 0.20090672 -0.086352855 0.06718522 -0.15297851 -0.45334363 0.29859042 0.7402498
0.26303774 0.1272225 -0.35831743 -0.55155253 -0.012614359 0.11571933 -0.16461955 0.52941275
0.0015396823 -0.14345537 0.38918173 -0.14109993 -0.09201041 -0.026657136 -0.24262205 0.12006638
0.14083128 0.30558556 0.012977497 -0.0797043 0.019143384 0.13905808 -0.41014484 -0.49536544
00000000: f6a6 89bc 5f18 7c3e fae9 923d 4759 bd3e
00000010: ca00 4bbe f9c7 a83e 7e3c 5b3e 65a8 313e
00000020: 4a93 a63d e113 52bf 3cfe f0be f2a5 59be
00000030: d0b3 52be 2d55 6f3d 55a7 553d 8629 b33e
00000040: 7d62 7c3e 24cd 9c3d b1f9 67be 3604 a03e
00000050: f402 63be f777 ea3c 1374 0fbe d46d 2abe
00000060: a34c 823e 5c9f a43e 84ed b93e cb7e c63d
00000070: d3b0 d23d 4e70 e3bc fdbf b1bd 7c41 1ebf
00000080: 52c7 073e 8356 bc3b 1598 003e cc97 be3e
00000090: 412b 47be 933f 09bf 3755 9c3d 7c4d 80be
000000a0: 2bac 5e3e a62a 3c3e 47aa c9be 19be 0fbe
000000b0: a209 463e 0e14 f3bb cab6 33be beb8 1bbe
000000c0: 9c3e c0bd 967a 4dbd 911d c13d 59e6 3c3e
000000d0: cf18 923e 333c 023f a85f b13d 0a95 2c3f
000000e0: 2493 203e b64f c63c 280e 323f d784 29be
000000f0: 2203 bb3c 7693 a1be ee8b a93e 9c90 77bd
00000100: f200 70bd 11c9 9cbe 479b c03e 5837 e1bd
00000110: 5ee4 70bc 8469 8fbe 5434 b5be 520a 8ebd
00000120: cae3 c93c a19e 353e e208 9bbe f66c 8dbe
00000130: 2303 883e 4f11 673d 2956 723e f662 563e
00000140: dbce a13e 8978 133e 4512 f73e 04a4 d2bd
00000150: b216 353e c979 01be 1ffa dc3d 6a17 563e
00000160: ef3a 8ebe 4175 95be fd80 95bd c215 5a3d
00000170: a21f 38bd 3cd3 333c 9538 8bbe 604e 0dbe
00000180: a1bd 423d ab99 7f3e 5c37 e7be 715f 25be
00000190: 0baa 0c3e 0956 983e 5f70 883d 8d1a 7dbc
000001a0: 75d9 743e b1a7 7abe 6e6a 283e 7851 bbbe
000001b0: a181 ad3e 6e64 3bbe 6497 78ba e0bb 7cbe
000001c0: 946c 18be de85 8bbe 8ba7 85be b450 98bc
000001d0: abe7 623e 9036 2ebf 140f ad3e c65a 2bbe
000001e0: 8b0b 1c3e 9430 2fbe e8f0 bbbe f443 97bd
000001f0: 9494 2bbe b26a 41bc 0afc 733d c82a b53e
00000200: 2473 5cbe 1b30 b2be 0136 42be 87fd cd3e
00000210: 147f 333e 35ce cbbe db54 0a3f 439d f53d
00000220: 4f31 3ebe ea49 9fbe 3b52 f83e 7428 13be
00000230: 8267 dd3e c2cd 373f 7f40 6c3d 1fd2 8fbd
00000240: 5268 ddbe 65f8 67be 1786 f8be 5e7a 02bf
00000250: 67ed 543e 45f1 5a3e 887d 9f3e efc2 46be
00000260: b8f2 16be a435 b6be f344 913e b5dd c53e
00000270: 39ca a73e 56d2 cabd 2fe9 c33e ca5a c9be
00000280: 5598 5a3e 395b afbe 16d0 973e 5d1c ca3e
00000290: a056 5d3e 13d8 213d c54f 113e ed99 62be
000002a0: b084 8a3e 1f84 603e d918 47bf 8ddf b53e
000002b0: d270 fdbc 861f 0ebf 206b 08bc 3a3e 89bd
000002c0: 0a93 4e3e ae29 98be a92c da3e 1bf3 dcbe
000002d0: 2e1c b33e cf81 a13e 1905 c23e 620a be3e
000002e0: bd8d a5bd 2cf3 ce3e 32e1 99be ba40 91be
000002f0: 81be adbe bc1c 933c eaf2 8c3e 645c b8be
00000300: 61fe b63d ea76 8d3e 1741 c8bd 8997 c3be
00000310: a42e 4c3e 429a 1c3e ac43 62bd e5d2 4e3d
00000320: 1b1a 09be 2274 60be 8cc4 02be 7029 953d
00000330: e270 e63e 7197 b7be 644d 373e 8828 0cbf
00000340: 751d 733e feeb 1b3f b4c5 6a3f efdc 443d
00000350: 3310 11bd 3a14 b1be a3d4 eebd d65e 97be
00000360: 38ae dabe 38a1 cabe eb04 823e 85e9 08bf
00000370: 62b1 c53e 68a8 a5be 40e0 29bf 2fef 2c3d
00000380: c4db 91be 7eba 4d3e c4d9 b0bd 6898 893d
00000390: 66a6 1cbe a81c e8be d8e0 983e 0381 3d3f
000003a0: e2ac 863e 9d46 023e 6275 b7be 8c32 0dbf
000003b0: 75ac 4ebc 42fe ec3d 0792 28be 9887 073f
000003c0: 2acf c93a f7e5 12be d442 c73e 807c 10be
000003d0: f46f bcbd 1160 dabc ea71 78be 5de5 f53d
000003e0: 1336 103e b675 9c3e 919f 543c 023c a3bd
000003f0: 96d2 9c3c 3e65 0e3e 81fe d1be 8aa0 fdbe

conv_layers.0.lin_key.bias f4 [100]
0.0001981443 -7.271876e-05 -1.4121558e-05 -7.131831e-07 -6.050295e-06 -2.3191726e-06 7.517844e-05 2.639931e-05
1.5914062e-05 4.934645e-05 7.258882e-05 -2.6916766e-07 -1.8163148e-05 3.0661453e-05 -1.9477578e-05 5.4902262e-05
-6.663009e-05 -6.340722e-06 1.0810084e-05 2.7329233e-05 -3.214474e-05 -3.7015031e-06 -1.7984925e-05 -0.000115703944
4.219953e-05 3.0248118e-05 -8.989901e-05 -3.9112903e-05 3.2193086e-05 -0.0001162848 2.6323012e-05 1.859391e-05
1.1857772e-05 -3.6229423e-05 5.4192067e-05 -4.3250206e-05 3.9822803e-06 -0.00018926627 8.029805e-05 1.0998481e-05
-2.843831e-07 -0.00011129469 -8.111243e-06 -5.846199e-05 1.2887006e-05 3.422361e-05 5.359126e-06 -3.618509e-05
5.08105e-05 0.0001890495 -0.00016185321 -1.3189025e-05 -2.4908199e-05 -3.2535638e-05 4.641973e-05 7.793234e-06
3.8327795e-05 1.0670329e-05 5.9087455e-05 3.182003e-05 -3.0851137e-05 -6.0887403e-05 6.413749e-05 -1.1849035e-05
3.7441463e-05 9.960236e-06 -1.3251829e-05 -1.9537905e-05 -9.540187e-06 9.195209e-06 -3.988486e-06 0.00011560754
-5.4899367e-05 -0.00022088001 1.6547403e-05 8.481904e-06 9.719762e-06 -9.61108e-06 -0.00020582255 9.950552e-05
-1.0923457e-05 -5.5407604e-06 -1.5221535e-05 1.0556203e-05 -8.965776e-06 -0.00013877748 -4.4541684e-06 -1.9541565e-05
-6.317615e-05 4.814453e-05 -1.872811e-05 1.11929585e-05 4.4909924e-05 1.9052955e-05 3.383667e-05 1.8034025e-05
-4.0838324e-05 -0.00010209508 1.1078205e-05 0.00010469927
00000000: f5c4 4f39 9680 98b8 a1eb 6cb7 9271 3fb5
00000010: a303 cbb6 15a3 1bb6 1ea9 9d38 1674 dd37
00000020: 307f 8537 59f9 4e38 d33a 9838 1f82 90b4
00000030: 105d 98b7 7c9a 0038 c863 a3b7 db46 6638
00000040: c2bb 8bb8 63c2 d4b6 f55c 3537 1541 e537
00000050: 27d3 06b8 5767 78b6 55de 96b7 15a6 f2b8
00000060: 66ff 3038 57bd fd37 2a88 bcb8 290d 24b8
00000070: 1007 0738 eddd f3b8 3dd0 dc37 1efa 9b37
00000080: bef0 4637 0cf5 17b8 4a4c 6338 8e67 35b8
00000090: 879f 8536 c775 46b9 b065 a838 1e86 3837
000000a0: 51ad 98b4 e266 e9b8 8615 08b7 1535 75b8
000000b0: 4535 5837 528b 0f38 8bd2 b336 72c5 17b8
000000c0: 5c1d 5538 973b 4639 24b7 29b9 6e46 5db7
000000d0: f3f1 d0b7 e076 08b8 ceb2 4238 afbf 0237
000000e0: 28c2 2038 b704 3337 acd4 7738 7f76 0538
000000f0: 2866 01b8 5a61 7fb8 8e81 8638 38cb 46b7
00000100: 770a 1d38 e31a 2737 2c54 5eb7 55e5 a3b7
00000110: cb0e 20b7 1f45 1a37 d5d4 85b6 5372 f238
00000120: bf43 66b8 079c 67b9 47cf 8a37 804d 0e37
00000130: 0f12 2337 463f 21b7 12d2 57b9 9fad d038
00000140: e443 37b7 c5ea b9b6 ff5f 7fb7 8c1a 3137
00000150: b76b 16b7 cc84 11b9 0475 95b6 31ed a3b7
00000160: 707d 84b8 ccee 4938 4f1a 9db7 64c9 3b37
00000170: aa5d 3c38 e9d3 9f37 d9eb 0d38 c647 9737
00000180: d149 2bb8 e11b d6b8 87dc 3937 fe91 db38

conv_layers.0.lin_query.weight f4 [100, 100]
0.04045691 0.08616827 -0.30683142 0.16027574 0.108994514 0.7941108 -0.3468943 -0.5573576
0.29404366 0.33722347 -0.07908048 0.45826808 -0.03655925 0.88094205 0.3028087 -0.023199975
-0.22049567 0.2677814 0.098809026 0.30275717 0.023292786 0.2608494 -0.09122923 0.048741087
0.07470655 0.08708575 0.0720951 -0.16633521 0.07507391 0.22722118 0.47345665 0.29213527
0.35665536 -0.04480462 -0.24676457 0.22584985 0.6278079 -0.12239097 -0.07816186 0.17820655
-0.06169913 0.26326013 0.31802407 -0.050290264 0.11618044 0.18672974 -0.36577302 -0.11300277
0.35471228 -0.14765352 -0.035685394 -0.14856286 0.0063430783 0.42038918 -0.04377167 -0.11178395
0.15176907 -0.038564533 0.20419453 -0.1570434 0.08948539 -0.30323464 -0.3648936 -0.07213542
-0.12668264 0.13637277 0.034897216 0.32716727 -0.026759975 -0.012687802 0.30557454 -0.6834738
0.45931903 0.4501813 0.03290618 -0.131733 0.29565963 -0.60414726 -0.4968056 -0.04317206
0.055862434 -0.18320772 -0.13698107 0.25348157 -0.09535468 0.24879086 0.27048704 0.22571525
-0.14587396 -0.45848122 -0.1121289 -0.091620214 0.07551849 -0.050126147 -0.07131552 0.0702357
0.033726763 0.07135537 0.4197199 0.13080083 0.17668946 0.44440427 0.060003288 -0.06493408
0.09307307 0.0875137 -0.20382509 0.3196732 0.02977753 -0.03355464 -0.48599717 -0.33400095
0.0073802676 0.14989012 0.2363071 -0.17725793 -0.22809927 0.28854963 -0.11900561 0.7116114
-0.5309533 0.456466 0.3045489 -0.13484144 -0.25598752 0.19493552 0.13083173 -0.7048034
-0.33010232 0.41890433 0.55823123 -0.085192695 -0.37456378 0.19625172 0.1303706 0.2097261
-0.11335098 0.2890665 -0.16220252 0.49285355 0.12104174 -0.1830157 -0.15453377 -0.74967027
-0.4411988 -0.37211794 0.20425646 0.014521903 -0.050420813 0.26693404 0.42437822 -0.4643903
-0.45580503 0.058316026 -0.098557316 0.2084607 0.25113878 0.16448157 0.3867819 0.12265247
0.43347606 -0.25508988 0.08585838 0.39812535 0.3147198 -0.48162222 0.507151 0.090346016
-0.08075644 0.2208159 0.18595561 -0.13516617 0.0880419 -0.31940508 -0.27845562 0.044231582
0.07078876 0.10884783 0.07791363 0.17313042 -0.05688321 -0.07260957 -0.059611224 -0.13102189
0.08570392 -0.48888868 0.12980184 -0.0073498925 -0.3047465 -0.040536445 0.032364734 -0.093711674
0.12300749 2.7260894e-06 0.21123609 0.58115137 -0.10093304 0.09129621 -0.04385044 0.26164818
0.12560779 -0.13777743 0.14911671 -0.23460451 -0.67364436 -0.23423819 -0.17563942 0.6723042
0.36952385 0.21089341 -0.118025 -0.6100513 -0.40481672 -0.9264035 -0.35223347 0.20343436
0.06942397 -0.10677597 -0.613316 -0.61591524 -0.07964342 -0.12784474 0.105889164 0.3374531
-0.3806048 0.019749694 -0.14047971 -0.27046806 -0.5145952 -0.15343194 -0.1953285 -0.20818494
-0.3165506 0.11876798 0.2597252 -0.4059518 -0.0814412 -0.026429467 0.34130496 0.035320204
0.061501343 0.023542529 0.121444784 -0.06506753 0.00053881237 -0.5517539 0.30506447 -0.0049369545
-0.425326 -0.12225932 0.109549455 -0.20261401 0.09639447 -0.4855932 0.050809868 0.2675308
00000000: 25b6 253d fd78 b03d 0219 9dbe 531f 243e
00000010: 8438 df3d d84a 4b3f 219c b1be fdae 0ebf
00000020: e48c 963e 8ea8 ac3e f2f4 a1bd 1da2 ea3e
00000030: 27bf 15bd 6b85 613f be09 9b3e e00d bebc
00000040: 9ec9 61be a51a 893e 635c ca3d fd02 9b3e
00000050: 83d0 be3c 0d8e 853e 64d6 babd bca4 473d
00000060: bfff 983d 045a b23d 99a6 933d c753 2abe
00000070: 5ac0 993d abac 683e e968 f23e c192 953e
00000080: 889b b63e 0d85 37bd daaf 7cbe 2f45 673e
00000090: 05b8 203f 1ea8 fabd 5313 a0bd c77b 363e
000000a0: 3ab8 7cbd 08ca 863e 0dd4 a23e 2afd 4dbd
000000b0: 03f0 ed3d 1536 3f3e 9a46 bbbe ff6d e7bd
000000c0: d99c b53e 7c32 17be d92a 12bd dd20 18be
000000d0: 99d9 cf3b 403d d73e ec49 33bd fcee e4bd
000000e0: 5a69 1b3e d8f5 1dbd 5f18 513e fccf 20be
000000f0: 1e44 b73d 9241 9bbe 55d3 babe bcbb 93bd
00000100: 18b9 01be 4ea5 0b3e 62f0 0e3d 7882 a73e
00000110: bc37 dbbc 80e0 4fbc 4474 9c3e 24f8 2ebf
00000120: dd2b eb3e 2a7e e63e a1c8 063d 04e5 06be
00000130: b360 973e 65a9 1abf 4e5d febe 30d5 30bd
00000140: 02d0 643d ce9a 3bbe c444 0cbe 56c8 813e
00000150: 5149 c3bd 08c3 7e3e 477d 8a3e e621 673e
00000160: fc5f 15be 0dbe eabe d6a3 e5bd 61a3 bbbd
00000170: 70a9 9a3d 1351 4dbd df0d 92bd bcd7 8f3d
00000180: 1325 0a3d c422 923d 87e5 d63e a7f0 053e
00000190: 15ee 343e f588 e33e 02c6 753d 29fc 84bd
000001a0: 189d be3d 623a b33d 86b7 50be 35ac a33e
000001b0: 02f0 f33c 9770 09bd 9fd4 f8be 2c02 abbe
000001c0: 2cd6 f13b cc7c 193e 7dfa 713e 1a83 35be
000001d0: db92 69be c7bc 933e 37b9 f3bd 2a2c 363f
000001e0: 8eec 07bf e9b5 e93e d5ed 9b3e e013 0abe
000001f0: cc10 83be 2d9d 473e c1f8 053e ff6d 34bf
00000200: 2c03 a9be a17a d63e 3ee8 0e3f 8279 aebd
00000210: d3c6 bfbe 36f6 483e df7f 053e 70c2 563e
00000220: 8f24 e8bd 8600 943e 6b18 26be 4d57 fc3e
00000230: bbe4 f73d 7868 3bbe 1a3e 1ebe 64ea 3fbf
00000240: cfe4 e1be 3e86 bebe 9b28 513e 47ed 6d3c
00000250: 0e86 4ebd 94ab 883e 1a48 d93e 91c4 edbe
00000260: 475f e9be c9dc 6e3d 6bd8 c9bd b976 553e
00000270: 4395 803e db6d 283e 4708 c63e 3831 fb3d
00000280: 93f0 dd3e 249b 82be 85d6 af3d 16d7 cb3e
00000290: f422 a13e 3097 f6be a6d4 013f 5507 b93d
000002a0: a263 a5bd 901d 623e 266b 3e3e 0069 0abe
000002b0: 504f b43d 1089 a3be bc91 8ebe 2d2c 353d
000002c0: b3f9 903d 9ceb de3d 2e91 9f3d 1a49 313e
000002d0: 5efe 68bd 54b4 94bd e62a 74bd 9a2a 06be
000002e0: 8985 af3d 9e4f fabe c6ea 043e 5ed7 f0bb
000002f0: bc07 9cbe 8b09 26bd e290 043d e8eb bfbd
00000300: 5aeb fb3d dcf1 3636 464e 583e 56c6 143f
00000310: fbb5 cebd 82f9 ba3d 859c 33bd c0f6 853e
00000320: 549f 003e 8715 0dbe 0db2 183e 2a3c 70be
00000330: f573 2cbf 23dc 6fbe d2da 33be 211c 2c3f
00000340: 3b32 bd3e 71f4 573e 17b7 f1bd 522c 1cbf
00000350: 2344 cfbe c828 6dbf f257 b4be 1951 503e
00000360: 282e 8e3d 5cad dabd 4702 1dbf 9fac 1dbf
00000370: 171c a3bd bbe9 02be 6bdc d83d a7c6 ac3e
00000380: a2de c2be 1cca a13c ead9 0fbe ca7a 8abe
00000390: 83bc 03bf 431d 1dbe 3204 48be 6f2e 55be
000003a0: ec12 a2be a03c f33d b4fa 843e ead8 cfbe
000003b0: a5ca a6bd 9c82 d8bc 86bf ae3e ebab 103d
000003c0: d5e8 7b3d 43dc c03c 0bb8 f83d 2042 85bd
000003d0: 163f 0d3a be3f 0dbf 6931 9c3e 2dc6 a1bb
000003e0: 54c4 d9be 1863 fabd 775b e03d 0c7a 4fbe
000003f0: 776a c53d ac9f f8be 021e 503d ccf9 883e

conv_layers.0.lin_query.bias f4 [100]
0.0012483967 -0.28126392 -0.15026374 0.13189612 -0.0007172296 0.14386532 -0.45363826 0.053334285
0.27981436 0.43369833 0.30184087 -0.067841135 0.074220344 0.19818789 0.03806661 -0.066014744
0.2274223 -0.56636286 0.050512604 -0.117390364 0.024066845 -0.08482366 0.034429953 -0.021644337
0.05078073 0.043507885 0.055287983 -0.18191788 0.11840801 0.30660823 0.07626943 -0.4555041
-0.07984414 -0.5347143 -0.01306067 -0.06330388 0.07361724 0.08665838 -0.12283567 -0.2290917
0.1422494 0.0177447 0.29449984 0.186803 -0.059463453 -0.04473742 -0.10548253 0.112688534
-0.010520781 -0.2550956 0.104955606 0.124581456 -1.7233817e-05 0.046617564 -0.27037713 -0.0029984594
-0.055124674 0.15301995 -0.17229067 0.101330034 -0.2705092 -0.22107689 -0.016139803 -0.12347494
-0.27741912 -0.12913358 0.055755537 -0.16144812 -0.14219654 0.04760317 0.031611525 0.2536192
-0.0679412 0.24329649 -0.22252776 0.22945306 0.04763455 0.124450445 0.12657323 -0.019096572
-0.14109497 0.19977935 0.039229613 0.12985797 0.38370463 0.36681968 0.1268858 -0.26611814
-0.084803954 -0.15605208 0.034966663 -0.0028917778 -0.3137987 0.35210058 -0.121267654 0.39751595
0.042937532 0.09588471 -0.049514364 0.20934439
00000000: 3ea1 a33a d301 90be bdde 19be c70f 073e
00000010: 7704 3cba 6e51 133e 4643 e8be 0d75 5a3d
00000020: d443 8f3e b50d de3e e38a 9a3e 4bf0 8abd
00000030: d600 983d c4f1 4a3e bceb 1b3d bd32 87bd
00000040: 64e1 683e 28fd 10bf 4ee6 4e3d 5c6a f0bd
00000050: d527 c53c 07b8 adbd 6c06 0d3d 774f b1bc
00000060: 74ff 4f3d 5335 323d a775 623d ae48 3abe
00000070: e67f f23d c1fb 9c3e 2633 9c3d d537 e9be
00000080: 5385 a3bd 09e3 08bf 6cfc 55bc 77a5 81bd
00000090: a3c4 963d f379 b13d 4591 fbbd 0497 6abe
000000a0: d4a9 113e 555d 913c afc8 963e 4949 3f3e
000000b0: f38f 73bd 963e 37bd 3a07 d8bd 3fc9 e63d
000000c0: 5b5f 2cbc e49b 82be f7f2 d63d 9024 ff3d
000000d0: 5791 90b7 0ff2 3e3d df6e 8abe cd81 44bb
000000e0: 69ca 61bd 43b1 1c3e f76c 30be 1f86 cf3d
000000f0: 2f80 8abe fb61 62be 9f37 84bc 6ee0 fcbd
00000100: e109 8ebe 983b 04be eb5f 643d a852 25be
00000110: f89b 11be 8bfb 423d 167b 013d 60da 813e
00000120: c224 8bbd b722 793e 51de 63be bef5 6a3e
00000130: 721c 433d e0df fe3d 6a9c 013e 6a70 9cbc
00000140: 337b 10be f592 4c3e 3baf 203d 7df9 043e
00000150: ef74 c43e cacf bb3e 5aee 013e a340 88be
00000160: b2ad adbd 1ecc 1fbe 3439 0f3d fb83 3dbb
00000170: 39aa a0be 8746 b43e 2d5b f8bd 3687 cb3e
00000180: 44df 2f3d 345f c43d 93cf 4abd 605e 563e

conv_layers.0.lin_value.weight f4 [100, 100]
-0.03142562 -0.39306498 -0.33633038 0.08666932 0.2438819 -0.19195752 0.027781444 0.25778186
-0.06768556 -0.40491164 -0.55525166 0.18862352 -0.13356292 0.62079996 0.2562223 -0.24421932
-0.089780346 0.8441386 0.17630935 0.3038362 -0.5670904 0.5254754 -0.34589806 0.7933341
-0.26898074 -0.016793989 0.4857861 0.25296557 0.05869465 0.030979637 -0.19698113 -0.29003924
0.014139398 0.24419169 -0.64489657 -0.759725 -0.6489359 -0.20099324 -0.2598688 0.21185672
0.5419552 0.61133224 0.0676219 0.09172711 -0.09746872 -0.31382084 -0.0050223423 -0.25072917
0.33574829 -0.44963846 0.63438123 0.23343952 0.23840995 -0.03537249 -0.6464588 -0.2339491
-0.5228826 -0.5114243 -0.65654296 -0.07265778 -0.63453007 -0.62964773 -0.5388764 0.21320017
-0.21620733 -0.07375869 0.08267883 -0.06395162 -0.12717001 -0.40409222 -0.00077728956 0.23460424
0.25943297 0.13115504 0.040022578 -0.002188227 -0.31612298 0.12723866 -0.55224496 -0.3816762
0.14969489 -0.22458173 0.3896872 -0.2579139 0.42994475 -1.0351177 0.04286924 -0.008319063
-0.6979218 0.49961057 -0.22443391 0.19152303 0.1530579 -0.31910205 0.77822363 -0.3014546
0.27340674 -0.32085583 -0.02878555 -0.45881772 0.38961932 0.0090891775 0.062163495 0.097449265
-0.13959669 0.1741239 0.34588423 0.26175278 -0.23405768 -0.080453575 -0.58693725 -0.2516647
-0.24339603 0.4930662 0.3738314 -0.09411562 -0.19547182 -0.2720626 -0.108660586 -0.40430328
-0.36518186 0.5170265 0.22895661 -0.24659683 0.10843566 0.056857213 0.15231794 -0.13849403
0.31219524 -0.2311694 -0.30852148 -0.11812851 -0.17590955 0.6685272 -1.3836848 0.047089547
-0.07179339 0.23038042 0.15122394 0.15376492 0.48155123 0.05846271 0.2516032 -0.2691687
-1.2277257 -0.54953504 -0.35323572 0.11028209 0.44847038 -0.030117469 0.5778165 0.512235
-0.1561234 0.018715097 -0.15803373 -0.44986346 -0.2772034 -0.8069723 0.10447181 0.11429387
0.022318915 -0.81010664 -0.026981968 0.25285774 0.10020926 -0.061809897 -0.2270778 0.08792854
-0.34832162 0.35478663 -0.03555684 0.3342255 -0.1941498 -0.34374613 -0.15624496 0.050920308
-0.64401037 -0.706873 0.37841904 0.41719458 0.103713445 0.51249665 0.0798968 -0.178084
-0.59709734 -0.78821224 0.39445463 -0.61865246 -0.58163786 0.025137112 -0.62558866 0.49253494
0.57399684 0.64901036 1.0892675 0.14903843 0.089471586 0.21106373 0.5482183 -0.18367328
0.28658333 -0.51754093 0.18251559 -0.047589615 0.06165761 -0.2423741 -0.034777492 -0.1178626
-0.3572607 0.36319447 0.52408594 -0.7313737 0.093499996 -0.5679101 0.02321681 -0.4354704
-0.14326766 0.19619194 -0.49602783 -0.9105813 0.19913915 -0.49072224 -0.4157968 -0.49003288
-0.5135223 0.41227758 0.036209747 -0.24306048 -0.3029172 0.14603598 0.5394166 0.03796207
0.51805544 -0.012469965 0.5772773 -0.0005431064 0.12693441 -0.096406884 0.13008337 -0.45793828
-0.24239947 -0.47098398 -0.62654585 0.30187553 0.09095884 0.29904434 0.910276 0.45808828
-0.2078968 0.66598177 -0.20360358 0.33316317 -0.64075196 -0.5054624 0.122370355 -0.2652876
00000000: 27b8 00bd d03f c9be 7f33 acbe af7f b13d
00000010: 2dbc 793e 8390 44be e995 e33c fcfb 833e
00000020: ba9e 8abd 9450 cfbe f924 0ebf 8626 413e
00000030: b8c4 08be bfec 1e3f 922f 833e a114 7abe
00000040: c2de b7bd 7819 583f 708a 343e 6b90 9b3e
00000050: d62c 11bf 8e85 063f 8d19 b1be f217 4b3f
00000060: d8b7 89be 8c93 89bc f5b8 f83e b484 813e
00000070: cd69 703d 02c9 fd3c 6cb5 49be 0680 94be
00000080: efa8 673c 630d 7a3e f117 25bf 567d 42bf
00000090: aa20 26bf 2cd1 4dbe 860d 85be f8f0 583e
000000a0: 93bd 0a3f 4580 1c3f 5a7d 8a3d 6cdb bb3d
000000b0: ae9d c7bd 20ad a0be 7692 a4bb 935f 80be
000000c0: 33e7 ab3e 0337 e6be cf66 223f c50a 6f3e
000000d0: bd21 743e bee2 10bd 537e 25bf 5a90 6fbe
000000e0: a2db 05bf b4ec 02bf 3313 28bf 9acd 94bd
000000f0: 9070 22bf 9830 21bf cef3 09bf 2551 5a3e
00000100: 7465 5dbe cc0e 97bd 8553 a93d 11f9 82bd
00000110: db38 02be 2de5 cebe 05c3 4bba 183c 703e
00000120: 66d4 843e 824d 063e b7ee 233d 5b68 0fbb
00000130: dfda a1be da4a 023e ed5f 0dbf 106b c3be
00000140: 9e49 193e c1f8 65be 1585 c73e 4a0d 84be
00000150: b821 dc3e bd7e 84bf a897 2f3d ae4c 08bc
00000160: 01ab 32bf f5cc ff3e 01d2 65be 9d1e 443e
00000170: 36bb 1c3e 5861 a3be aa39 473f 4258 9abe
00000180: f8fb 8b3e 3747 a4be accf ebbc 28ea eabe
00000190: 2f7c c73e c6ea 143c 269f 7e3d 7b93 c73d
000001a0: 6ff2 0ebe 894d 323e bd17 b13e 7604 863e
000001b0: d1ac 6fbe d8c4 a4bd 8541 16bf 32da 80be
000001c0: cf3c 79be 2c73 fc3e d466 bf3e b1bf c0bd
000001d0: c429 48be ca4b 8bbe 7189 debd d700 cfbe
000001e0: 1ef9 babe d95b 043f 9a73 6a3e e183 7cbe
000001f0: 8413 de3d 1ce3 683d 3cf9 1b3e 61d1 0dbe
00000200: 0ed8 9f3e acb7 6cbe 87f6 9dbe 5ced f1bd
00000210: a221 34be 9924 2b3f 951c b1bf f8e0 403d
00000220: 6a08 93bd d8e8 6b3e 73da 1a3e 8d74 1d3e
00000230: e28d f63e 9876 6f3d 22d2 803e 7bd0 89be
00000240: 1e26 9dbf 54ae 0cbf 50db b4be 94db e13d
00000250: e99d e53e e9b8 f6bc c8eb 133f d521 033f
00000260: d0de 1fbe 6750 993c 98d3 21be 8154 e6be
00000270: 9bed 8dbe bd95 4ebf 51f5 d53d e812 ea3d
00000280: 28d6 b63c 2663 4fbf 4a09 ddbc 9276 813e
00000290: 833a cd3d 602c 7dbd 1587 68be e113 b43d
000002a0: 3657 b2be 98a6 b53e 0da4 11bd 9b1f ab3e
000002b0: 35cf 46be 7eff afbe aefe 1fbe d091 503d
000002c0: dddd 24bf a1f5 34bf 24c0 c13e 879a d53e
000002d0: b767 d43d fb32 033f efa0 a33d a75b 36be
000002e0: 5fdb 18bf 47c8 49bf f5f5 c93e 0260 1ebf
000002f0: 38e6 14bf 58ec cd3c 9426 20bf 8a2d fc3e
00000300: 75f1 123f 8b25 263f 1e6d 8b3f 889d 183e
00000310: e13c b73d 1721 583e 0958 0c3f d914 3cbe
00000320: 0dbb 923e 907d 04bf 5ee5 3a3e 54ed 42bd
00000330: b18c 7c3d eb30 78be d872 0ebd f261 f1bd
00000340: e0ea b6be a0f4 b93e 7f2a 063f 4f3b 3bbf
00000350: ed7c bf3d 8e62 11bf 2e31 be3c faf5 debe
00000360: c2b4 12be 8ae6 483e 5cf7 fdbe db1b 69bf
00000370: 22eb 4b3e f23f fbbe 51e3 d4be 97e5 fabe
00000380: 3376 03bf 0c16 d33e ac50 143d d9e4 78be
00000390: f717 9bbe 758a 153e 3517 0a3f 1e7e 1b3d
000003a0: 489f 043f d34e 4cbc 72c8 133f 415f 0eba
000003b0: 18fb 013e f970 c5bd 9334 053e e376 eabe
000003c0: 9137 78be d024 f1be 4f65 20bf 6e8f 9a3e
000003d0: a148 ba3d 571c 993e d907 693f 8c8a ea3e
000003e0: e6e2 54be c87d 2a3f 757d 50be 5d94 aa3e
000003f0: 5208 24bf fc65 01bf 4f9d fa3d c7d3 87be

conv_layers.0.lin_value.bias f4 [100]
-0.2023336 -0.39894962 -0.3450117 -0.13826887 -0.3504343 -0.20555848 -0.09114771 -0.2709698
-0.08881165 -0.35916016 -0.36702582 -0.29624623 -0.25313085 -0.18136613 -0.22802396 -0.1799615
-0.1960957 -0.29665762 -0.30173314 -0.23156807 -0.03132999 -0.2858034 -0.18699466 -0.24505521
-0.21837491 -0.080807045 -0.43890363 -0.4139757 -0.32280096 -0.2667436 -0.3369495 -0.5180419
-0.22085176 -0.1932687 -0.15228358 -0.37670663 -0.254474 -0.12730268 -0.09111436 -0.11890235
-0.055898406 -0.02740448 -0.35014272 -0.3085714 -0.27504486 -0.21625261 -0.095581375 -0.2708917
-0.18205956 -0.19437972 -0.15804616 -0.42441708 -0.40947565 -0.051109567 -0.16522895 -0.14641918
-0.12309469 -0.33987302 -0.26865613 -0.26272413 -0.2612096 -0.13729557 -0.23032302 -0.16194284
-0.40711188 -0.17120095 -0.21854241 -0.23770313 -0.34710312 -0.19633175 -0.16222267 -0.33964026
-0.011506271 -0.39153188 -0.23353854 -0.4296311 -0.0793856 -0.072846666 -0.1960181 -0.13706161
-0.24187976 -0.11811768 -0.2024642 -0.077299245 -0.18038501 -0.14298172 -0.23272176 -0.13586608
-0.06662068 -0.24850947 -0.15762214 -0.21765612 -0.2258073 -0.12035746 -0.24940217 -0.12997308
-0.11789972 -0.047030706 -0.3930969 -0.046604957
00000000: 8a30 4fbe 2043 ccbe 60a5 b0be 5b96 0dbe
00000010: 206c b3be ec7d 52be a7ab babd 8ebc 8abe
00000020: e2e2 b5bd d7e3 b7be cfea bbbe 96ad 97be
00000030: 5e9a 81be 0bb8 39be 1d7f 69be d447 38be
00000040: 50cd 48be 82e3 97be c47c 9abe 2e20 6dbe
00000050: e053 00bd d354 92be 877b 3fbe c1ef 7abe
00000060: ac9d 5fbe 2a7e a5bd fab7 e0be 9ff4 d3be
00000070: 2b46 a5be 9e92 88be a584 acbe 659e 04bf
00000080: f726 62be 3be8 45be 3af0 1bbe b1df c0be
00000090: 6b4a 82be a25b 02be 2a9a babd 1383 f3bd
000000a0: baf5 64bd 5c7f e0bc e845 b3be 12fd 9dbe
000000b0: aed2 8cbe 5371 5dbe 2bc0 c3bd 51b2 8abe
000000c0: d26d 3abe 7a0b 47be dad6 21be 324d d9be
000000d0: cba6 d1be 4458 51bd c731 29be e9ee 15be
000000e0: 1219 fcbd d603 aebe 4c8d 89be c783 86be
000000f0: 44bd 85be 3697 0cbe ccd9 6bbe 58d4 25be
00000100: f870 d0be 4d4f 2fbe 95c9 5fbe 7368 73be
00000110: 80b7 b1be 310b 49be b31d 26be 54e5 adbe
00000120: cc84 3cbc de76 c8be ba24 6fbe 9cf8 dbbe
00000130: eb94 a2bd a230 95bd f8b8 48be e159 0cbe
00000140: 54af 77be afe7 f1bd c652 4fbe 114f 9ebd
00000150: d9b6 38be cd69 12be 9d4e 6ebe 7a20 0bbe
00000160: 6c70 88bd 4479 7ebe b367 21be 3fe1 5ebe
00000170: 073a 67be f97d f6bd 4863 7fbe aa17 05be
00000180: 6975 f1bd 45a3 40bd ff43 c9be d7e4 3ebd

conv_layers.0.lin_skip.weight f4 [100, 100]
0.027201243 -0.2868302 -0.18066855 -0.13982227 -0.08977873 -0.07021695 -0.0020200526 -0.03140477
-0.08394313 -0.47328484 -0.25334513 0.22128151 0.08129486 0.32027423 0.24389493 -0.34926957
-0.15889858 0.3433158 0.07608955 0.13559534 0.20666902 0.4730148 -0.3978142 0.27746013
-0.17646608 0.013189028 0.40912202 0.06796616 0.15038571 0.013566556 0.11068107 0.22127973
0.080205016 0.24195345 -0.07703473 -0.068814486 -0.22522216 -0.097336225 -0.30387038 0.3875538
0.5263949 0.2995432 -0.10695121 0.3841965 0.07145327 -0.58681685 0.18998109 0.09266826
0.22274214 -0.1832125 -0.1254932 0.10272101 0.11113421 -0.28026247 -0.49259996 0.29828554
-0.5677984 -0.44420472 -0.3071897 0.28752238 -0.22049339 -0.1813124 -0.2715316 -0.0025304803
-0.3293236 -0.10512666 -0.12669262 -0.19158548 -0.19470675 -0.13248573 -0.095403075 -0.07902054
-0.14471978 0.19980392 -0.02254142 -0.11330741 -0.17564894 0.21842422 -0.08771125 0.006037519
0.14709936 -0.108081505 -0.057399042 -0.70754 0.14481425 -0.42319086 0.22158574 -0.06446186
-0.49544492 0.65858823 0.024842821 -0.29289487 -0.23511533 0.010336313 0.67634434 0.24719325
0.36251268 -0.51966465 0.32994598 -0.37078637 0.30243462 -0.17295463 -0.22672337 -0.06694565
0.07066427 0.1533824 0.024734056 0.5340489 -0.2782691 -0.48524666 -1.102057 0.36654058
-0.07355189 -0.3964748 0.7394206 0.009769837 -0.33794516 -0.20314592 -0.03335823 0.23212628
-0.31481767 0.7276359 -0.044188008 -0.3667104 -0.012582325 0.22175315 0.020800998 -0.15071975
0.30195183 -0.64706236 -0.6610021 -0.2832959 -0.070978686 0.5179829 -0.40411457 0.453114
-0.1808765 -0.04163454 0.21160334 0.09728623 0.18275756 0.26616874 0.5107443 -0.1786287
-0.243179 -0.12495625 0.20000654 0.3612499 0.10494126 -0.40616432 0.264729 0.17182401
0.24058455 -0.5002394 -0.19980417 -0.3058034 -0.5282047 -0.03870004 -0.30201948 -0.44264555
0.2787462 0.35361028 0.8367617 0.1390814 -0.16441329 -0.01981249 -0.45731843 -0.58410877
-0.18555957 -0.27058792 0.41004083 0.49791962 -0.13653526 -0.066922545 0.3897007 -0.06795917
0.20391184 -0.56944215 0.28710383 0.325446 0.14317167 0.45038375 0.25311598 -0.1072306
-0.26228634 -0.13718715 0.34896624 -0.3854991 -0.13770251 -0.122040525 -0.10771694 0.67348474
-0.019109638 0.73065835 0.5464587 -0.018054446 -0.5003674 0.5345896 0.4038583 -0.009091045
0.41107538 -0.17638569 0.055311758 0.19594868 0.030179882 0.0049429894 0.12519374 -0.14792632
-0.26396817 0.16523013 0.60624474 -0.08593917 0.5470592 -0.3687803 0.120069906 -0.19327365
-0.5373694 0.49593055 -0.6953708 -0.25903296 0.104820564 -0.14711562 -0.1441935 -0.18570633
0.12601367 0.34191155 0.089531586 0.17324184 -0.41978368 -0.6347329 0.36004522 -0.117628366
0.4331397 0.06636686 0.09782994 -0.017390734 0.47427619 -0.2725836 0.038499713 -0.022689058
-0.43214026 0.0014466638 0.20835434 0.009136813 0.15901592 0.49740106 0.15434086 0.22518407
0.27483553 0.5804255 -0.5099632 0.3120624 -0.037974678 -0.08727035 -0.1813263 -0.16131605
00000000: 24d5 de3c 68db 92be 2d01 39be 922d 0fbe
00000010: e9dd b7bd e7cd 8fbd dc62 04bb 4aa2 00bd
00000020: 60ea abbd 6452 f2be 74b6 81be 9f97 623e
00000030: eb7d a63d fcfa a33e 98bf 793e 76d3 b2be
00000040: 4fb6 22be 17c7 af3e d7d4 9b3d 81d9 0a3e
00000050: 0ba1 533e ff2e f23e 4eae cbbe 410f 8e3e
00000060: 86b3 34be cb16 583c 7178 d13e d831 8b3d
00000070: b6fe 193e 4346 5e3c c2ac e23d 2797 623e
00000080: 8742 a43d a5c2 773e 62c4 9dbd 9cee 8cbd
00000090: a3a0 66be 3758 c7bd e694 9bbe 746d c63e
000000a0: d1c1 063f ba5d 993e 3c09 dbbd 67b5 c43e
000000b0: 1856 923d a139 16bf 678a 423e dbc8 bd3d
000000c0: 8416 643e 0f9c 3bbe 4a81 00be 655f d23d
000000d0: 559a e33d 907e 8fbe 1036 fcbe e2b8 983e
000000e0: 3c5b 11bf cd6e e3be f847 9dbe 2236 933e
000000f0: 05c9 61be f5a9 39be 3106 8bbe 6ad6 25bb
00000100: 1a9d a8be a54c d7bd b6bb 01be fc2e 44be
00000110: 3561 47be 57aa 07be b062 c3bd 85d5 a1bd
00000120: 6c31 14be 6699 4c3e c9a8 b8bc b70d e8bd
00000130: 51dd 33be 99aa 5f3e f5a1 b3bd 61d6 c53b
00000140: 37a1 163e d659 ddbd 421b 6bbd 5721 35bf
00000150: 304a 143e 79ac d8be 5fe7 623e 9404 84bd
00000160: f5aa fdbe 3d99 283f 2c83 cb3c 51f6 95be
00000170: 13c2 70be a459 293c e724 2d3f 3a20 7d3e
00000180: 439b b93e be08 05bf aeee a83e b6d7 bdbe
00000190: b6d8 9a3e 051b 31be 2c2a 68be cd1a 89bd
000001a0: 6eb8 903d 4710 1d3e 139f ca3c 6eb7 083f
000001b0: 4a79 8ebe 4072 f8be 3410 8dbf 35ab bb3e
000001c0: 60a2 96bd bffe cabe ab4a 3d3f ab11 203c
000001d0: 2607 adbe 7c05 50be a4a2 08bd 83b2 6d3e
000001e0: c82f a1be 5946 3a3f 7cfe 34bd 77c1 bbbe
000001f0: 1926 4ebc 4213 633e db66 aa3c 4756 1abe
00000200: 6e99 9a3e e1a5 25bf 6f37 29bf 290c 91be
00000210: 465d 91bd 879a 043f 1be8 cebe 8ffe e73e
00000220: b037 39be fb88 2abd 8cae 583e 013e c73d
00000230: cc24 3b3e 4547 883e 23c0 023f 71ea 36be
00000240: ea03 79be 10e9 ffbd 84ce 4c3e bff5 b83e
00000250: 71eb d63d c5f4 cfbe 8f8a 873e a2f2 2f3e
00000260: cc5b 763e b00f 00bf 7799 4cbe 4392 9cbe
00000270: 6c38 07bf ef83 1ebd 4ca2 9abe 70a2 e2be
00000280: d2b7 8e3e 680c b53e 0436 563f 5b6b 0e3e
00000290: f55b 28be ce4d a2bc a425 eabe 2788 15bf
000002a0: 5403 3ebe 808a 8abe dff0 d13e 52ef fe3e
000002b0: e6cf 0bbe b00e 89bd da86 c73e 2d2e 8bbd
000002c0: 44ce 503e f6c6 11bf 46ff 923e dca0 a63e
000002d0: 989b 123e b398 e63e 6b98 813e b89b dbbd
000002e0: 654a 86be ca7a 0cbe b4ab b23e 2360 c5be
000002f0: e301 0dbe 62f0 f9bd b39a dcbd 7f69 2c3f
00000300: d18b 9cbc 6d0c 3b3f b8e4 0b3f ebe6 93bc
00000310: 1418 00bf ddda 083f 84c6 ce3e 9bf2 14bc
00000320: 7978 d23e 739e 34be 958e 623d c5a6 483e
00000330: cd3b f73c cdf8 a13b ca32 003e ff79 17be
00000340: d626 87be 1632 293e db32 1b3f e000 b0bd
00000350: 120c 0c3f c5d0 bcbe 36e7 f53d 87e9 45be
00000360: 0a91 09bf 9cea fd3e d203 32bf f89f 84be
00000370: 2aac d63d 7aa5 16be 76a7 13be cd29 3ebe
00000380: ba09 013e 080f af3e 565c b73d 4f66 313e
00000390: e3ed d6be db7d 22bf d957 b83e 24e7 f0bd
000003a0: 7dc4 dd3e 59eb 873d 105b c83d 0377 8ebc
000003b0: 54d4 f23e 1490 8bbe e0b1 1d3d 67de b9bc
000003c0: 7d41 ddbe fb9d bd3a d75a 553e 92b2 153c
000003d0: 12d5 223e 5aab fe3e 880b 1e3e a796 663e
000003e0: 3eb7 8c3e c496 143f f38c 02bf a5c6 9f3e
000003f0: 568b 1bbd ccba b2bd 9aad 39be 0930 25be

conv_layers.0.lin_skip.bias f4 [100]
-0.049607612 -0.3702395 -0.4044734 -0.3388816 -0.18697341 -0.19094655 -0.03290783 -0.26882306
0.016827166 -0.3117873 -0.39717522 -0.301633 -0.34518933 -0.14466324 -0.23441322 -0.20029232
-0.16056931 -0.3694796 -0.42999732 -0.24399704 -0.0709146 -0.11680446 -0.1297495 -0.1459983
-0.29323727 -0.12609181 -0.3074821 -0.33647707 -0.4589805 -0.32184106 -0.3290772 -0.5285438
-0.32031184 -0.08148437 -0.02302861 -0.25557727 -0.3186491 -0.12500395 -0.24332957 -0.13190682
-0.10424232 -0.16967903 -0.40166035 -0.23570591 -0.286913 -0.14431332 0.016777143 -0.21762365
-0.036837734 -0.08041011 -0.08079735 -0.46445465 -0.42872876 -0.14463829 -0.3192469 -0.17297423
-0.22572066 -0.21351553 -0.2824864 -0.21154179 -0.29731512 -0.1909944 -0.19250587 -0.29755
-0.26412776 -0.18918782 -0.25456417 -0.21625645 -0.21323067 -0.19106103 -0.0883293 -0.3677183
-0.102418296 -0.34765562 -0.07609802 -0.5818011 -0.194815 -0.03244119 -0.3432507 -0.22543123
-0.30309275 -0.1505028 -0.15855017 -0.09419449 -0.17149761 -0.23377934 -0.38735744 -0.12482383
-0.24749482 -0.26992416 -0.10835925 -0.28991896 -0.10107402 -0.18775795 -0.22387439 -0.094065785
-0.16475652 -0.02741881 -0.28033808 -0.10140865
00000000: 5a31 4bbd 0890 bdbe 2317 cfbe e481 adbe
00000010: f575 3fbe 7e87 43be 5cca 06bd 2da3 89be
00000020: 20d9 893c 96a2 9fbe 8d5a cbbe a46f 9abe
00000030: a8bc b0be 9a22 14be 050a 70be 6e19 4dbe
00000040: 486c 24be 6e2c bdbe 9c28 dcbe 5cda 79be
00000050: ac3b 91bd 2d37 efbd 0edd 04be 9480 15be
00000060: 3223 96be 361e 01be 4b6e 9dbe b946 acbe
00000070: 7eff eabe 5ac8 a4be cf7c a8be a54e 07bf
00000080: eaff a3be 47e1 a6bd 7fa6 bcbc 06db 82be
00000090: fa25 a3be 0901 00be 632b 79be 9512 07be
000000a0: ff7c d5bd 57c0 2dbe 6da6 cdbe e45c 71be
000000b0: 43e6 92be dfc6 13be 3870 893c bcd8 5ebe
000000c0: 2ae3 16bd 0eae a4bd 1579 a5bd 00cd edbe
000000d0: 5682 dbbe 0f1c 14be 5474 a3be 2820 31be
000000e0: 5123 67be d1a3 5abe 0fa2 90be 699e 58be
000000f0: b039 98be 0994 43be 4220 45be 7958 98be
00000100: c13b 87be 74ba 41be 3c56 82be 5572 5dbe
00000110: 2459 5abe 81a5 43be fee5 b4bd 9345 bcbe
00000120: afc0 d1bd ebff b1be 47d9 9bbd ebf0 14bf
00000130: 957d 47be 0ee1 04bd 8ebe afbe 72d7 66be
00000140: f92e 9bbe 681d 1abe fa5a 22be 0ae9 c0bd
00000150: 129d 2fbe da63 6fbe b753 c6be a3a3 ffbd
00000160: 486f 7dbe 8033 8abe 74eb ddbd 4270 94be
00000170: e5ff cebd 9f43 40be 543f 65be 90a5 c0bd
00000180: efb5 28be 6a9d e0bc 7988 8fbe 57af cfbd

conv_layers.1.lin_key.weight f4 [100, 100]
0.23594347 -0.11033832 -0.38059616 -0.030779356 -0.43590754 0.115292944 -0.2185466 0.2766411
0.24072893 0.22334157 0.31169 0.17422496 -0.21394803 0.19119021 0.2596087 0.31004795
-0.4719949 -0.4040216 0.16555692 -0.08056451 -0.54391843 0.03980768 0.5577514 -0.022561315
0.20272186 0.12137589 0.107364714 0.0686187 0.107479915 -0.13151179 0.06461908 0.02902213
0.24136621 -0.11848075 0.20479237 0.183847 -0.17866161 -0.182486 0.24964267 0.5074984
-0.023762135 -0.13180669 -0.8267207 -0.07285039 -0.09768671 0.12995017 0.0015878872 0.26167777
0.2805329 0.62053156 0.18636054 0.07385396 -0.019930935 0.3285534 -0.39208496 0.22821388
-0.3241878 -0.09183182 0.26618707 -0.02117347 -0.7990257 0.11584472 0.0037178297 -0.00835601
-0.36029056 -0.36172968 -0.030704705 -0.32062605 -0.12380248 -0.112650774 0.16048862 0.36076546
-0.12945555 0.00015552429 -0.58578426 -0.25926977 0.1606791 -0.502542 0.16536412 0.08517148
0.00038774824 -0.23451205 0.4733064 0.52822804 0.0087334 -0.00043636025 -0.31264192 0.17084822
-0.092299044 0.1143767 -0.5414757 0.28245953 0.14872584 -0.20163423 -0.21435244 0.3484581
-0.09604739 -0.20705545 -0.14043136 -0.032198444 0.609097 0.15437512 0.27351293 -0.71198845
0.109005935 -0.35697258 0.5169328 -0.17173348 0.16706121 0.0042740796 -0.097349085 -0.56773025
-0.42337373 -0.61476225 -0.11560397 -0.12880498 0.4384681 -0.7152727 0.3470785 -0.70988756
-0.550313 0.2583271 0.103642054 0.24466914 0.26759064 0.4546417 -0.16712964 -0.094206326
0.06781474 -0.15612084 0.50027245 0.3469919 0.5113834 -0.6386605 -0.076440364 -0.32608965
0.22412588 0.2876564 0.77550584 0.17986505 0.1452595 0.029214574 -0.36369166 0.09510476
0.1163687 -0.20568831 0.47226104 -0.615241 -0.23930128 0.6258699 0.00055479794 -0.04157091
0.27009344 0.2830376 0.030166296 0.50497895 0.16295855 0.034466397 -0.29787883 0.118861124
-0.11291703 0.105422795 0.069436125 0.02649662 -0.38681895 0.57257015 -0.41706684 0.14158942
0.37661052 0.020328466 0.60953027 0.14388399 0.73349935 -0.10172521 -0.47327834 0.1912267
0.03268429 0.8331254 0.41959488 -0.33999142 -0.25385246 0.52289593 0.35981295 -0.17868929
0.2613543 -0.003499188 -0.08658735 0.03484123 -0.13371016 -0.4693309 -0.50558525 0.33699456
-0.2914769 -0.47229916 0.08165963 -0.2513279 0.21367367 0.22958072 0.32314733 0.20878205
0.48403394 -0.21324623 -0.11758803 -0.35703263 -0.3571736 -0.046759307 0.3969315 -0.068093106
0.22985005 0.036133684 0.17137855 -0.31640342 -0.28304005 -0.23332961 0.19516812 0.105128385
-0.03179906 -0.49546576 0.41784367 -0.423931 -0.3511731 0.21394582 0.33949503 0.17148013
0.28268382 0.25904685 -0.026889011 -0.02760393 0.13220553 -0.25386536 0.12802649 0.37427285
0.4329425 -0.56241304 0.07267639 -0.05604338 0.061089884 -0.0037170858 0.39223242 0.12549026
0.2637322 -0.06168558 -0.71771777 -0.05774174 -0.18332419 -0.2524586 0.36688912 -0.14706028
-0.1768858 0.5906453 0.043057058 -0.092271455 0.12790233 0.37866145 -0.06011734 0.5482965
00000000: 2a9b 713e 0ff9 e1bd 80dd c2be fd24 fcbc
00000010: 462f dfbe b51e ec3d aeca 5fbe e7a3 8d3e
00000020: a581 763e a7b3 643e d595 9f3e 0768 323e
00000030: 3115 5bbe 5ec7 433e 6eeb 843e 9bbe 9e3e
00000040: 51a9 f1be ebdb cebe c187 293e 01ff a4bd
00000050: 3d3e 0bbf 610d 233d ccc8 0e3f 82d2 b8bc
00000060: 5296 4f3e ec93 f83d 08e2 db3d f687 8c3d
00000070: 6e1e dc3d 07ab 06be 0257 843d d1bf ed3c
00000080: b428 773e 09a6 f2bd 17b5 513e 6342 3c3e
00000090: 12f3 36be 9cdd 3abe 54a2 7f3e 6aeb 013f
000000a0: cfa8 c2bc 55f8 06be f8a3 53bf 9632 95bd
000000b0: f80f c8bd a811 053e a720 d03a a1fa 853e
000000c0: 02a2 8f3e 28db 1e3f 4cd5 3e3e bf40 973d
000000d0: 3346 a3bc 2738 a83e 5cbf c8be e6b0 693e
000000e0: f1fb a5be 5212 bcbd ac49 883e fc73 adbc
000000f0: f38c 4cbf ff3f ed3d d5a6 733b a5e7 08bc
00000100: 0178 b8be a234 b9be 6f88 fbbc 1929 a4be
00000110: 288c fdbd 73b5 e6bd 2157 243e 40b6 b83e
00000120: ff8f 04be 3c14 2339 f5f5 15bf 02bf 84be
00000130: 1089 243e 98a6 00bf 3655 293e 636e ae3d
00000140: b04a cb39 ed23 70be 3755 f23e f439 073f
00000150: 8916 0f3c 48c7 e4b9 9a12 a0be d6f2 2e3e
00000160: 4807 bdbd 553e ea3d 279e 0abf 899e 903e
00000170: 964b 183e 3479 4ebe 357f 5bbe 1a69 b23e
00000180: 7eb4 c4bd 5806 54be 3dcd 0fbe 84e2 03bd
00000190: c8ed 1b3f 8314 1e3e e309 8c3e e044 36bf
000001a0: 813e df3d 1cc5 b6be b555 043f e7da 2fbe
000001b0: 1812 2b3e 940d 8c3b f55e c7bd c556 11bf
000001c0: 71c4 d8be 0f61 1dbf c6c1 ecbd 74e5 03be
000001d0: e47e e03e 1d1c 37bf 46b4 b13e 31bb 35bf
000001e0: 50e1 0cbf 7343 843e 4942 d43d 8c8a 7a3e
000001f0: a401 893e ccc6 e83e 0824 2bbe 3fef c0bd
00000200: 74e2 8a3d 24de 1fbe db11 003f eca8 b13e
00000210: 06ea 023f 417f 23bf c48c 9cbd 39f5 a6be
00000220: 4181 653e b347 933e 8d87 463f 8b2e 383e
00000230: e8be 143e 6753 ef3c cb35 babe 49c6 c23d
00000240: b752 ee3d f59f 52be 33cc f13e 6f80 1dbf
00000250: 650b 75be 0339 203f dc6f 113a 4246 2abd
00000260: b049 8a3e 4eea 903e 4f1f f73c 4d46 013f
00000270: 9bde 263e a32c 0d3d 9383 98be 766d f33d
00000280: 0b41 e7bd e8e7 d73d 8734 8e3d 710f d93c
00000290: 220d c6be f593 123f c989 d5be d1fc 103e
000002a0: 18d3 c03e e287 a63c 2d0a 1c3f 5356 133e
000002b0: 9dc6 3b3f 4f55 d0bd 8a51 f2be efd0 433e
000002c0: f6df 053d b547 553f 24d5 d63e 5b13 aebe
000002d0: f3f8 81be 82dc 053f 6739 b83e 53fa 36be
000002e0: 3bd0 853e a252 65bb b554 b1bd adb5 0e3d
000002f0: 51eb 08be 244c f0be 096e 01bf 8d8a ac3e
00000300: 763c 95be 32d1 f1be 2a3d a73d 0dae 80be
00000310: 45cd 5a3e 3517 6b3e 9173 a53e f6ca 553e
00000320: 4cd3 f73e 385d 5abe fed1 f0bd fbcc b6be
00000330: 75df b6be b086 3fbd 9b3a cb3e 6674 8bbd
00000340: d05d 6b3e ea00 143d dc7d 2f3e a1ff a1be
00000350: a0ea 90be f5ed 6ebe 27da 473e 8d4d d73d
00000360: bb3f 02bd b0ad fdbe 9bef d53e 7c0d d9be
00000370: f6cc b3be 9d14 5b3e 4bd2 ad3e 7d98 2f3e
00000380: efbb 903e caa1 843e 5846 dcbc a321 e2bc
00000390: e360 073e a4fa 81be 6019 033e b1a0 bf3e
000003a0: a4aa dd3e 4dfa 0fbf 5cd7 943d be8d 65bd
000003b0: 6339 7a3d 5a9a 73bb b0d2 c83e 8580 003e
000003c0: e807 873e 05aa 7cbd 5abc 37bf 9a82 6cbd
000003d0: 56b9 3bbe 4142 81be e4d8 bb3e f896 16be
000003e0: 8d21 35be 8834 173f 995c 303d d1f8 bcbd
000003f0: d4f8 023e eadf c13e 9a3d 76bd 295d 0c3f

conv_layers.1.lin_key.bias f4 [100]
-9.700343e-06 -6.9878415e-06 -2.6356887e-05 -5.1427673e-06 2.382221e-05 9.389797e-06 1.3191326e-05 7.3091865e-06
1.6809527e-06 1.7064085e-06 3.494844e-05 1.0812658e-05 1.5180886e-05 1.881971e-05 -1.8918863e-05 -2.7553437e-05
7.02816e-07 -1.5196313e-05 9.179456e-06 -3.9908315e-05 -0.0001493712 -6.364354e-06 -5.927229e-05 -2.7166536e-05
2.6849375e-06 4.192891e-05 -3.3153905e-05 -1.452735e-05 -3.9043675e-06 -2.4897336e-05 -4.064744e-05 3.6174558e-06
1.9972873e-07 -6.708762e-05 -1.2432587e-05 -8.63536e-06 2.0158443e-06 1.2226896e-05 2.7611657e-06 4.55802e-05
0.00015327477 5.5359582e-05 -4.5007623e-06 -2.664317e-05 1.2906957e-05 -1.536738e-05 6.512681e-06 -9.089071e-06
-5.815628e-05 -5.1717736e-05 -3.884833e-05 4.2144097e-06 -2.6203092e-05 -2.2816918e-07 -1.357767e-05 -4.7727317e-06
-2.0222707e-05 -2.5172121e-05 7.5110074e-05 0.0001084454 -1.7368328e-07 -2.0150908e-05 -2.399571e-05 5.1962765e-05
-2.83942e-05 1.0347986e-05 1.8311224e-05 -4.7923218e-06 6.8664895e-06 0.00020485828 1.8758018e-06 -2.3180892e-05
1.4273063e-05 -1.9294333e-05 3.059418e-05 1.0727232e-05 -1.5103346e-05 -2.770118e-05 -3.9106203e-06 6.217706e-06
-4.8083807e-06 -1.4517341e-05 1.5620479e-05 -2.6178282e-05 2.6202628e-05 -9.214766e-06 -3.1891009e-06 1.9643196e-05
-5.702722e-07 -1.039632e-05 -1.3312383e-05 1.0642282e-05 -5.252592e-06 -4.585862e-06 -9.946275e-05 6.087892e-06
1.4892294e-05 9.116311e-07 5.648643e-06 -4.710206e-06
00000000: a8be 22b7 1a79 eab6 fc18 ddb7 0990 acb6
00000010: ced5 c737 df88 1d37 5050 5d37 6f41 f536
00000020: 189d e135 c007 e535 9a95 1238 0368 3537
00000030: 69b1 7e37 05df 9d37 f3b3 9eb7 8e22 e7b7
00000040: 26a9 3c35 abf3 7eb7 7701 1a37 3a63 27b8
00000050: 87a0 1cb9 628d d5b6 239b 78b8 b1e3 e3b7
00000060: e02e 3436 d3dc 2f38 bc0e 0bb8 7eba 73b7
00000070: 4302 83b6 9fda d0b7 db7c 2ab8 6bc3 7236
00000080: 0475 5634 64b1 8cb8 8e95 50b7 97e0 10b7
00000090: f147 0736 1e22 4d37 774c 3936 5e2d 3f38
000000a0: 62b8 2039 e631 6838 4105 97b6 c67f dfb7
000000b0: f58a 5837 32e9 80b7 8187 da36 437d 18b7
000000c0: d5ec 73b8 7feb 58b8 14f1 22b8 8169 8d36
000000d0: b6ce dbb7 abfe 74b4 a6cb 63b7 7425 a0b6
000000e0: efa3 a9b7 b828 d3b7 6a84 9d38 2e6d e338
000000f0: b27d 3ab4 bf09 a9b7 654a c9b7 98f2 5938
00000100: 1530 eeb7 439c 2d37 0e9b 9937 bbcd a0b6
00000110: b266 e636 3acf 5639 0fc4 fb35 9674 c2b7
00000120: 5776 6f37 44da a1b7 4052 0038 1cf9 3337
00000130: 6164 7db7 d55f e8b7 f937 83b6 b0a1 d036
00000140: ad57 a1b6 818f 73b7 b908 8337 6f99 dbb7
00000150: b7cd db37 1e99 1ab7 5604 56b6 71c7 a437
00000160: cf14 19b5 db6b 2eb7 4058 5fb7 418c 3237
00000170: 6c3f b0b6 41e0 99b6 a896 d0b8 9846 cc36
00000180: ead9 7937 d0b6 7435 7989 bd36 5d0c 9eb6

conv_layers.1.lin_query.weight f4 [100, 100]
-0.2584935 -0.24372646 -0.051322624 0.34997326 -0.11487733 -0.22809048 -0.11833529 0.12479797
-0.4652707 0.25102574 -0.44952992 -0.28341663 -0.75023174 0.0076292087 -0.0012657875 -0.18829371
-0.06766466 -0.36792964 -0.21454844 -0.12512855 -0.5162129 -0.14641595 0.122981474 -0.2827365
-0.25107673 -0.12669136 0.1593259 -0.003047446 -0.29148808 -0.09181624 -0.16845681 -0.1617638
0.19467254 -0.2862385 -0.13268246 0.0545951 -0.39535728 -0.24851759 0.14438647 -0.009927912
-0.25312233 0.28582957 0.18898854 0.20281282 0.043306444 -0.10237221 -0.16059917 -0.37948716
-0.20048177 -0.4015156 -0.21029137 -0.112613805 -0.12443627 0.054382905 -0.09540473 -0.18878463
-0.40126583 -0.13367519 -0.11167961 -0.25369552 -0.20996949 -0.2251943 -0.24642144 -0.022888878
-0.15530595 -0.3890313 0.029678479 -0.099198155 -0.11133278 0.06927812 -0.021809604 -0.08501934
-0.4888154 0.1590748 -0.13542081 0.13280903 -0.027137652 -0.5925196 -0.27676713 -0.4048794
-0.1781657 -0.07621252 0.27815524 -0.7309724 0.011078895 -0.20846066 -0.1893528 -0.045770817
0.03148004 -0.19373517 -0.110507146 0.047990914 -0.2992287 -0.24183479 0.07618608 -0.039265152
0.24452241 0.21075168 -0.27155444 -0.58686197 0.13405368 0.13251472 0.19437194 0.36778614
-0.4557115 -0.26741332 -0.38127705 -0.3030711 -0.043547764 -0.32180947 0.26635107 -0.38223612
0.202668 -0.39450142 0.02418219 0.18828769 -0.1568904 0.14937852 0.32720795 -0.17890178
0.24711396 -0.26629573 -0.13386378 -0.050647695 0.0037282272 -0.041378416 -0.11171463 -0.041375794
0.20906624 0.09967294 -0.22869785 -0.4931893 -0.41594234 0.06680216 -0.10696531 -0.0025726922
-0.16097346 -0.24591143 0.20019743 -0.5378039 -0.43811962 -0.2931093 -0.19469155 -0.18154414
-0.24801143 -0.2657868 0.05041278 -0.3101515 -0.24048454 0.16643676 -0.20428632 -0.4277149
0.33280355 -0.09888827 0.25110596 0.052430313 -0.14309694 0.11040067 -0.2858624 -0.28285736
-0.24640016 -0.072021574 -0.027473595 0.651654 0.2053895 -0.13271153 -0.07909862 -0.13498461
-0.37578928 -0.13303402 -0.2033868 0.1838175 -0.57823545 -0.61499447 -0.6226352 -0.08441933
0.18010394 -0.49456224 0.28678373 -0.23280573 0.09572076 -0.17480345 -0.25099593 -0.200075
-0.12261613 -0.16485342 0.033290055 -0.70424557 -0.265648 0.01893608 -0.051161166 -0.101630256
0.018154668 0.18245454 -0.4321693 -0.18270852 -0.09833558 -0.17945671 -0.31853098 -0.5162304
0.16543083 0.06578537 0.05340862 0.39616743 -0.19626875 -0.121089764 -0.15432863 0.068422504
-0.20403183 -0.12928183 -0.20257106 -0.20462963 -0.19016425 -0.1863377 -0.13435784 0.02358476
0.06811923 0.1450111 -0.028987382 -0.19761315 0.006738705 -0.25354737 0.108959794 -0.18873432
-0.24899861 -0.18979806 -0.015805544 -0.025710374 -0.062063623 0.024724405 -0.3268172 -0.29845193
-0.023740757 -0.06908183 -0.06528843 0.13936542 -0.20126982 -0.31928188 0.17889483 -0.14656724
-0.61765116 -0.08588456 0.14328772 0.06408095 -0.06589416 -0.22103283 -0.26525372 -0.14825177
-0.1828002 -0.095866516 -0.07821499 -0.22693722 0.14462283 0.07119757 0.15913554 -0.11219766
00000000: 4359 84be 6e93 79be ac37 52bd b22f b33e
00000010: ce44 ebbd 8d90 69be c659 f2bd 1496 ff3d
00000020: f637 eebe 7286 803e c928 e6be fc1b 91be
00000030: 300f 40bf 71fe f93b c8e8 a5ba 11d0 40be
00000040: c593 8abd 4661 bcbe 96b2 5bbe b321 00be
00000050: 8726 04bf 10ee 15be b6dd fb3d d7c2 90be
00000060: 218d 80be 61bb 01be 5426 233e a9b7 47bb
00000070: ed3d 95be 270a bcbd f17f 2cbe 69a5 25be
00000080: 3d58 473e da8d 92be e9dd 07be 1d9f 5f3d
00000090: 456c cabe 657b 7ebe 0cda 133e aea8 22bc
000000a0: 4099 81be 4158 923e 3686 413e 2aae 4f3e
000000b0: 1962 313d 85a8 d1bd 1c74 24be 244c c2be
000000c0: 184b 4dbe 7493 cdbe 9f56 57be 11a2 e6bd
000000d0: 71d8 febd 9cc0 5e3d 8e63 c3bd c250 41be
000000e0: b772 cdbe 26e2 08be 48b8 e4bd 61e4 81be
000000f0: 3e02 57be 5699 66be e755 7cbe 7581 bbbc
00000100: 8608 1fbe 1c2f c7be 4820 f33c 6728 cbbd
00000110: 7102 e4bd b0e1 8d3d 0eaa b2bc 9f1e aebd
00000120: 0346 fabe 81e4 223e c1ab 0abe 17ff 073e
00000130: c84f debc 5daf 17bf 6cb4 8dbe 5a4c cfbe
00000140: 1271 36be 4f15 9cbd 5d6a 8e3e 0221 3bbf
00000150: 4184 353c b676 55be b3e5 41be 2e7a 3bbd
00000160: 37f1 003d 8362 46be 9251 e2bd 1f92 443d
00000170: 8134 99be 8aa3 77be 7307 9c3d 7fd4 20bd
00000180: 1564 7a3e 4acf 573e 2f09 8bbe 963c 16bf
00000190: 5e45 093e f0b1 073e 7009 473e 774e bc3e
000001a0: 0553 e9be 66ea 88be bf36 c3be 232c 9bbe
000001b0: 245f 32bd 36c4 a4be 2b5f 883e 74b4 c3be
000001c0: 3388 4f3e 17fc c9be ba19 c63c 7dce 403e
000001d0: e1a7 20be aff6 183e cd87 a73e 0732 37be
000001e0: 710b 7d3e ea57 88be 9613 09be f573 4fbd
000001f0: 4655 743b 6a7c 29bd a4ca e4bd aa79 29bd
00000200: 7615 563e 5421 cc3d c52f 6abe 4f83 fcbe
00000210: 65f6 d4be 92cf 883d a110 dbbd 9d9a 28bb
00000220: 3ad6 24be 35d0 7bbe 8e00 4d3e 84ad 09bf
00000230: 3751 e0be 6c12 96be 395d 47be b5e6 39be
00000240: b5f6 7dbe 3515 88be a27d 4e3d 2dcc 9ebe
00000250: 9441 76be 666e 2a3e 6f30 51be 73fd dabe
00000260: 3a65 aa3e ef85 cabd f690 803e 2bc1 563d
00000270: 0188 12be bf19 e23d 8e5c 92be aed2 90be
00000280: 5350 7cbe 0c80 93bd 4e10 e1bc ccd2 263f
00000290: a051 523e 88e5 07be 75fe a1bd 6839 0abe
000002a0: 7467 c0be 123a 08be a144 50be a83a 3c3e
000002b0: 3d07 14bf 4770 1dbf 0565 1fbf 0be4 acbd
000002c0: 2b6d 383e 4337 fdbe 51d5 923e a064 6ebe
000002d0: 3f09 c43d adff 32be 8a82 80be 76e0 4cbe
000002e0: 2a1e fbbd 56cf 28be 275b 083d 7049 34bf
000002f0: 0403 88be d71f 9b3c 5f8e 51bd 8623 d0bd
00000300: 19b9 943c 5dd5 3a3e 4b45 ddbe f117 3bbe
00000310: 2a64 c9bd 80c3 37be 7e16 a3be ad27 04bf
00000320: b366 293e 7bba 863d ffc2 5a3d 75d6 ca3e
00000330: adfa 48be e9fd f7bd 5308 1ebe 1921 8c3d
00000340: b8ed 50be 7562 04be ca6e 4fbe 6e8a 51be
00000350: 6bba 42be 4fcf 3ebe 1a95 09be d434 c13c
00000360: 1882 8b3d ca7d 143e f276 edbc 1a5b 4abe
00000370: 5bd0 dc3b f6d0 81be 5026 df3d 9243 41be
00000380: 7ef9 7ebe 6c5a 42be a17a 81bc 909e d2bc
00000390: 6d36 7ebd d68a ca3c 9654 a7be b1ce 98be
000003a0: fa7b c2bc c67a 8dbd f1b5 85bd cfb5 0e3e
000003b0: ad19 4ebe ea78 a3be 3530 373e b915 16be
000003c0: 631e 1ebf 3fe4 afbd 04ba 123e e03c 833d
000003d0: 84f3 86bd 6e56 62be 56cf 87be 50cf 17be
000003e0: fa2f 3bbe aa55 c4bd 2e2f a0bd 3b62 68be
000003f0: 0218 143e 08d0 913d 6df4 223e e3c7 e5bd
