ProG/pre_trained_gnn/CiteSeer.GraphCL.GAT.pth (torch, 85777 bytes, 10 tensors)

conv_layers.0.att_src f4 [1, 1, 100]
0	0x3cf42e69	0.029807286
1	0xbe77d333	-0.2420166
2	0xbd775a20	-0.060388684
3	0x3c940151	0.018067034
4	0x3d5f346e	0.05449336
5	0xbeebed13	-0.4607931
6	0x3e534ece	0.2063553
7	0xbddf8b0d	-0.10915194
8	0x3e08411e	0.1330609
9	0xbe63bbbf	-0.22239588
10	0x3d94c1c2	0.07263519
11	0x3d978fe7	0.07400494
12	0x3d8a9b00	0.06767845
13	0xbe05b05e	-0.1305556
14	0xbe15064f	-0.14553188
15	0xbd8e9ded	-0.06963716
16	0x3d6bb2d9	0.05754361
17	0x3de3fbfe	0.11132048
18	0xbdcd821c	-0.10034582
19	0xbceb2ef2	-0.028708909
20	0xbe5c48d2	-0.21512154
21	0x3e356308	0.17713559
22	0x3d28ef6a	0.041243948
23	0xbe3b67e1	-0.18301345
24	0x3c9f1dcb	0.019423386
25	0xbe9ee93f	-0.31037328
26	0xbe3d567c	-0.18490022
27	0xbb186815	-0.0023255397
28	0x3e7bd7a9	0.24593987
29	0x3e0b22c6	0.13587484
30	0xbc78cefe	-0.0151860695
31	0xbe7b15d4	-0.24520046
32	0x3c6853ca	0.014180133
33	0xbe1d57e1	-0.15365554
34	0xb9289974	-0.00016078894
35	0xbd00b2c7	-0.031420495
36	0xbe4e93ad	-0.20173521
37	0xbe5451f6	-0.2073439
38	0xbbc9b8a9	-0.0061560464
39	0x3e3243d3	0.17408685
40	0xbf1635f5	-0.5867608
41	0xbb824efb	-0.0039767004
42	0xbbadcc1d	-0.005303873
43	0x3e842299	0.25807646
44	0xbe27e1ec	-0.16394776
45	0x3e815503	0.2526017
46	0xbe87699c	-0.2644776
47	0xbd9b18d2	-0.075730935
48	0xbdbb7919	-0.09153957
49	0xbdc1a0e3	-0.09454515
50	0xbdad0772	-0.08448686
51	0x3e4923dc	0.19642586
52	0x3bf1a03f	0.007373839
53	0xbd62e1a4	-0.05539097
54	0x3e06ce7d	0.13164707
55	0xbd1ca77e	-0.03824567
56	0xbd01f636	-0.031728946
57	0x3e1ced55	0.1532491
58	0x3cbafc68	0.022825435
59	0x3c908134	0.017639734
60	0x3d30a6e6	0.043127917
61	0xbda1fe71	-0.07909859
62	0xbe8512b7	-0.2599084
63	0xbe4c9211	-0.19977595
64	0xbde49ae9	-0.11162359
65	0x3d858474	0.06519404
66	0xbeb1b6a4	-0.34709656
67	0x3ce3e312	0.027818237
68	0x3cf8ccc3	0.030371075
69	0x3c60988b	0.013708244
70	0xbe8ab64e	-0.27092212
71	0x3dadc7f7	0.08485406
72	0x3d69b0a5	0.057053227
73	0x3e07843f	0.13234042
74	0x3b03b45e	0.002009652
75	0x3ca8932b	0.020577988
76	0xbe1cf443	-0.15327553
77	0xbeb6bf14	-0.35692656
78	0xbe1395b8	-0.14412582
79	0xbe0434fc	-0.12910837
80	0xbe0a8514	-0.13527328
81	0xbe8b46b0	-0.27202368
82	0x3d91439a	0.07092972
83	0xbd60b340	-0.054858446
84	0x3f10b2d4	0.5652287
85	0x3ec552b2	0.38539654
86	0xbd949bbf	-0.07256269
87	0x3e4b0f70	0.19830108
88	0xbe8f76ad	-0.2802023
89	0x3e207ef4	0.15673429
90	0xbaaf50e4	-0.0013375548
91	0x3dd2f9e0	0.10301566
92	0x3a15241b	0.0005689279
93	0x3e1364d7	0.14393936
94	0x3daf46ad	0.08558402
95	0xbe2cd90e	-0.16879675
96	0xbe5f7e30	-0.2182548
97	0xbd98471a	-0.074354365
98	0x3e407681	0.18795206
99	0xbea09523	-0.31363782

conv_layers.0.att_dst f4 [1, 1, 100]
0	0xbcdfbc57	-0.027311487
1	0x3f5d963b	0.8655736
2	0x3f2cad37	0.67451805
3	0x3efb9432	0.49136502
4	0x3e6f5230	0.23371196
5	0x3d82ebf8	0.06392664
6	0x3d5bd362	0.053668387
7	0x3ea672f5	0.3250958
8	0x3cb39e29	0.021926003
9	0x3f39b8a2	0.7254735
10	0x3f328cd0	0.6974611
11	0x3e80177f	0.25017926
12	0x3c908549	0.01764168
13	0x3ea5fc4a	0.32419044
14	0x3f2ace13	0.66720694
15	0x3f98be25	1.1933028
16	0xbf265d02	-0.6498567
17	0x3f10eeb2	0.5661422
18	0x3e74ce3a	0.23906794
19	0x3e9e4d62	0.30918413
20	0x3f21915f	0.63112444
21	0xbd0128a9	-0.031532917
22	0x3f1db0af	0.6159772
23	0x3e8d038e	0.27541775
24	0x3e547df8	0.20751178
25	0x3e833905	0.2562944
26	0x3e851156	0.2598979
27	0x3b63f2f2	0.0034782258
28	0x3ec17087	0.37781164
29	0x3d361c48	0.044460565
30	0xbe24da85	-0.16098984
31	0x3ae4bda4	0.0017451537
32	0x3f431a96	0.7621244
33	0x3ef4e275	0.47829023
34	0x3e9ba22a	0.3039716
35	0x3f0daa3b	0.55337876
36	0x3d95afa8	0.073088944
37	0xbea08c03	-0.3135682
38	0x3eb5d293	0.35512218
39	0x3f54522a	0.8293787
40	0xbee04229	-0.43800476
41	0xbe7c5648	-0.24642289
42	0x3f55afff	0.83471674
43	0x3ef7ce74	0.483997
44	0x3ea514f1	0.3224254
45	0x3f26512b	0.649676
46	0x3e0bb0c8	0.13641655
47	0xbe84e69d	-0.25957194
48	0x3f572a3a	0.8404881
49	0x3ee4b2ed	0.4466776
50	0x3e53dfda	0.20690861
51	0xbcdc10a0	-0.026863396
52	0x3ee9d9a4	0.4567386
53	0x3f43fc78	0.7655711
54	0xbd9ec1ac	-0.07751784
55	0x3db0125a	0.0859725
56	0x3f47b844	0.7801554
57	0x3f5c019f	0.85939974
58	0x3e999d65	0.30002895
59	0x3e5aba54	0.21360141
60	0x3f1bd385	0.6086963
61	0x3f5080a4	0.8144629
62	0xbe983ac8	-0.29732347
63	0x3efc2f1a	0.49254686
64	0xbda73bb5	-0.08165685
65	0x3eb8d4a8	0.36099744
66	0x3ee703cc	0.45120084
67	0x3f49bbc9	0.7880216
68	0x3e87ce1c	0.26524436
69	0xbced80fa	-0.028992165
70	0x3f0e157c	0.5550153
71	0xbdf02e73	-0.117276095
72	0x3d1c8c52	0.038219757
73	0x3e963ec3	0.29344758
74	0x3f74bb83	0.9559862
75	0x3e0a990a	0.13534942
76	0x3db28ee3	0.0871866
77	0x3dcec1bc	0.10095546
78	0xbe6ce755	-0.23135121
79	0x3f219a4a	0.6312605
80	0x3e82d764	0.25554955
81	0xbd904fad	-0.07046447
82	0x3e5d982e	0.21640083
83	0x3eca252f	0.39481494
84	0x3f45722a	0.77127326
85	0x3f12d0aa	0.57349646
86	0x3f49f8fe	0.78895557
87	0x3f812cc2	1.0091784
88	0x3f2ee6c3	0.68320864
89	0x3e76dfbf	0.2410879
90	0x3ebf87ab	0.37408194
91	0x3deeab78	0.11653799
92	0x3f2370df	0.638441
93	0x3ebfa639	0.37431505
94	0xbead012d	-0.3378996
95	0xbe26b430	-0.16279674
96	0x3e8a6941	0.27033427
97	0x3ec1f7eb	0.3788446
98	0x3e1f1249	0.15534319
99	0x3ed2e613	0.41191158

conv_layers.0.bias f4 [100]
0	0xbe7299ba	-0.23691455
1	0xbe8e61ff	-0.2780914
2	0xbec6ddd6	-0.38841122
3	0xbe7e17e2	-0.24813798
4	0xbea82cba	-0.32846624
5	0xbebc8463	-0.36819753
6	0xbec099c0	-0.37617302
7	0xbe5a0b1c	-0.212933
8	0xbed25147	-0.41077635
9	0xbe8b8107	-0.27246878
10	0xbeb3c9a1	-0.35114768
11	0xbedaa304	-0.42702496
12	0xbf0f5414	-0.5598767
13	0xbe4b342b	-0.19844119
14	0xbe84ce5e	-0.25938696
15	0xbea79056	-0.32727307
16	0xbe7f07e9	-0.24905361
17	0xbe459ac2	-0.19297317
18	0xbf069265	-0.5256713
19	0xbe71c18b	-0.23608987
20	0xbec39790	-0.3820157
21	0xbe6c3f40	-0.23071003
22	0xbe3354c8	-0.1751281
23	0xbe991bbe	-0.29903978
24	0xbeb4cf7c	-0.35314548
25	0xbeab3cfe	-0.3344497
26	0xbea85573	-0.32877693
27	0xbeb7f2a6	-0.35927314
28	0xbe861f6f	-0.26195857
29	0xbe3ed0aa	-0.18634287
30	0xbecd849e	-0.4014024
31	0xbe857c1b	-0.26071247
32	0xbc664f13	-0.014056939
33	0xbe7e0d89	-0.24809851
34	0xbeecc10c	-0.46241033
35	0xbe22e8b6	-0.15909085
36	0xbe838bb6	-0.25692528
37	0xbebce69c	-0.3689469
38	0xbe937ce1	-0.28806213
39	0xbe046728	-0.12929976
40	0xbebf5882	-0.37372214
41	0xbe9af215	-0.3026282
42	0xbeac1d17	-0.33615944
43	0xbefd4c95	-0.4947249
44	0xbe8d02ca	-0.2754119
45	0xbe93c12b	-0.28858313
46	0xbe97f2e3	-0.29677495
47	0xbebbf520	-0.36710453
48	0xbecc73b6	-0.3993203
49	0xbcf1de63	-0.029524988
50	0xbf0b0f7c	-0.543205
51	0xbe965675	-0.29362836
52	0xbe90ca8a	-0.28279525
53	0xbe5ea721	-0.21743442
54	0xbe84715e	-0.25867742
55	0xbeb1f8d3	-0.3476015
56	0xbec3c614	-0.3823706
57	0xbe3fef72	-0.18743685
58	0xbe7035ef	-0.23458074
59	0xbf1567cc	-0.58361506
60	0xbe475506	-0.19466028
61	0xbeb805cd	-0.35941926
62	0xbeaa36a4	-0.33244812
63	0xbe86e9bf	-0.2635021
64	0xbee421f5	-0.44557157
65	0xbe816e71	-0.25279573
66	0xbe8773c5	-0.26455513
67	0xbe6cab4b	-0.23112218
68	0xbe9d0a86	-0.3067209
69	0xbea60a03	-0.32429513
70	0xbe3dfd9a	-0.18553773
71	0xbeac2872	-0.33624607
72	0xbeab977c	-0.3351401
73	0xbe92ae83	-0.28648767
74	0xbef50369	-0.47854164
75	0xbee78089	-0.45215252
76	0xbeb1d65f	-0.34733865
77	0xbe8e708c	-0.2782024
78	0xbee4b552	-0.44669586
79	0xbeb7d6d0	-0.35906076
80	0xbe778c4e	-0.24174616
81	0xbed4ca2b	-0.41560492
82	0xbeb7c381	-0.35891345
83	0xbe99ca3e	-0.3003711
84	0xbe95bcd5	-0.2924563
85	0xbec1daf6	-0.37862366
86	0xbe37ac0c	-0.17936724
87	0xbedb82b3	-0.42873153
88	0xbeb432c7	-0.3519499
89	0xbe13da07	-0.1443864
90	0xbeab37a1	-0.3344088
91	0xbe495e98	-0.19664991
92	0xbe07ba15	-0.13254578
93	0xbe8a69f9	-0.27033976
94	0xbee3857a	-0.44437772
95	0xbef0fe7e	-0.47069162
96	0xbecc823c	-0.3994311
97	0xbe90fe11	-0.28318837
98	0xbebe8bb9	-0.37215975
99	0xbed8c550	-0.42338037

conv_layers.0.lin_src.weight f4 [100, 100]
0	0x3e7a909d	0.24469228
1	0x3e36cf8e	0.17852613
2	0xbe8583eb	-0.26077208
3	0x3e5cab1b	0.21549647
4	0x3e3fcd19	0.18730582
5	0xbd9a96bd	-0.07548282
6	0xbc86070c	-0.016360782
7	0x3d2e4ca4	0.04255356
8	0xbf165f6f	-0.5873937
9	0xbeaf64a3	-0.34256467
10	0x3f3da8a8	0.74085474
11	0xbe78e57b	-0.2430629
12	0xbe007bc6	-0.12547216
13	0x3d779435	0.060444076
14	0x3cff5fb5	0.031173566
15	0x3e85ae96	0.2610976
16	0xbc9ec5ec	-0.019381486
17	0x3de54c8f	0.11196243
18	0x3daae2ef	0.083440654
19	0xbf21984e	-0.63123024
20	0x3cbcf9f6	0.02306841
21	0x3eab7511	0.33487752
22	0xbec68ea4	-0.387807
23	0xbf11831e	-0.56840694
24	0x3e29634f	0.1654179
25	0xbe9712c2	-0.295065
26	0xbb9491d9	-0.004533988
27	0xbe05b5a7	-0.13057576
28	0xbf120be6	-0.57049406
29	0xbeea0e89	-0.45714214
30	0xbd9f949a	-0.077920154
31	0x3ecc7119	0.39930037
32	0xbd181675	-0.03713079
33	0xbe95288b	-0.29132494
34	0x3d7288f0	0.059212625
35	0x3e305b57	0.17222343
36	0x3e742dc9	0.2384559
37	0x3eeb2bcb	0.4593185
38	0xbd4c241d	-0.049839128
39	0xbe18a7e2	-0.14907792
40	0xbda94d12	-0.08266653
41	0x3e84e87b	0.2595862
42	0x3ee72ec7	0.45152876
43	0x3e87d16f	0.26526973
44	0x3d1de9de	0.03855311
45	0x3d4c16aa	0.0498263
46	0x3e85a437	0.26101848
47	0x3d2e7a76	0.042597257
48	0xbed4e11f	-0.41578004
49	0x3dc8687e	0.09785555
50	0xbd82a0f1	-0.063783534
51	0x3eef1a60	0.4669981
52	0x3d62a453	0.055332493
53	0xbe8d7fb4	-0.27636492
54	0xbe51e431	-0.20497204
55	0x3ebab166	0.3646347
56	0x3d9943f3	0.074836634
57	0xbeda5f10	-0.42650652
58	0xbf2a704e	-0.66577613
59	0x3e892c08	0.26791406
60	0x3e065a8d	0.1312048
61	0xbd678dfe	-0.0565319
62	0xbd681171	-0.05665726
63	0x3ea503db	0.32229504
64	0x3e270aaa	0.16312662
65	0x3e86fb19	0.26363447
66	0xbf17b8a6	-0.59266126
67	0x3f3272b9	0.697063
68	0x3eb6683a	0.35626394
69	0xbeea95bd	-0.45817366
70	0x3d51d68f	0.05123001
71	0x3f0880ad	0.53321344
72	0xbe9e5f81	-0.3093224
73	0x3ef0bbfd	0.47018424
74	0x3d6cea79	0.057840798
75	0x3efc0d79	0.4922903
76	0xbee87bc5	-0.4540693
77	0xbef9edfa	-0.48814374
78	0x3f863e46	1.0487754
79	0xbd95ca9e	-0.07314037
80	0x3ed6a703	0.41924295
81	0xbe25f067	-0.16204987
82	0xbe8f7a09	-0.28022793
83	0xbe37e3b0	-0.1795795
84	0xbe7bd6be	-0.24593636
85	0xbe57cae2	-0.21073487
86	0x3eb06d4f	0.34458396
87	0x3eb88900	0.36042023
88	0x3ead450f	0.3384175
89	0xbe28d8d7	-0.16488968
90	0xbeceecdb	-0.4041508
91	0xbe58b2a6	-0.21161899
92	0xbddc2f7c	-0.107512444
93	0x3df51413	0.119667195
94	0xbf44b03e	-0.76831424
95	0x3d9d9d5d	0.0769603
96	0x3d8eefa6	0.06979303
97	0xbe9a06fa	-0.30083448
98	0xbe9d2351	-0.30691007
99	0xbe4a6e5b	-0.1976866
100	0x3eebc080	0.46045303
101	0xbeca6817	-0.3953254
102	0x3f1040ae	0.56348693
103	0x3eb684fb	0.3564833
104	0xbdb8ff13	-0.090330265
105	0xbed49317	-0.4151847
106	0xbd7c73db	-0.061633926
107	0x3e5d1392	0.21589497
108	0x3f53b0e7	0.82691807
109	0xbdeeddad	-0.11663375
110	0xbeff3b5a	-0.4984997
111	0xbd5a8064	-0.0533451
112	0xbd89b59e	-0.06724094
113	0xbdb8c5c6	-0.09022097
114	0x3c8c3897	0.017116828
115	0xbe420091	-0.18945529
116	0xbe8a5275	-0.27016035
117	0xbee34335	-0.44387212
118	0xbecf61f8	-0.40504432
119	0xbe9de2b7	-0.30837032
120	0xbe7dc2ec	-0.24781388
121	0xbea67242	-0.32509047
122	0x3e808c74	0.25107157
123	0xbf21922d	-0.6311367
124	0xbec6516e	-0.38734
125	0xbd94dd15	-0.072687306
126	0xbe38380c	-0.1799013
127	0x3f8752e6	1.0572174
128	0x3f1a2866	0.60217893
129	0xbecdb79d	-0.40179148
130	0xbe1db471	-0.15400864
131	0xbed26668	-0.41093755
132	0xbf16ec96	-0.5895475
133	0xbc0d16eb	-0.008611421
134	0xbe689a04	-0.22715002
135	0xbe90b537	-0.28263256
136	0xbed849b7	-0.4224374
137	0x3f3ecb2e	0.7452878
138	0xbea8b3b5	-0.32949606
139	0xbd1605a2	-0.036626466
140	0x3f79dc4d	0.9760178
141	0xbec655a7	-0.38737223
142	0x3ea20a63	0.3164855
143	0x3e90719c	0.28211677
144	0xbac3d7be	-0.0014941616
145	0x3ef0f89e	0.4706468
146	0xbebdede0	-0.37095547
147	0xbe80e6c2	-0.25176054
148	0xbeede321	-0.46462348
149	0xbe5e3dfd	-0.21703334
150	0x3d9f325c	0.07773277
151	0xbe17dc06	-0.14830026
152	0xbefe7308	-0.49697137
153	0xbdad7028	-0.08468658
154	0xbee96c77	-0.45590565
155	0x3f55f1fb	0.8357236
156	0xbedc49b2	-0.43024975
157	0x3f06a76d	0.5259922
158	0x3f4287e8	0.75988626
159	0x3e500b75	0.2031687
160	0x3e5c9b81	0.21543695
161	0xbec3dff1	-0.3825679
162	0x3f033f76	0.5126871
163	0xbe0fa060	-0.14026022
164	0x3f351ce7	0.70747226
165	0x3c6b6e33	0.014369535
166	0x3befa8c7	0.007313821
167	0xbe0048a0	-0.12527704
168	0xbebe8598	-0.372113
169	0x3e301656	0.1719602
170	0xbf28fe80	-0.66013336
171	0xbd784eee	-0.06062215
172	0x3deaa813	0.11457839
173	0xbe4feb96	-0.20304713
174	0xbe036dd5	-0.12834866
175	0x3e1d2293	0.1534522
176	0x3f01a225	0.5063804
177	0xbec0e795	-0.37676683
178	0xbe0ffad3	-0.14060526
179	0x3e2db091	0.16961886
180	0xbd235623	-0.03987707
181	0xbebd2d85	-0.3694879
182	0x3e0578ca	0.13034359
183	0x3d660ec4	0.056166425
184	0xbeb879aa	-0.36030322
185	0x3ef80085	0.48437896
186	0x3f0adea5	0.5424598
187	0x3f04b6f7	0.5184168
188	0x3db14691	0.086560376
189	0xbe757772	-0.23971346
190	0xbe7d996c	-0.24765557
191	0xbf525e70	-0.8217535
192	0xbe66bd20	-0.22533083
193	0x3ebcb6b6	0.36858147
194	0xbccaf13b	-0.02477323
195	0x3e4fa179	0.2027644
196	0x3d93b41a	0.07212086
197	0x3f831d00	1.0243225
198	0x3d5e7a8a	0.05431608
199	0xbf2b050c	-0.66804576
200	0x3f489337	0.7834963
201	0x3d4b576d	0.049643923
202	0x3e03c0ff	0.12866591
203	0xbf1d0838	-0.61340666
204	0xbedf19c3	-0.43574342
205	0x3e04aada	0.129558
206	0xbed32042	-0.41235548
207	0xbe4fdc96	-0.2029899
208	0xbe2055fa	-0.15657797
209	0xbe123fb5	-0.14282115
210	0x3e493d01	0.19652177
211	0xbeb00d6e	-0.34385246
212	0xbcb86092	-0.022506986
213	0xbe043421	-0.1291051
214	0xbe34940b	-0.17634599
215	0x3ebc1c31	0.36740258
216	0x3f35dc17	0.71038955
217	0x3f0e7461	0.5564633
218	0x3f05051c	0.5196092
219	0xbe4487df	-0.19192456
220	0x3ee0d467	0.4391205
221	0xbeab328c	-0.33437002
222	0xbf0b935d	-0.54521734
223	0x3eeba361	0.46023086
224	0xbbc790a1	-0.006090239
225	0x3ba6e8e4	0.0050936807
226	0x3e9410cb	0.28919062
227	0x3e8cafa1	0.27477744
228	0xbf1e91e5	-0.6194137
229	0xbf18530e	-0.5950173
230	0xbe028b35	-0.12748416
231	0xbe1358a3	-0.14389281
232	0xbeea5b66	-0.45772856
233	0xbea6be91	-0.32567266
234	0xbf03b99c	-0.5145509
235	0xbfa44085	-1.283219
236	0xbe61bdd7	-0.22045074
237	0xbeb3b61e	-0.35099882
238	0x3edfcdac	0.43711603
239	0x3e8eb2ff	0.27870938
240	0xbe89d4db	-0.26920208
241	0xbf4823a3	-0.7817938
242	0x3dd9af42	0.10629131
243	0xbee69d44	-0.4504186
244	0xbdee2acd	-0.11629257
245	0x3f4c6b35	0.79851085
246	0x3b979672	0.004626089
247	0x3f1e7b18	0.61906576
248	0xbdd08b9f	-0.101828806
249	0x3e6bffa6	0.23046741
250	0x3e0c4a6c	0.13700265
251	0x3dacbb21	0.084341295
252	0xbea0c308	-0.31398797
253	0xbe0e4228	-0.13892424
254	0xbf646f8f	-0.89232725
255	0x3b903373	0.0044006645

conv_layers.0.lin_dst.weight f4 [100, 100]
0	0x3e7a909d	0.24469228
1	0x3e36cf8e	0.17852613
2	0xbe8583eb	-0.26077208
3	0x3e5cab1b	0.21549647
4	0x3e3fcd19	0.18730582
5	0xbd9a96bd	-0.07548282
6	0xbc86070c	-0.016360782
7	0x3d2e4ca4	0.04255356
8	0xbf165f6f	-0.5873937
9	0xbeaf64a3	-0.34256467
10	0x3f3da8a8	0.74085474
11	0xbe78e57b	-0.2430629
12	0xbe007bc6	-0.12547216
13	0x3d779435	0.060444076
14	0x3cff5fb5	0.031173566
15	0x3e85ae96	0.2610976
16	0xbc9ec5ec	-0.019381486
17	0x3de54c8f	0.11196243
18	0x3daae2ef	0.083440654
19	0xbf21984e	-0.63123024
20	0x3cbcf9f6	0.02306841
21	0x3eab7511	0.33487752
22	0xbec68ea4	-0.387807
23	0xbf11831e	-0.56840694
24	0x3e29634f	0.1654179
25	0xbe9712c2	-0.295065
26	0xbb9491d9	-0.004533988
27	0xbe05b5a7	-0.13057576
28	0xbf120be6	-0.57049406
29	0xbeea0e89	-0.45714214
30	0xbd9f949a	-0.077920154
31	0x3ecc7119	0.39930037
32	0xbd181675	-0.03713079
33	0xbe95288b	-0.29132494
34	0x3d7288f0	0.059212625
35	0x3e305b57	0.17222343
36	0x3e742dc9	0.2384559
37	0x3eeb2bcb	0.4593185
38	0xbd4c241d	-0.049839128
39	0xbe18a7e2	-0.14907792
40	0xbda94d12	-0.08266653
41	0x3e84e87b	0.2595862
42	0x3ee72ec7	0.45152876
43	0x3e87d16f	0.26526973
44	0x3d1de9de	0.03855311
45	0x3d4c16aa	0.0498263
46	0x3e85a437	0.26101848
47	0x3d2e7a76	0.042597257
48	0xbed4e11f	-0.41578004
49	0x3dc8687e	0.09785555
50	0xbd82a0f1	-0.063783534
51	0x3eef1a60	0.4669981
52	0x3d62a453	0.055332493
53	0xbe8d7fb4	-0.27636492
54	0xbe51e431	-0.20497204
55	0x3ebab166	0.3646347
56	0x3d9943f3	0.074836634
57	0xbeda5f10	-0.42650652
58	0xbf2a704e	-0.66577613
59	0x3e892c08	0.26791406
60	0x3e065a8d	0.1312048
61	0xbd678dfe	-0.0565319
62	0xbd681171	-0.05665726
63	0x3ea503db	0.32229504
64	0x3e270aaa	0.16312662
65	0x3e86fb19	0.26363447
66	0xbf17b8a6	-0.59266126
67	0x3f3272b9	0.697063
68	0x3eb6683a	0.35626394
69	0xbeea95bd	-0.45817366
70	0x3d51d68f	0.05123001
71	0x3f0880ad	0.53321344
72	0xbe9e5f81	-0.3093224
73	0x3ef0bbfd	0.47018424
74	0x3d6cea79	0.057840798
75	0x3efc0d79	0.4922903
76	0xbee87bc5	-0.4540693
77	0xbef9edfa	-0.48814374
78	0x3f863e46	1.0487754
79	0xbd95ca9e	-0.07314037
80	0x3ed6a703	0.41924295
81	0xbe25f067	-0.16204987
82	0xbe8f7a09	-0.28022793
83	0xbe37e3b0	-0.1795795
84	0xbe7bd6be	-0.24593636
85	0xbe57cae2	-0.21073487
86	0x3eb06d4f	0.34458396
87	0x3eb88900	0.36042023
88	0x3ead450f	0.3384175
89	0xbe28d8d7	-0.16488968
90	0xbeceecdb	-0.4041508
91	0xbe58b2a6	-0.21161899
92	0xbddc2f7c	-0.107512444
93	0x3df51413	0.119667195
94	0xbf44b03e	-0.76831424
95	0x3d9d9d5d	0.0769603
96	0x3d8eefa6	0.06979303
97	0xbe9a06fa	-0.30083448
98	0xbe9d2351	-0.30691007
99	0xbe4a6e5b	-0.1976866
100	0x3eebc080	0.46045303
101	0xbeca6817	-0.3953254
102	0x3f1040ae	0.56348693
103	0x3eb684fb	0.3564833
104	0xbdb8ff13	-0.090330265
105	0xbed49317	-0.4151847
106	0xbd7c73db	-0.061633926
107	0x3e5d1392	0.21589497
108	0x3f53b0e7	0.82691807
109	0xbdeeddad	-0.11663375
110	0xbeff3b5a	-0.4984997
111	0xbd5a8064	-0.0533451
112	0xbd89b59e	-0.06724094
113	0xbdb8c5c6	-0.09022097
114	0x3c8c3897	0.017116828
115	0xbe420091	-0.18945529
116	0xbe8a5275	-0.27016035
117	0xbee34335	-0.44387212
118	0xbecf61f8	-0.40504432
119	0xbe9de2b7	-0.30837032
120	0xbe7dc2ec	-0.24781388
121	0xbea67242	-0.32509047
122	0x3e808c74	0.25107157
123	0xbf21922d	-0.6311367
124	0xbec6516e	-0.38734
125	0xbd94dd15	-0.072687306
126	0xbe38380c	-0.1799013
127	0x3f8752e6	1.0572174
128	0x3f1a2866	0.60217893
129	0xbecdb79d	-0.40179148
130	0xbe1db471	-0.15400864
131	0xbed26668	-0.41093755
132	0xbf16ec96	-0.5895475
133	0xbc0d16eb	-0.008611421
134	0xbe689a04	-0.22715002
135	0xbe90b537	-0.28263256
136	0xbed849b7	-0.4224374
137	0x3f3ecb2e	0.7452878
138	0xbea8b3b5	-0.32949606
139	0xbd1605a2	-0.036626466
140	0x3f79dc4d	0.9760178
141	0xbec655a7	-0.38737223
142	0x3ea20a63	0.3164855
143	0x3e90719c	0.28211677
144	0xbac3d7be	-0.0014941616
145	0x3ef0f89e	0.4706468
146	0xbebdede0	-0.37095547
147	0xbe80e6c2	-0.25176054
148	0xbeede321	-0.46462348
149	0xbe5e3dfd	-0.21703334
150	0x3d9f325c	0.07773277
151	0xbe17dc06	-0.14830026
152	0xbefe7308	-0.49697137
153	0xbdad7028	-0.08468658
154	0xbee96c77	-0.45590565
155	0x3f55f1fb	0.8357236
156	0xbedc49b2	-0.43024975
157	0x3f06a76d	0.5259922
158	0x3f4287e8	0.75988626
159	0x3e500b75	0.2031687
160	0x3e5c9b81	0.21543695
161	0xbec3dff1	-0.3825679
162	0x3f033f76	0.5126871
163	0xbe0fa060	-0.14026022
164	0x3f351ce7	0.70747226
165	0x3c6b6e33	0.014369535
166	0x3befa8c7	0.007313821
167	0xbe0048a0	-0.12527704
168	0xbebe8598	-0.372113
169	0x3e301656	0.1719602
170	0xbf28fe80	-0.66013336
171	0xbd784eee	-0.06062215
172	0x3deaa813	0.11457839
173	0xbe4feb96	-0.20304713
174	0xbe036dd5	-0.12834866
175	0x3e1d2293	0.1534522
176	0x3f01a225	0.5063804
177	0xbec0e795	-0.37676683
178	0xbe0ffad3	-0.14060526
179	0x3e2db091	0.16961886
180	0xbd235623	-0.03987707
181	0xbebd2d85	-0.3694879
182	0x3e0578ca	0.13034359
183	0x3d660ec4	0.056166425
184	0xbeb879aa	-0.36030322
185	0x3ef80085	0.48437896
186	0x3f0adea5	0.5424598
187	0x3f04b6f7	0.5184168
188	0x3db14691	0.086560376
189	0xbe757772	-0.23971346
190	0xbe7d996c	-0.24765557
191	0xbf525e70	-0.8217535
192	0xbe66bd20	-0.22533083
193	0x3ebcb6b6	0.36858147
194	0xbccaf13b	-0.02477323
195	0x3e4fa179	0.2027644
196	0x3d93b41a	0.07212086
197	0x3f831d00	1.0243225
198	0x3d5e7a8a	0.05431608
199	0xbf2b050c	-0.66804576
200	0x3f489337	0.7834963
201	0x3d4b576d	0.049643923
202	0x3e03c0ff	0.12866591
203	0xbf1d0838	-0.61340666
204	0xbedf19c3	-0.43574342
205	0x3e04aada	0.129558
206	0xbed32042	-0.41235548
207	0xbe4fdc96	-0.2029899
208	0xbe2055fa	-0.15657797
209	0xbe123fb5	-0.14282115
210	0x3e493d01	0.19652177
211	0xbeb00d6e	-0.34385246
212	0xbcb86092	-0.022506986
213	0xbe043421	-0.1291051
214	0xbe34940b	-0.17634599
215	0x3ebc1c31	0.36740258
216	0x3f35dc17	0.71038955
217	0x3f0e7461	0.5564633
218	0x3f05051c	0.5196092
219	0xbe4487df	-0.19192456
220	0x3ee0d467	0.4391205
221	0xbeab328c	-0.33437002
222	0xbf0b935d	-0.54521734
223	0x3eeba361	0.46023086
224	0xbbc790a1	-0.006090239
225	0x3ba6e8e4	0.0050936807
226	0x3e9410cb	0.28919062
227	0x3e8cafa1	0.27477744
228	0xbf1e91e5	-0.6194137
229	0xbf18530e	-0.5950173
230	0xbe028b35	-0.12748416
231	0xbe1358a3	-0.14389281
232	0xbeea5b66	-0.45772856
233	0xbea6be91	-0.32567266
234	0xbf03b99c	-0.5145509
235	0xbfa44085	-1.283219
236	0xbe61bdd7	-0.22045074
237	0xbeb3b61e	-0.35099882
238	0x3edfcdac	0.43711603
239	0x3e8eb2ff	0.27870938
240	0xbe89d4db	-0.26920208
241	0xbf4823a3	-0.7817938
242	0x3dd9af42	0.10629131
243	0xbee69d44	-0.4504186
244	0xbdee2acd	-0.11629257
245	0x3f4c6b35	0.79851085
246	0x3b979672	0.004626089
247	0x3f1e7b18	0.61906576
248	0xbdd08b9f	-0.101828806
249	0x3e6bffa6	0.23046741
250	0x3e0c4a6c	0.13700265
251	0x3dacbb21	0.084341295
252	0xbea0c308	-0.31398797
253	0xbe0e4228	-0.13892424
254	0xbf646f8f	-0.89232725
255	0x3b903373	0.0044006645

conv_layers.1.att_src f4 [1, 1, 100]
0	0x3e1c95a6	0.15291461
1	0xbdd7579d	-0.10514758
2	0x3d1a4d75	0.037671525
3	0xbd834ea0	-0.06411481
4	0x3c903986	0.017605554
5	0xbc1a6176	-0.009422651
6	0xbbe32ece	-0.00693307
7	0x3e30c661	0.17263176
8	0x3d3d40bd	0.046204317
9	0x3d861e46	0.06548743
10	0xbd540db0	-0.051770866
11	0xbd9f02b2	-0.07764186
12	0xbd36fc8f	-0.044674452
13	0xbd17748b	-0.03697638
14	0x3d11bde9	0.035581503
15	0xbd0d3313	-0.034472536
16	0x3d7970e5	0.06089868
17	0xbdca44df	-0.09876417
18	0x3dbe553a	0.092935994
19	0x3c762d43	0.01502544
20	0xbb93ee77	-0.004514511
21	0xbdbb0ba9	-0.091330834
22	0xbe46b77d	-0.19405933
23	0xbd0a5b7f	-0.033778664
24	0xbe449f9b	-0.1920151
25	0x3c018a5e	0.007906524
26	0x3d00b32b	0.031420868
27	0x3d000b32	0.031260677
28	0xbd9a3a8c	-0.07530698
29	0xbc8c1ebc	-0.017104499
30	0x3d4d999e	0.05019533
31	0x3d4c2807	0.04984286
32	0x3d8d7efe	0.069089875
33	0xbd8222e5	-0.06354312
34	0xbe0265f0	-0.12734199
35	0xbe2cd931	-0.16879727
36	0x3e2372c3	0.15961747
37	0x3dff954d	0.12479649
38	0x3db1a166	0.086733624
39	0xbd021bd9	-0.03176484
40	0xbdb800f2	-0.08984555
41	0xbd98909a	-0.074494556
42	0xbc9ca16c	-0.01911994
43	0x3c752dcc	0.014964532
44	0x3d735091	0.059403006
45	0x3d7e2cd5	0.062054474
46	0x3ce24bdb	0.027624061
47	0x3df14bbd	0.11782024
48	0xbd495b4d	-0.049159337
49	0xbd6acd81	-0.05732489
50	0xba7c9647	-0.000963543
51	0xbe6526b7	-0.2237805
52	0x3dbf68a4	0.093461305
53	0xbd288a32	-0.04114742
54	0xbdf4f209	-0.11960227
55	0x3dc5fc45	0.09667257
56	0xbd70d893	-0.05880029
57	0xbd724806	-0.05915072
58	0xbc856155	-0.016281763
59	0x3d718220	0.058961987
60	0xbd993990	-0.07481682
61	0xbe338331	-0.17530514
62	0x3a549eb1	0.0008110805
63	0xbc3b21c2	-0.011421623
64	0xbd625b31	-0.05526275
65	0x3d4f9b07	0.050684955
66	0xbd54b47b	-0.051929932
67	0x3d7903a8	0.060794502
68	0xbe17a096	-0.14807352
69	0x3d848196	0.06470029
70	0xbdfe2ffd	-0.12411497
71	0x3de32ec4	0.11092904
72	0xbdfdc30e	-0.12390719
73	0xbdcbe890	-0.09956467
74	0xbc187a99	-0.009306573
75	0xbe11be1c	-0.14232677
76	0xbe00a031	-0.12561108
77	0x3b338800	0.0027394295
78	0x3e29a706	0.1656762
79	0x3ca84bab	0.020543894
80	0xbddf7f23	-0.10912921
81	0xbd8fb1f2	-0.07016362
82	0x3e1441d4	0.14478236
83	0x3e0f7742	0.14010337
84	0x3d6abfe5	0.05731191
85	0x3d336f11	0.043807093
86	0xbd5890dc	-0.052872524
87	0x3e02b4b8	0.12764251
88	0x3e629925	0.22128733
89	0xbc8524c2	-0.016252879
90	0x3c9ab638	0.018885717
91	0x3d9bab43	0.07601025
92	0x3d41a345	0.047274847
93	0x3e234f21	0.15948154
94	0x3e22c839	0.15896691
95	0x3d96a05b	0.07354804
96	0xbda162e5	-0.07880191
97	0x3d19e294	0.037569597
98	0x3c8fc049	0.017547743
99	0x3d403cd6	0.046933018

conv_layers.1.att_dst f4 [1, 1, 100]
0	0x3ead88df	0.33893487
1	0xbc9ac3ab	-0.01889213
2	0x3daa7f29	0.08325035
3	0xbf6cf8b1	-0.9256697
4	0x3fa0dabd	1.2566754
5	0x3e28f5bc	0.1649999
6	0xbe8eccfe	-0.27890772
7	0xbd43c5a5	-0.04779591
8	0x3dc54f41	0.09634257
9	0xbe96b9bb	-0.29438576
10	0xbf1219ab	-0.57070416
11	0x3e920a40	0.28523445
12	0x3c93c8d0	0.01804009
13	0x3f01d04c	0.5070846
14	0x3e86016e	0.26172966
15	0x3f834f07	1.0258492
16	0x3daf1059	0.0854804
17	0xbe905637	-0.28190777
18	0x3f134f93	0.57543296
19	0xbe51a0f0	-0.20471549
20	0x3ef96052	0.487063
21	0x3f82cda9	1.0219012
22	0x3e298ef2	0.16558436
23	0x3faf1cb1	1.3680631
24	0x3ebfbfb9	0.3745096
25	0x3ead94a1	0.33902457
26	0xbf0c03c1	-0.5469323
27	0x3da436c0	0.08018255
28	0x3ebf824f	0.37404105
29	0xbee1c99a	-0.44099122
30	0xbf0a1a20	-0.53946114
31	0xbeba1f43	-0.36351976
32	0xbf256a2d	-0.64615136
33	0x3f22c502	0.6358186
34	0x3ed0ee2c	0.4080671
35	0x3e35f352	0.177686
36	0xbee25045	-0.44201866
37	0xbf3aca72	-0.7296516
38	0xbeddfc11	-0.43356374
39	0x3eddda27	0.433305
40	0xbdad878a	-0.08473118
41	0x3ecfd7b3	0.40594253
42	0x3e1fcca1	0.15605403
43	0x3dfb6c64	0.12276533
44	0x3e8f6cd9	0.28012732
45	0x3e0afdd8	0.13573396
46	0x3ed1c7a8	0.40972638
47	0x3d2d3937	0.042290892
48	0xbe7365a0	-0.23769236
49	0x3f001727	0.5003533
50	0xbd5d554f	-0.054036435
51	0x3e184f4a	0.14873996
52	0x3e27431e	0.16334197
53	0x3d8f5adc	0.06999752
54	0xbf1a21f7	-0.60208076
55	0xbf994d38	-1.197669
56	0x3d53eabd	0.051737536
57	0xbf4f6003	-0.8100588
58	0x3f636f49	0.8884168
59	0xbf36dfc4	-0.7143519
60	0xbd931126	-0.07181005
61	0xbedb965b	-0.4288815
62	0x3f924244	1.1426473
63	0xbcb29edc	-0.021804266
64	0x3f7ad2d9	0.9797798
65	0x3f7b53ba	0.9817463
66	0x3df95904	0.121751815
67	0x3ee729d7	0.4514911
68	0xbeac6b28	-0.33675504
69	0xbf1d81b8	-0.6152606
70	0x3fb61e39	1.4227973
71	0xbef2c065	-0.4741241
72	0xbe18da45	-0.14927013
73	0xbeab9ab9	-0.33516482
74	0xbe45536b	-0.19270103
75	0x3ddd2d88	0.107997
76	0x3f2aa6df	0.66660875
77	0xbf0c944c	-0.54913783
78	0x3ea61418	0.32437205
79	0xbf1643ee	-0.586974
80	0xbe8fc42c	-0.28079355
81	0x3e53a717	0.20669208
82	0xbf8590d2	-1.0434821
83	0xbe7234e1	-0.23652984
84	0xbe968207	-0.29396078
85	0xbe1d5730	-0.1536529
86	0x3e9d1c93	0.30685863
87	0x3e7a0d5b	0.24419157
88	0xbf0452e5	-0.51688987
89	0x3f2f91ce	0.68581855
90	0xbf36a79a	-0.7134949
91	0xbf5363b1	-0.8257399
92	0xbdb7b920	-0.08970857
93	0x3dc84c84	0.09780219
94	0xbf140d04	-0.5783236
95	0xbf1eb212	-0.61990464
96	0xbf19bb2f	-0.60051244
97	0x3ecf3d7a	0.4047659
98	0x3e1e2cd3	0.15446787
99	0xbeaedca1	-0.34152701

conv_layers.1.bias f4 [100]
0	0xbbd8e2aa	-0.0066188173
1	0xbe5f59ef	-0.2181165
2	0xbd71622e	-0.058931522
3	0xbca4f2e1	-0.020135345
4	0x3da247ca	0.07923849
5	0xbd20ff1a	-0.039305784
6	0xbe4627e7	-0.19351159
7	0x3ccf7f75	0.025329331
8	0x3c10a163	0.00882754
9	0xbbf542ea	-0.0074847834
10	0xbdc24ac1	-0.094869144
11	0x3d8dd63d	0.06925628
12	0xbd52e7e4	-0.05149068
13	0x3e3b9774	0.18319494
14	0xbd3ade84	-0.045622364
15	0xbcc9158b	-0.024546405
16	0x3c1a8e7b	0.009433384
17	0xbce19fcf	-0.027542023
18	0xbd44e702	-0.04807187
19	0x3e6cbf1e	0.2311978
20	0x3d996058	0.07489079
21	0xbce0fdd2	-0.027464781
22	0xbe012261	-0.12610771
23	0x3d9d4343	0.07678845
24	0x3d0ad438	0.033893794
25	0x3acefcca	0.001579189
26	0xbd0eea0a	-0.034891166
27	0x3daeec9e	0.08541225
28	0xbda72bf8	-0.08162683
29	0x3c91f5b7	0.017817361
30	0xbdd71abc	-0.10503146
31	0x3d1012ec	0.035174295
32	0xbe0f470e	-0.13991949
33	0x3ccc1d1f	0.02491623
34	0x3d186055	0.037201244
35	0x3d8ac0fa	0.067750886
36	0xbc869968	-0.016430572
37	0xbc0dc70a	-0.008653412
38	0x3e02f6e2	0.12789491
39	0x3dbc90e8	0.09207326
40	0xbbf12440	-0.0073590577
41	0x3d462f69	0.048385058
42	0xbdbac1f8	-0.09119028
43	0x3cece99f	0.028919993
44	0x3d1d1837	0.03835317
45	0x3c65713d	0.014004049
46	0xbdc365bc	-0.09540889
47	0x3de9424a	0.11389597
48	0x3d9fe6c3	0.07807686
49	0x3d0e7c70	0.03478664
50	0x3d13a45d	0.03604542
51	0xbd19bdb4	-0.03753443
52	0x3e13b169	0.14423145
53	0xbe39e4cc	-0.18153685
54	0x3deb608c	0.11493024
55	0xbce5b508	-0.028040424
56	0x3cb07031	0.021537872
57	0x3cc2acea	0.023764092
58	0xbda22f95	-0.07919232
59	0x3ce24a2a	0.027623255
60	0x3e1803fd	0.14845271
61	0x3c9d0ca7	0.019171072
62	0x3e020e0e	0.12700674
63	0x3d9356bd	0.071942784
64	0x3e0afe71	0.13573624
65	0x3db79189	0.089633055
66	0x3d33fca1	0.043942098
67	0x3d3fa470	0.04678768
68	0xbd965660	-0.073406935
69	0xbd64e534	-0.055882648
70	0xbd7157f4	-0.05892177
71	0x39f23d23	0.00046203387
72	0xbdd97e64	-0.1061981
73	0xbdceffd9	-0.10107393
74	0xbe5f0b1b	-0.2178158
75	0xbde5fd44	-0.11229947
76	0x3d986b30	0.074423194
77	0x3dd43faa	0.103637055
78	0x3d567a7a	0.052362897
79	0xbd2a137b	-0.041522484
80	0x3e30809f	0.17236565
81	0xbd8f1c31	-0.06987799
82	0x3c4894c0	0.012242496
83	0xbc1ed814	-0.009695072
84	0xbd055f00	-0.032561302
85	0x3dbf7f5c	0.09350464
86	0x3d2e7e5e	0.042600982
87	0x3e28290b	0.16421907
88	0xbd641fbb	-0.055694323
89	0x3e27fda8	0.16405356
90	0xbd936825	-0.07197598
91	0xbe0e69db	-0.13907568
92	0xbd10099b	-0.03516541
93	0xbda2f292	-0.07956423
94	0xbce00c12	-0.027349506
95	0xbdc7d7dd	-0.097579695
96	0xbe52f243	-0.20600228
97	0x3c560b16	0.0130641665
98	0xbe162e78	-0.14666164
99	0xbde8f9a6	-0.11375742

conv_layers.1.lin_src.weight f4 [100, 100]
0	0x3db1c7a9	0.0868066
1	0x3daeb7ea	0.085311726
2	0x3f47dc88	0.7807088
3	0xbe4d98bd	-0.20077796
4	0x3df1ef6d	0.11813245
5	0x3ddb5e15	0.10711304
6	0xbefce630	-0.4939437
7	0x3efaec55	0.49008432
8	0xbe26557a	-0.16243544
9	0xbe3fc63b	-0.18727963
10	0xbd7cf9c7	-0.061761644
11	0x3e9c840e	0.305695
12	0x3d32a29a	0.0436121
13	0xbef023ee	-0.46902412
14	0x3f0b1e84	0.5434344
15	0x3dad8c6c	0.08474049
16	0x3e815c86	0.25265902
17	0xbe9355c6	-0.28776377
18	0xbda575fc	-0.08079144
19	0xbe7ead33	-0.24870758
20	0xbeb34a19	-0.3501747
21	0xbdd1fbaa	-0.10253079
22	0x3d753750	0.059867203
23	0xbd444486	-0.04791691
24	0x3e95a8de	0.29230398
25	0x3e86f1fe	0.263565
26	0x3e869999	0.2628906
27	0x3ef91187	0.48646185
28	0x3b81030d	0.0039371313
29	0xbd5d8455	-0.05408128
30	0xbdca5cd6	-0.09880988
31	0xbe47eb61	-0.19523384
32	0xbe3014e2	-0.17195466
33	0xbd0b03c0	-0.033939123
34	0x3e06e25b	0.13172285
35	0x3ef3aa8c	0.47591054
36	0xbeddb2bb	-0.43300423
37	0xbcc2f1fb	-0.023797026
38	0x3f38472f	0.7198362
39	0x3d31c697	0.04340228
40	0xbe064f4a	-0.13116184
41	0xbcd5a8e8	-0.026081517
42	0x3e4e57d1	0.20150687
43	0xbe88148e	-0.26578182
44	0xbc8526fc	-0.01625394
45	0x3ee4a5a9	0.4465764
46	0xbd9d2019	-0.07672138
47	0x3d9b5e6a	0.075863674
48	0xbdf0f9aa	-0.1176637
49	0xbebf6113	-0.3737875
50	0x3dd3e8ab	0.10347112
51	0xbeab449e	-0.33450788
52	0x3ddb858c	0.107188314
53	0xbe9a6d95	-0.3016173
54	0xbe1d40fe	-0.15356824
55	0x3f14fc47	0.58197445
56	0x3f2c16c0	0.67222214
57	0xbebcd05a	-0.3687771
58	0xbe566a6f	-0.20939039
59	0x3e9035c0	0.28166008
60	0x3ef0c181	0.47022632
61	0xbe72d04a	-0.23712268
62	0x3eb6702b	0.35632452
63	0x3cc4b4c2	0.024011973
64	0x3d865800	0.065597534
65	0xbe98eaa7	-0.29866526
66	0xbdd59993	-0.104296826
67	0x3eeb5011	0.45959523
68	0xbc67c2f4	-0.014145602
69	0x3b729fe4	0.0037021572
70	0xbcae1c2e	-0.021253671
71	0xbecb2add	-0.3968114
72	0x3dc51cc5	0.09624628
73	0x3eccddd0	0.4001298
74	0x3e7a9e81	0.24474527
75	0xbe8777e0	-0.26458645
76	0x3e00c785	0.1257611
77	0xbe81d99c	-0.25361335
78	0x3e06ce26	0.13164577
79	0xbcc93b4c	-0.024564408
80	0xbeca5de6	-0.39524764
81	0x3f0c988c	0.5492027
82	0x3e661671	0.22469498
83	0xbe944e9d	-0.28966227
84	0xbe5b6e83	-0.21428876
85	0x3e059402	0.13044742
86	0x3e904ab2	0.28181988
87	0xbe4ba20c	-0.19886035
88	0xbd4eea63	-0.050516497
89	0x3e8f415e	0.2797956
90	0x3ef13e81	0.47118
91	0xbd559ed9	-0.052153442
92	0xbf0c9a19	-0.54922634
93	0xbd3b2530	-0.04568976
94	0xbeb35f86	-0.35033816
95	0x3ed96370	0.42458677
96	0x3ef5014d	0.47852555
97	0xbeb0d28e	-0.3453564
98	0xbdaff337	-0.085913114
99	0x3edab810	0.42718554
100	0x3e00c186	0.12573823
101	0xbe559fee	-0.2086179
102	0xbe1213e5	-0.14265402
103	0x3e3a00d7	0.18164383
104	0xbe65e570	-0.22450805
105	0xbe23bf35	-0.15990908
106	0x3e17f619	0.14839973
107	0xbdb8dfd7	-0.09027069
108	0xbe254db0	-0.16142917
109	0xbd80a812	-0.06282057
110	0x3d591b81	0.053004745
111	0x3e8e423f	0.27784917
112	0xbe0f09fb	-0.13968651
113	0x3d80a2fe	0.06281088
114	0xbe7f839b	-0.24952547
115	0xbde609b8	-0.112323225
116	0x3e0185e9	0.12648739
117	0x3ea27d80	0.31736374
118	0x3db343de	0.08753179
119	0x3d5a07dc	0.05323015
120	0x3e7e7bc0	0.24851894
121	0xbe27fc00	-0.16404724
122	0x3d8fafa5	0.070159234
123	0xbf495372	-0.7864295
124	0xbefd42d2	-0.49465042
125	0xbeb3df79	-0.35131434
126	0xbebba797	-0.36651298
127	0x3d0f5c2f	0.035000023
128	0xbeb87c9a	-0.36032563
129	0xbec1ea49	-0.37874058
130	0x3dd69c01	0.10478974
131	0xbe343232	-0.17597273
132	0x3ec414d5	0.38297144
133	0x3f13fb31	0.5780516
134	0x3e511f32	0.20422056
135	0x3d5cb43c	0.053882822
136	0x3df017f7	0.11723321
137	0xbe823f10	-0.25438738
138	0xbd66ff20	-0.05639565
139	0xbec47691	-0.3837171
140	0xbf109e20	-0.5649128
141	0xbd934db9	-0.07192559
142	0xbd8fabae	-0.07015167
143	0xbe9664bd	-0.29373732
144	0xbd203980	-0.039117336
145	0x3f6431ea	0.8913866
146	0xbeecb845	-0.46234336
147	0x3e92dc8c	0.2868389
148	0xbe41f2ef	-0.18940328
149	0x3e9a323a	0.30116445
150	0xbea84b54	-0.3286997
151	0x3df3fc98	0.11913413
152	0x3ea42232	0.3205734
153	0x3e949eac	0.29027307
154	0x3e6a1fe2	0.22863725
155	0x3e298a89	0.16556753
156	0xbf42b890	-0.7606287
157	0xbcb86071	-0.022506924
158	0x3ea8f656	0.3300044
159	0xbec3d843	-0.38250932
160	0xbdc37de5	-0.09545497
161	0xbef629ec	-0.4807886
162	0xbe768a2e	-0.24076149
163	0xbe1bf61d	-0.15230604
164	0x3e88f3dd	0.26748553
165	0x3e84bb00	0.2592392
166	0xbe998ce4	-0.29990304
167	0xbeae7745	-0.3407537
168	0x3e4e61d4	0.20154506
169	0xbe69166c	-0.2276246
170	0x3b579973	0.003289786
171	0x3d1ac7c3	0.037788164
172	0xbe3cd232	-0.18439558
173	0xbdbe3f00	-0.0928936
174	0x3f1c72e3	0.61112803
175	0x3ddfbc1c	0.10924551
176	0xbea73645	-0.32658592
177	0xbea508a2	-0.3223315
178	0x3efa158d	0.48844567
179	0xbe33d60d	-0.17562123
180	0xbde701b4	-0.11279622
181	0xbe860f41	-0.26183513
182	0x3ed201cd	0.41017
183	0x3cc1e612	0.023669276
184	0x3eacfd9c	0.3378724
185	0x3ed2b1b4	0.41151202
186	0x3e20656c	0.1566369
187	0xbeae9910	-0.34101152
188	0xbf0c0b1d	-0.5470446
189	0xbec38df2	-0.38194233
190	0xbc7babe3	-0.015360805
191	0xbd611cc1	-0.054959062
192	0xbe4180de	-0.18896815
193	0x3dd10514	0.10206047
194	0xbdf2d8d0	-0.1185776
195	0xbed0f6a4	-0.40813172
196	0x3d84ce47	0.06484657
197	0xbd8d2921	-0.0689261
198	0x3ec5dddb	0.38645825
199	0xbee6c566	-0.45072478
200	0xbe229bd5	-0.15879758
201	0x3dab014a	0.08349855
202	0xbe19f6b2	-0.15035513
203	0x3c5ee68a	0.0136047695
204	0xbe0b6761	-0.13613655
205	0x3e0a73fb	0.13520806
206	0xbe8f85c6	-0.2803175
207	0xbe8ff479	-0.28116205
208	0xbe5a8e65	-0.21343382
209	0x3ec4c1c8	0.38429093
210	0x3e8cf44e	0.2753014
211	0x3ed670b4	0.4188286
212	0xbeccc702	-0.3999558
213	0xbe34c618	-0.17653692
214	0xbd3176ce	-0.04332619
215	0xbebd6536	-0.3699128
216	0x3e55e66d	0.20888682
217	0xbe28e600	-0.16493988
218	0xbe276583	-0.16347317
219	0xbd0507bf	-0.03247809
220	0xbe761ea2	-0.24035123
221	0x3e1d0651	0.15334441
222	0x3e88c93b	0.26716027
223	0xbebd876f	-0.3701739
224	0xbe01e48f	-0.12684844
225	0x39ef32ad	0.0004562339
226	0xbd9ca6b3	-0.07648983
227	0xbe7ddf1f	-0.24792145
228	0xbdce3cbb	-0.10070177
229	0xbe484feb	-0.19561736
230	0x3e2089b4	0.1567753
231	0x3f01aa06	0.5065006
232	0xbec968a6	-0.39337653
233	0xbeb3ff64	-0.35155785
234	0xba516ca4	-0.0007988906
235	0xbda852fc	-0.08218953
236	0x3ea0332f	0.3128905
237	0xbe8edb55	-0.27901712
238	0x3dc389bc	0.09547755
239	0x3d5647f5	0.052314717
240	0xbe347a37	-0.17624746
241	0xbe455b21	-0.19273044
242	0xbed189cb	-0.4092544
243	0xbf2a1c07	-0.66449016
244	0x3e2d1719	0.16903342
245	0xbe2ddc8f	-0.16978668
246	0xbc424f7c	-0.011859771
247	0x3e9c3526	0.305093
248	0x3e1001ce	0.14063188
249	0xbe93d364	-0.28872216
250	0x3c5f87d1	0.013643221
251	0xbca69f4d	-0.020339632
252	0xbeb904c5	-0.3613645
253	0x3dda546e	0.10660635
254	0xbdefdee1	-0.11712433
255	0x3e5ea3a9	0.21742119

conv_layers.1.lin_dst.weight f4 [100, 100]
0	0x3db1c7a9	0.0868066
1	0x3daeb7ea	0.085311726
2	0x3f47dc88	0.7807088
3	0xbe4d98bd	-0.20077796
4	0x3df1ef6d	0.11813245
5	0x3ddb5e15	0.10711304
6	0xbefce630	-0.4939437
7	0x3efaec55	0.49008432
8	0xbe26557a	-0.16243544
9	0xbe3fc63b	-0.18727963
10	0xbd7cf9c7	-0.061761644
11	0x3e9c840e	0.305695
12	0x3d32a29a	0.0436121
13	0xbef023ee	-0.46902412
14	0x3f0b1e84	0.5434344
15	0x3dad8c6c	0.08474049
16	0x3e815c86	0.25265902
17	0xbe9355c6	-0.28776377
18	0xbda575fc	-0.08079144
19	0xbe7ead33	-0.24870758
20	0xbeb34a19	-0.3501747
21	0xbdd1fbaa	-0.10253079
22	0x3d753750	0.059867203
23	0xbd444486	-0.04791691
24	0x3e95a8de	0.29230398
25	0x3e86f1fe	0.263565
26	0x3e869999	0.2628906
27	0x3ef91187	0.48646185
28	0x3b81030d	0.0039371313
29	0xbd5d8455	-0.05408128
30	0xbdca5cd6	-0.09880988
31	0xbe47eb61	-0.19523384
32	0xbe3014e2	-0.17195466
33	0xbd0b03c0	-0.033939123
34	0x3e06e25b	0.13172285
35	0x3ef3aa8c	0.47591054
36	0xbeddb2bb	-0.43300423
37	0xbcc2f1fb	-0.023797026
38	0x3f38472f	0.7198362
39	0x3d31c697	0.04340228
40	0xbe064f4a	-0.13116184
41	0xbcd5a8e8	-0.026081517
42	0x3e4e57d1	0.20150687
43	0xbe88148e	-0.26578182
44	0xbc8526fc	-0.01625394
45	0x3ee4a5a9	0.4465764
46	0xbd9d2019	-0.07672138
47	0x3d9b5e6a	0.075863674
48	0xbdf0f9aa	-0.1176637
49	0xbebf6113	-0.3737875
50	0x3dd3e8ab	0.10347112
51	0xbeab449e	-0.33450788
52	0x3ddb858c	0.107188314
53	0xbe9a6d95	-0.3016173
54	0xbe1d40fe	-0.15356824
55	0x3f14fc47	0.58197445
56	0x3f2c16c0	0.67222214
57	0xbebcd05a	-0.3687771
58	0xbe566a6f	-0.20939039
59	0x3e9035c0	0.28166008
60	0x3ef0c181	0.47022632
61	0xbe72d04a	-0.23712268
62	0x3eb6702b	0.35632452
63	0x3cc4b4c2	0.024011973
64	0x3d865800	0.065597534
65	0xbe98eaa7	-0.29866526
66	0xbdd59993	-0.104296826
67	0x3eeb5011	0.45959523
68	0xbc67c2f4	-0.014145602
69	0x3b729fe4	0.0037021572
70	0xbcae1c2e	-0.021253671
71	0xbecb2add	-0.3968114
72	0x3dc51cc5	0.09624628
73	0x3eccddd0	0.4001298
74	0x3e7a9e81	0.24474527
75	0xbe8777e0	-0.26458645
76	0x3e00c785	0.1257611
77	0xbe81d99c	-0.25361335
78	0x3e06ce26	0.13164577
79	0xbcc93b4c	-0.024564408
80	0xbeca5de6	-0.39524764
81	0x3f0c988c	0.5492027
82	0x3e661671	0.22469498
83	0xbe944e9d	-0.28966227
84	0xbe5b6e83	-0.21428876
85	0x3e059402	0.13044742
86	0x3e904ab2	0.28181988
87	0xbe4ba20c	-0.19886035
88	0xbd4eea63	-0.050516497
89	0x3e8f415e	0.2797956
90	0x3ef13e81	0.47118
91	0xbd559ed9	-0.052153442
92	0xbf0c9a19	-0.54922634
93	0xbd3b2530	-0.04568976
94	0xbeb35f86	-0.35033816
95	0x3ed96370	0.42458677
96	0x3ef5014d	0.47852555
97	0xbeb0d28e	-0.3453564
98	0xbdaff337	-0.085913114
99	0x3edab810	0.42718554
100	0x3e00c186	0.12573823
101	0xbe559fee	-0.2086179
102	0xbe1213e5	-0.14265402
103	0x3e3a00d7	0.18164383
104	0xbe65e570	-0.22450805
105	0xbe23bf35	-0.15990908
106	0x3e17f619	0.14839973
107	0xbdb8dfd7	-0.09027069
108	0xbe254db0	-0.16142917
109	0xbd80a812	-0.06282057
110	0x3d591b81	0.053004745
111	0x3e8e423f	0.27784917
112	0xbe0f09fb	-0.13968651
113	0x3d80a2fe	0.06281088
114	0xbe7f839b	-0.24952547
115	0xbde609b8	-0.112323225
116	0x3e0185e9	0.12648739
117	0x3ea27d80	0.31736374
118	0x3db343de	0.08753179
119	0x3d5a07dc	0.05323015
120	0x3e7e7bc0	0.24851894
121	0xbe27fc00	-0.16404724
122	0x3d8fafa5	0.070159234
123	0xbf495372	-0.7864295
124	0xbefd42d2	-0.49465042
125	0xbeb3df79	-0.35131434
126	0xbebba797	-0.36651298
127	0x3d0f5c2f	0.035000023
128	0xbeb87c9a	-0.36032563
129	0xbec1ea49	-0.37874058
130	0x3dd69c01	0.10478974
131	0xbe343232	-0.17597273
132	0x3ec414d5	0.38297144
133	0x3f13fb31	0.5780516
134	0x3e511f32	0.20422056
135	0x3d5cb43c	0.053882822
136	0x3df017f7	0.11723321
137	0xbe823f10	-0.25438738
138	0xbd66ff20	-0.05639565
139	0xbec47691	-0.3837171
140	0xbf109e20	-0.5649128
141	0xbd934db9	-0.07192559
142	0xbd8fabae	-0.07015167
143	0xbe9664bd	-0.29373732
144	0xbd203980	-0.039117336
145	0x3f6431ea	0.8913866
146	0xbeecb845	-0.46234336
147	0x3e92dc8c	0.2868389
148	0xbe41f2ef	-0.18940328
149	0x3e9a323a	0.30116445
150	0xbea84b54	-0.3286997
151	0x3df3fc98	0.11913413
152	0x3ea42232	0.3205734
153	0x3e949eac	0.29027307
154	0x3e6a1fe2	0.22863725
155	0x3e298a89	0.16556753
156	0xbf42b890	-0.7606287
157	0xbcb86071	-0.022506924
158	0x3ea8f656	0.3300044
159	0xbec3d843	-0.38250932
160	0xbdc37de5	-0.09545497
161	0xbef629ec	-0.4807886
162	0xbe768a2e	-0.24076149
163	0xbe1bf61d	-0.15230604
164	0x3e88f3dd	0.26748553
165	0x3e84bb00	0.2592392
166	0xbe998ce4	-0.29990304
167	0xbeae7745	-0.3407537
168	0x3e4e61d4	0.20154506
169	0xbe69166c	-0.2276246
170	0x3b579973	0.003289786
171	0x3d1ac7c3	0.037788164
172	0xbe3cd232	-0.18439558
173	0xbdbe3f00	-0.0928936
174	0x3f1c72e3	0.61112803
175	0x3ddfbc1c	0.10924551
176	0xbea73645	-0.32658592
177	0xbea508a2	-0.3223315
178	0x3efa158d	0.48844567
179	0xbe33d60d	-0.17562123
180	0xbde701b4	-0.11279622
181	0xbe860f41	-0.26183513
182	0x3ed201cd	0.41017
183	0x3cc1e612	0.023669276
184	0x3eacfd9c	0.3378724
185	0x3ed2b1b4	0.41151202
186	0x3e20656c	0.1566369
187	0xbeae9910	-0.34101152
188	0xbf0c0b1d	-0.5470446
189	0xbec38df2	-0.38194233
190	0xbc7babe3	-0.015360805
191	0xbd611cc1	-0.054959062
192	0xbe4180de	-0.18896815
193	0x3dd10514	0.10206047
194	0xbdf2d8d0	-0.1185776
195	0xbed0f6a4	-0.40813172
196	0x3d84ce47	0.06484657
197	0xbd8d2921	-0.0689261
198	0x3ec5dddb	0.38645825
199	0xbee6c566	-0.45072478
200	0xbe229bd5	-0.15879758
201	0x3dab014a	0.08349855
202	0xbe19f6b2	-0.15035513
203	0x3c5ee68a	0.0136047695
204	0xbe0b6761	-0.13613655
205	0x3e0a73fb	0.13520806
206	0xbe8f85c6	-0.2803175
207	0xbe8ff479	-0.28116205
208	0xbe5a8e65	-0.21343382
209	0x3ec4c1c8	0.38429093
210	0x3e8cf44e	0.2753014
211	0x3ed670b4	0.4188286
212	0xbeccc702	-0.3999558
213	0xbe34c618	-0.17653692
214	0xbd3176ce	-0.04332619
215	0xbebd6536	-0.3699128
216	0x3e55e66d	0.20888682
217	0xbe28e600	-0.16493988
218	0xbe276583	-0.16347317
219	0xbd0507bf	-0.03247809
220	0xbe761ea2	-0.24035123
221	0x3e1d0651	0.15334441
222	0x3e88c93b	0.26716027
223	0xbebd876f	-0.3701739
224	0xbe01e48f	-0.12684844
225	0x39ef32ad	0.0004562339
226	0xbd9ca6b3	-0.07648983
227	0xbe7ddf1f	-0.24792145
228	0xbdce3cbb	-0.10070177
229	0xbe484feb	-0.19561736
230	0x3e2089b4	0.1567753
231	0x3f01aa06	0.5065006
232	0xbec968a6	-0.39337653
233	0xbeb3ff64	-0.35155785
234	0xba516ca4	-0.0007988906
235	0xbda852fc	-0.08218953
236	0x3ea0332f	0.3128905
237	0xbe8edb55	-0.27901712
238	0x3dc389bc	0.09547755
239	0x3d5647f5	0.052314717
240	0xbe347a37	-0.17624746
241	0xbe455b21	-0.19273044
242	0xbed189cb	-0.4092544
243	0xbf2a1c07	-0.66449016
244	0x3e2d1719	0.16903342
245	0xbe2ddc8f	-0.16978668
246	0xbc424f7c	-0.011859771
247	0x3e9c3526	0.305093
248	0x3e1001ce	0.14063188
249	0xbe93d364	-0.28872216
250	0x3c5f87d1	0.013643221
251	0xbca69f4d	-0.020339632
252	0xbeb904c5	-0.3613645
253	0x3dda546e	0.10660635
254	0xbdefdee1	-0.11712433
255	0x3e5ea3a9	0.21742119
