ProG/pre_trained_gnn/CiteSeer.SimGRACE.GAT.pth (torch, 85787 bytes, 10 tensors)

conv_layers.0.att_src f4 [1, 1, 100]
000000 45 05 3f 3e 20 d9 90 3d aa 85 54 bd b2 33 89 3e
       0.18654354 0.07072663 -0.051885284 0.26797253
000010 a0 91 0b bd 3c d9 8e 3e 6b 30 80 be 8f 6f 9e 3e
       -0.034074426 0.27900112 -0.2503694 0.30944487
000020 6e 13 7d bd 1e 41 a5 3d fa 8a 98 bd 31 1e 1c 3e
       -0.061786108 0.08069061 -0.07448383 0.15245892
000030 95 22 7c bd df 86 1d 3e d4 09 5e bc de cc 8a be
       -0.061556417 0.1538348 -0.013552148 -0.27109426
000040 92 65 a7 be c5 40 fb be 11 c6 c0 3e 0f 3d 2e bd
       -0.3269468 -0.49072853 0.37651113 -0.0425387
000050 c8 20 8d bd ed 4b da 3d 12 4f 74 3e d5 4f 42 be
       -0.06891018 0.10659013 0.23858288 -0.18975766
000060 02 7e 50 3e 68 d4 09 be 20 36 ea 3d b2 a6 d3 be
       0.20360568 -0.13459933 0.11436105 -0.41338116
000070 51 d5 22 3e e7 b7 9e be bd e7 ac 3d 28 fe d4 bd
       0.15901686 -0.3099968 0.08442638 -0.10400039
000080 d6 dc 40 3e 5d a0 46 be f3 c8 fd bd 1f 81 e0 bd
       0.18834242 -0.19397111 -0.12391844 -0.10962128
000090 54 1b 26 be af 25 bf bd c4 8e 2a 3e a3 cf 27 be
       -0.16221362 -0.093333595 0.16656023 -0.16387801
0000a0 56 fd ee be 7f 28 09 3e 8d 13 eb bd aa 91 61 be
       -0.46677655 0.13394354 -0.114783384 -0.22028223
0000b0 8a da f4 3e 5f 5b 38 be 16 19 83 3e 82 62 2d be
       0.47822982 -0.18003605 0.25605077 -0.16932109
0000c0 e5 fd b1 bc f5 6c ef bd 1e c7 57 3e 19 a8 96 be
       -0.021727512 -0.11690704 0.21072051 -0.29425123
0000d0 99 6d f1 bd ea 1d 53 3e e6 5f 2a be 98 c9 a8 3d
       -0.11788482 0.2061688 -0.16638145 0.08241576
0000e0 a4 3a 4d be 9f 99 9e 3d 99 86 30 3f 30 18 86 3e
       -0.20041901 0.07744145 0.6895538 0.2619033
0000f0 e6 34 27 be b2 91 83 3d 95 52 40 3e 26 c5 b2 3c
       -0.16328773 0.064242736 0.18781503 0.021822523
000100 de 46 3a be c8 f2 01 be 90 66 8e be dc fa bf be
       -0.18191096 -0.1269027 -0.27812624 -0.37496078
000110 48 8c 6f 3e a1 c1 92 be 3b 86 dc 3d d8 4b 21 3e
       0.23393357 -0.28663352 0.1076779 0.15751588
000120 fa 28 2b 3f a3 58 3b bd 3c e8 a8 be 5e a4 01 3e
       0.668594 -0.045738827 -0.3298968 0.12660357
000130 78 d6 36 3e e0 34 ae 3e 6d e7 92 be 2c d6 1b 3c
       0.17855251 0.34024715 -0.2869219 0.009511512
000140 1b 90 60 3e 9f 5f 50 3c f4 81 95 3a 41 ba 46 be
       0.21929972 0.01271811 0.0011406527 -0.19406988
000150 f6 c8 89 be cc 89 7d 3c a8 04 77 be b0 73 ea bd
       -0.26911134 0.015474748 -0.2412287 -0.11447847
000160 17 7a ad 3c 5a 2b 53 be 5b af a6 bc 27 b6 06 3d
       0.021176381 -0.20622006 -0.020347288 0.032888558
000170 eb 19 85 3e 29 e8 7d bd 5f e9 0e be 4e 15 9b 3e
       0.25996336 -0.061988983 -0.13956212 0.30289692
000180 50 e0 98 be bd 5f da 3d 3c e5 a0 3d 05 5f 5b 3e
       -0.29858637 0.10662792 0.07856223 0.21422966

conv_layers.0.att_dst f4 [1, 1, 100]
000000 de f7 11 3e ae ad 9e 3e 7a a7 65 3f 22 b0 0d 3e
       0.1425471 0.30991882 0.89708674 0.1383672
000010 04 78 e3 3c 95 5d dc 3e 4f 07 ec 3e 3f ca 4d 3f
       0.027767189 0.43040147 0.46099326 0.8038673
000020 3f 86 f8 3e 88 09 26 3e 9e 28 99 3e 6d da 6c 3e
       0.48539922 0.16214573 0.299138 0.23130198
000030 2c 5b 4e 3e 6b f5 bc be fd 99 5e bd 05 07 b2 3e
       0.20151967 -0.3690599 -0.054346073 0.3477098
000040 09 01 f8 be f8 a1 41 3f f7 a4 33 3e 69 30 47 3e
       -0.4843829 0.7563777 0.17543398 0.19452061
000050 53 99 c5 3e 39 d0 73 3e 84 88 f0 3e 46 0f 8e 3e
       0.3859354 0.238099 0.46979153 0.27746028
000060 6a a1 db 3e 20 4c 00 3e 82 0a 1e be 82 dd a2 3e
       0.42896587 0.1252904 -0.15433696 0.31809622
000070 b7 66 b3 be c4 17 f8 bc 35 59 0c bd 99 fd 8f 3e
       -0.35039303 -0.03028477 -0.034264762 0.28123167
000080 f4 90 a4 be f1 e3 9c 3e 25 ea 07 3f 6c 16 54 be
       -0.3214184 0.30642655 0.5309165 -0.20711678
000090 43 cb 19 3f aa ce ac 3e 5a 15 64 be c4 c7 b7 3d
       0.6007578 0.33751422 -0.2227377 0.08973649
0000a0 03 fd 92 3d c5 56 83 3d a8 7c 42 be 26 6e 97 3e
       0.071771644 0.06413034 -0.18992865 0.29576224
0000b0 2b 87 69 bc d1 07 ab 3e 80 f4 59 3e 20 06 4b 3e
       -0.014253418 0.334044 0.21284676 0.19826555
0000c0 99 9c a3 bc 04 82 71 3e 8e 4b 42 bd 26 e3 ed 3e
       -0.019972133 0.23584753 -0.047435336 0.46462363
0000d0 fb 0a 2e be 15 ea 9b 3e 75 08 db 3e 15 a4 a8 3e
       -0.16996376 0.30452028 0.4277989 0.32937685
0000e0 f6 7c af 3d 8f b1 9b 3d 71 9b 52 3f 67 dd c1 3e
       0.08568756 0.07602226 0.82268435 0.3786423
0000f0 5e ae 58 bd 3f c7 0e 3f a2 36 7a 3c d8 b3 a5 3e
       -0.052900665 0.55772775 0.015271815 0.32363772
000100 69 da 97 bd 6e c9 02 3f 15 ad 96 3d ee 21 45 be
       -0.07414705 0.5108861 0.073572315 -0.19251224
000110 b3 27 18 3f 6e 1a 12 3f 12 3a 52 3e 3c e1 94 3d
       0.59435576 0.5707158 0.20529965 0.072695225
000120 70 36 1f 3f ad 2f 68 be b3 6e 02 3f de 3c 36 3e
       0.6219244 -0.22674437 0.50950164 0.17796656
000130 e4 45 8d 3e fe 6d 0e 3f 47 24 43 3f 7c 5a 80 3e
       0.27592385 0.55636585 0.7622723 0.25069034
000140 5c 8f 97 3e 78 c4 fe 3e 61 a5 a6 3e 0c 16 b2 be
       0.29601562 0.4975927 0.3254805 -0.34782445
000150 dd 96 aa 3d 1e e0 1d be 1e 72 12 3e 68 5c 92 3e
       0.08329556 -0.15417525 0.14301345 0.28586125
000160 fd fc 1e be 94 8f 0b 3f b1 c1 cf 3e 7e 3d a5 3d
       -0.15526195 0.5451596 0.40577462 0.08068369
000170 55 92 c4 3e fd 81 f7 bc 21 fa 5b 3e 2d 1d ad 3e
       0.38392892 -0.03021335 0.21482135 0.33811322
000180 c3 4f af 3e 18 5e e2 be bf 31 d3 3e 18 6d 99 3e
       0.3424054 -0.44212413 0.4124889 0.29966044

conv_layers.0.bias f4 [100]
000000 b0 27 c0 be d2 51 bb be 2f dc 2f be 71 65 c8 be
       -0.3753028 -0.3658586 -0.17173837 -0.39139894
000010 70 36 98 be 7d 00 78 be 37 50 25 be ea bc ba be
       -0.29729033 -0.24218936 -0.16143881 -0.36472255
000020 31 91 14 be d7 14 a2 be 25 74 c5 be cb 1c c9 be
       -0.14508511 -0.31656525 -0.38565174 -0.3927978
000030 37 20 26 be 1a e3 cf be c9 6a 71 be 40 d5 7c be
       -0.16223226 -0.40602952 -0.23575892 -0.24690723
000040 7d 7a 66 be c2 0f 21 be af c9 1f bf 0d ac b9 be
       -0.22507663 -0.15728667 -0.6241712 -0.36264077
000050 ac cd d2 bd 84 fb 64 be a4 d2 59 be 08 f8 eb bd
       -0.10293135 -0.2236157 -0.2127176 -0.115219176
000060 6a 79 be be 0b 86 3a be 5d 17 7a be c4 a3 70 be
       -0.37202007 -0.18215196 -0.24422975 -0.23499972
000070 fc 9e cc be d3 df ad be a2 94 dd be 9a ad b5 be
       -0.39965045 -0.33959827 -0.4327746 -0.3548401
000080 45 f0 a0 be b4 62 48 bf 0d b3 49 be 61 a2 b2 be
       -0.3143331 -0.7827561 -0.19697209 -0.3488951
000090 a4 2d 75 be c8 bc b5 be 94 35 a1 be b7 57 06 be
       -0.23943192 -0.3549559 -0.3148619 -0.13119398
0000a0 d8 73 3a be e1 6f a5 bd 62 c7 9c be bd ee 28 be
       -0.18208253 -0.0807798 -0.30620867 -0.16497321
0000b0 61 c6 93 be 30 35 7a be a6 5d f5 be 7c 58 c2 be
       -0.2886229 -0.24434352 -0.4792301 -0.37958133
0000c0 37 ab 61 be a0 dd 60 be 66 71 7f be 33 9c 6c be
       -0.2203797 -0.21959543 -0.24945602 -0.2310646
0000d0 8d d0 a6 be a8 15 8e be da 4f b4 be 89 ae fc be
       -0.32580987 -0.27750897 -0.35217172 -0.4935191
0000e0 25 21 84 be 96 4b 8c be dd 78 ed be 10 f1 04 bf
       -0.25806537 -0.27401417 -0.46381274 -0.5193033
0000f0 76 37 c7 be c5 71 84 be d2 be b8 be 4f 6f a7 be
       -0.389095 -0.2586805 -0.36083084 -0.3270211
000100 81 52 ad be 4a f0 7a be 54 d8 1b be eb 98 32 be
       -0.33852008 -0.24505726 -0.15219241 -0.17441146
000110 fd 28 a2 be b3 66 1e be b5 50 dd be 9f 39 73 be
       -0.31671897 -0.15468864 -0.43225637 -0.2375245
000120 45 9b a9 be e7 bc 3a be 7f b9 9b be e5 1f aa be
       -0.33126274 -0.18236123 -0.3041496 -0.3322746
000130 4d 9f 71 be 24 63 f5 bd df cb fc bd c1 09 f8 bd
       -0.23595925 -0.119818 -0.12343573 -0.121112354
000140 22 2c 9a be ca 82 ad be c7 01 e9 be 53 38 93 be
       -0.30111796 -0.33888847 -0.45509169 -0.2875391
000150 3e 2d 55 be d6 e7 30 be dc 1c bc be 36 ad df be
       -0.2081804 -0.17275938 -0.36740768 -0.43686837
000160 a2 7b 8c be d3 dc 76 be fa b9 16 be e0 8e 04 bf
       -0.27438074 -0.24107675 -0.14719382 -0.5178051
000170 e4 32 a0 be 34 f8 ce be e0 47 4c be b5 14 62 be
       -0.31288826 -0.4042374 -0.19949293 -0.22078212
000180 b9 3b 9b bd 35 7d d4 be 00 e9 9f be e7 ae fd be
       -0.075797506 -0.41501775 -0.31232452 -0.49547502

conv_layers.0.lin_src.weight f4 [100, 100]
000000 cd c4 9a 3e 85 8e 8d 3d 1a ea 99 3d f0 5c 96 3d
       0.30228272 0.06911949 0.075153545 0.07341945
000010 aa 9c 16 bf bb a3 2b be 8e d6 7b be 1a 68 27 3e
       -0.588328 -0.16761677 -0.24593565 0.16348305
000020 3d 97 a8 bd a6 10 fb be 6c cc 86 be d5 da b7 3e
       -0.082319714 -0.4903614 -0.26327837 0.35909143
000030 7c 7a 46 be 4d 45 a9 be 60 db 8c 3e 63 17 35 bd
       -0.19382662 -0.33060685 0.2751112 -0.044211756
000040 5b db 3a bd 22 42 41 3d 49 a3 fc 3d 9b ad 4f 3e
       -0.04561935 0.04718221 0.12335832 0.20281069
000050 fc 29 d3 3e 62 d2 01 3d b5 9d ad 3d 09 59 5e 3d
       0.4124297 0.031694777 0.08477346 0.05428413
000060 3f 29 c1 3e 8e 5c 77 be eb 1f d7 be 0d c3 c6 be
       0.3772678 -0.241564 -0.4201654 -0.38820687
000070 a8 88 9c be 0b df 2d 3e 74 7e 55 3e 14 66 92 3e
       -0.3057301 0.16979615 0.2084902 0.28593504
000080 12 8e 5e be fb 51 cd bd f0 e6 34 be e9 f8 60 be
       -0.21733883 -0.10025402 -0.1766622 -0.21969952
000090 b3 4c 80 3e 01 74 92 3e db 1a 91 be 25 1c a3 bd
       0.25058517 0.2860413 -0.28340802 -0.079643525
0000a0 1b 97 d0 bd 87 9f 78 3e 12 23 4e 3e 79 22 01 bd
       -0.10185071 0.24279605 0.20130566 -0.031527016
0000b0 15 8b c2 be be 0c 9b be b9 a8 7e 3e 40 65 9b 3c
       -0.37996736 -0.3028316 0.2486905 0.018969178
0000c0 5f f7 d8 3c 85 43 d8 3e 1a 51 90 3e 7d 00 b8 be
       0.026485143 0.42239013 0.28186876 -0.35937873
0000d0 16 57 1b be a0 01 1a 3f 1b 62 e0 bc bd 47 23 3f
       -0.1516994 0.6015873 -0.02739053 0.6378134
0000e0 ef 58 45 be 41 71 1e be c3 c6 5a 3e 38 4d 03 3f
       -0.19272207 -0.1547289 0.21364884 0.512897
0000f0 00 d6 13 3e 58 b9 66 3e f3 6a f9 3e 6f 51 ab 3d
       0.14437103 0.2253164 0.48714408 0.083651416
000100 26 cc e8 bc 1e 06 21 bf 2d 8a bc be b6 85 0e bf
       -0.028417658 -0.6289996 -0.3682417 -0.55672777
000110 b8 69 8c be 42 93 0e 3f e3 d9 4e 3f 1f 5b 37 3e
       -0.27424407 0.5569345 0.8080122 0.17905854
000120 03 9f 42 3e f6 c2 d0 3d d5 16 9d 3e 2c 5f e7 be
       0.1900597 0.10193436 0.30681482 -0.45189798
000130 18 ef 54 3c 4b 04 5d be 45 42 41 be 82 5d 1b 3e
       0.0129964575 -0.21583669 -0.18872936 0.15172389
000140 3d cc 22 3e 24 12 d3 bd 22 37 b7 3e d7 85 cd be
       0.15898223 -0.103061944 0.3578425 -0.40141174
000150 91 92 fb be 50 84 91 be 4b 8a 5f 3e f0 22 54 be
       -0.4913526 -0.2842126 0.21830098 -0.20716453
000160 35 bb 1c bd f4 49 b8 3d 7b f6 84 bd 1e a1 a7 3d
       -0.038264472 0.089984804 -0.06492325 0.081850275
000170 32 95 6b be 13 8b 2d 3f c2 48 b0 be c4 27 98 be
       -0.23006132 0.67790335 -0.3443051 -0.2971784
000180 f4 3a 99 3e 55 b9 07 3e cf 23 bc 3d c1 27 10 3f
       0.2992779 0.13254292 0.091865174 0.5631066
000190 18 3b c2 3e f7 11 be 3d 4b 3c 09 3e f7 3c 19 bd
       0.3793571 0.0928077 0.13401906 -0.037411656
0001a0 d1 99 1f bf 6e e3 8f bd 0d e7 a8 be f4 c1 00 bf
       -0.6234408 -0.07025801 -0.32988778 -0.5029595
0001b0 60 27 37 bf 88 b9 21 3c 45 7b 94 3d 22 70 c4 be
       -0.71544456 0.009870894 0.07250074 -0.383668
0001c0 05 e9 d4 bd 76 80 ae 3d c7 8b 57 be 3b c6 9a 3c
       -0.103960074 0.08520596 -0.21049415 0.018893352
0001d0 87 c5 ca 3e 60 66 30 3d cc bc 05 3e df d8 1c 3f
       0.39603826 0.043066382 0.13060302 0.6126842
0001e0 57 a0 cb bc e1 73 b5 be ea 5f 14 3e 40 ca 2a bf
       -0.02485673 -0.3543997 0.14489713 -0.6671486
0001f0 5a 1b a6 be 6c 80 85 bd 73 fe a3 be d5 c0 09 3e
       -0.32442743 -0.06518635 -0.32030067 0.13452466
000200 e9 97 ba bc ef e4 08 3e c2 97 42 3e 50 0a 45 be
       -0.022777515 0.13368581 0.19003204 -0.19242215
000210 42 b8 8d be 2f 04 cb 3e 56 9b 07 3f c6 ea 4d 3e
       -0.2767964 0.3965163 0.529714 0.2010909
000220 8d 52 64 be 7c 72 94 be be 9e 9f bd 95 5c 62 3e
       -0.22297116 -0.28993595 -0.077939495 0.2210563
000230 bc f4 d9 3e f1 fb 43 be 82 0d 7d bd 7a cc 8b bf
       0.4256953 -0.19139077 -0.06178046 -1.0921776
000240 50 3e 85 3d 97 d5 26 3f 08 98 37 3e 25 67 70 3e
       0.06506026 0.6516966 0.17929089 0.23476847
000250 9b 9d 87 3e 82 54 3b 3f 37 ca 03 bf 79 c9 5d be
       0.2648743 0.73175824 -0.5148043 -0.21658887
000260 4f b8 54 3e 88 f9 42 3e 45 67 c6 be 7e a4 7e 3e
       0.20773433 0.19040501 -0.38750663 0.24867436
000270 99 e9 cd be 21 66 5f 3e e4 eb 61 3e 73 a9 c0 bc
       -0.40217283 0.21816303 0.22062641 -0.0235183
000280 2a ec e8 3d b6 08 eb 3e 0c b1 8d be 27 c4 f0 be
       0.1137317 0.45905083 -0.2767414 -0.47024652
000290 4e 18 c5 be 41 17 0d 3f 23 51 41 3c d0 1d 41 be
       -0.38495106 0.5511361 0.01179913 -0.18859029
0002a0 dd 4c 3f be 39 3a 62 be c9 dc 9c 3d fa 94 f9 3e
       -0.18681665 -0.22092523 0.07659299 0.48746473
0002b0 dd 85 de 3d 71 a1 1f be 51 94 08 bf 88 21 88 3e
       0.10865376 -0.15588929 -0.5335131 0.26588082
0002c0 ad c9 64 3e 99 aa 84 3e b4 67 d7 3e 2c 37 c5 be
       0.22342558 0.25911406 0.42071307 -0.38518655
0002d0 f7 0e 06 3f 49 44 23 be 7a 06 4c be 7d 17 2d 3e
       0.52366585 -0.15944017 -0.19924346 0.16903491
0002e0 5b f4 06 be 6c 3b 35 3e d7 3a b2 3e 32 95 fe 3e
       -0.13179152 0.17698449 0.34810516 0.49723202
0002f0 b1 6f 1b be 87 aa a2 3e bc 53 c5 3e 93 e9 78 3f
       -0.15179326 0.31770727 0.38540447 0.97231406
000300 6a ce 55 bd 49 b7 ad be fe cb 03 3e bf 44 1e 3d
       -0.052198805 -0.33928898 0.12870786 0.03863978
000310 e4 c6 ca be 15 cf a0 bd aa 3b fa 3e 77 73 03 3e
       -0.39604867 -0.07851998 0.48873645 0.12837015
000320 87 4b 9d 3e 21 96 85 bd d0 32 a6 39 75 1c cf 3e
       0.30721685 -0.065227754 0.00031699846 0.40451398
000330 ad 59 f3 bd f5 38 83 bc fe b4 d2 bd 10 13 9a 3e
       -0.11882339 -0.01601837 -0.10288428 0.3009267
000340 24 d6 30 be 27 a6 a8 bd b7 1b ba be ed cb c6 3e
       -0.17269188 -0.08234816 -0.3634927 0.38827458
000350 6d b9 2d be 98 3d 13 bc 1d d0 22 3e e7 fd c3 3e
       -0.16965266 -0.008986853 0.15899701 0.3827965
000360 f5 ae 6d 3e 73 cc 07 3e 87 7a 48 be 1e 04 48 3e
       0.23211272 0.13261585 -0.1957799 0.1953282
000370 99 03 3e 39 ce 3e 02 be 2c 76 3e be ff a0 74 be
       0.00018121152 -0.1271927 -0.18599766 -0.2388954
000380 3c 2c 41 3e de ff 1f be e7 08 2d 3b b6 21 22 bd
       0.1886453 -0.1562495 0.0026403011 -0.03958293
000390 ed f6 61 be 3e ad 0c bf a9 68 16 bd 90 79 cd 3e
       -0.22066851 -0.54951847 -0.036720905 0.40131807
0003a0 8f be 41 be b8 2f 83 be 87 6c 0b 3e e3 0f 47 be
       -0.18920349 -0.25622344 0.13615619 -0.19439654
0003b0 81 7d ca 3e a9 94 50 be 17 ef 0d bf 1a d1 40 3f
       0.39548877 -0.2036921 -0.5544295 0.75319064
0003c0 10 da e0 bd aa 84 7c be e7 b3 86 3e 91 94 2b 3e
       -0.10979092 -0.24659982 0.2630913 0.16755892
0003d0 bc 7d 2d bd 59 ef d1 3d 30 19 00 3e 59 43 80 3e
       -0.042356238 0.1025073 0.12509608 0.25051382
0003e0 12 35 c1 3e 94 4b 3c be e6 a9 13 bd b0 f3 cf 3e
       0.37735802 -0.18388206 -0.0360507 0.40615606
0003f0 35 ef 64 be 59 8e 97 3e 00 51 89 be c8 df 8c be
       -0.22356875 0.2960079 -0.2681961 -0.27514482

conv_layers.0.lin_dst.weight f4 [100, 100]
000000 cd c4 9a 3e 85 8e 8d 3d 1a ea 99 3d f0 5c 96 3d
       0.30228272 0.06911949 0.075153545 0.07341945
000010 aa 9c 16 bf bb a3 2b be 8e d6 7b be 1a 68 27 3e
       -0.588328 -0.16761677 -0.24593565 0.16348305
000020 3d 97 a8 bd a6 10 fb be 6c cc 86 be d5 da b7 3e
       -0.082319714 -0.4903614 -0.26327837 0.35909143
000030 7c 7a 46 be 4d 45 a9 be 60 db 8c 3e 63 17 35 bd
       -0.19382662 -0.33060685 0.2751112 -0.044211756
000040 5b db 3a bd 22 42 41 3d 49 a3 fc 3d 9b ad 4f 3e
       -0.04561935 0.04718221 0.12335832 0.20281069
000050 fc 29 d3 3e 62 d2 01 3d b5 9d ad 3d 09 59 5e 3d
       0.4124297 0.031694777 0.08477346 0.05428413
000060 3f 29 c1 3e 8e 5c 77 be eb 1f d7 be 0d c3 c6 be
       0.3772678 -0.241564 -0.4201654 -0.38820687
000070 a8 88 9c be 0b df 2d 3e 74 7e 55 3e 14 66 92 3e
       -0.3057301 0.16979615 0.2084902 0.28593504
000080 12 8e 5e be fb 51 cd bd f0 e6 34 be e9 f8 60 be
       -0.21733883 -0.10025402 -0.1766622 -0.21969952
000090 b3 4c 80 3e 01 74 92 3e db 1a 91 be 25 1c a3 bd
       0.25058517 0.2860413 -0.28340802 -0.079643525
0000a0 1b 97 d0 bd 87 9f 78 3e 12 23 4e 3e 79 22 01 bd
       -0.10185071 0.24279605 0.20130566 -0.031527016
0000b0 15 8b c2 be be 0c 9b be b9 a8 7e 3e 40 65 9b 3c
       -0.37996736 -0.3028316 0.2486905 0.018969178
0000c0 5f f7 d8 3c 85 43 d8 3e 1a 51 90 3e 7d 00 b8 be
       0.026485143 0.42239013 0.28186876 -0.35937873
0000d0 16 57 1b be a0 01 1a 3f 1b 62 e0 bc bd 47 23 3f
       -0.1516994 0.6015873 -0.02739053 0.6378134
0000e0 ef 58 45 be 41 71 1e be c3 c6 5a 3e 38 4d 03 3f
       -0.19272207 -0.1547289 0.21364884 0.512897
0000f0 00 d6 13 3e 58 b9 66 3e f3 6a f9 3e 6f 51 ab 3d
       0.14437103 0.2253164 0.48714408 0.083651416
000100 26 cc e8 bc 1e 06 21 bf 2d 8a bc be b6 85 0e bf
       -0.028417658 -0.6289996 -0.3682417 -0.55672777
000110 b8 69 8c be 42 93 0e 3f e3 d9 4e 3f 1f 5b 37 3e
       -0.27424407 0.5569345 0.8080122 0.17905854
000120 03 9f 42 3e f6 c2 d0 3d d5 16 9d 3e 2c 5f e7 be
       0.1900597 0.10193436 0.30681482 -0.45189798
000130 18 ef 54 3c 4b 04 5d be 45 42 41 be 82 5d 1b 3e
       0.0129964575 -0.21583669 -0.18872936 0.15172389
000140 3d cc 22 3e 24 12 d3 bd 22 37 b7 3e d7 85 cd be
       0.15898223 -0.103061944 0.3578425 -0.40141174
000150 91 92 fb be 50 84 91 be 4b 8a 5f 3e f0 22 54 be
       -0.4913526 -0.2842126 0.21830098 -0.20716453
000160 35 bb 1c bd f4 49 b8 3d 7b f6 84 bd 1e a1 a7 3d
       -0.038264472 0.089984804 -0.06492325 0.081850275
000170 32 95 6b be 13 8b 2d 3f c2 48 b0 be c4 27 98 be
       -0.23006132 0.67790335 -0.3443051 -0.2971784
000180 f4 3a 99 3e 55 b9 07 3e cf 23 bc 3d c1 27 10 3f
       0.2992779 0.13254292 0.091865174 0.5631066
000190 18 3b c2 3e f7 11 be 3d 4b 3c 09 3e f7 3c 19 bd
       0.3793571 0.0928077 0.13401906 -0.037411656
0001a0 d1 99 1f bf 6e e3 8f bd 0d e7 a8 be f4 c1 00 bf
       -0.6234408 -0.07025801 -0.32988778 -0.5029595
0001b0 60 27 37 bf 88 b9 21 3c 45 7b 94 3d 22 70 c4 be
       -0.71544456 0.009870894 0.07250074 -0.383668
0001c0 05 e9 d4 bd 76 80 ae 3d c7 8b 57 be 3b c6 9a 3c
       -0.103960074 0.08520596 -0.21049415 0.018893352
0001d0 87 c5 ca 3e 60 66 30 3d cc bc 05 3e df d8 1c 3f
       0.39603826 0.043066382 0.13060302 0.6126842
0001e0 57 a0 cb bc e1 73 b5 be ea 5f 14 3e 40 ca 2a bf
       -0.02485673 -0.3543997 0.14489713 -0.6671486
0001f0 5a 1b a6 be 6c 80 85 bd 73 fe a3 be d5 c0 09 3e
       -0.32442743 -0.06518635 -0.32030067 0.13452466
000200 e9 97 ba bc ef e4 08 3e c2 97 42 3e 50 0a 45 be
       -0.022777515 0.13368581 0.19003204 -0.19242215
000210 42 b8 8d be 2f 04 cb 3e 56 9b 07 3f c6 ea 4d 3e
       -0.2767964 0.3965163 0.529714 0.2010909
000220 8d 52 64 be 7c 72 94 be be 9e 9f bd 95 5c 62 3e
       -0.22297116 -0.28993595 -0.077939495 0.2210563
000230 bc f4 d9 3e f1 fb 43 be 82 0d 7d bd 7a cc 8b bf
       0.4256953 -0.19139077 -0.06178046 -1.0921776
000240 50 3e 85 3d 97 d5 26 3f 08 98 37 3e 25 67 70 3e
       0.06506026 0.6516966 0.17929089 0.23476847
000250 9b 9d 87 3e 82 54 3b 3f 37 ca 03 bf 79 c9 5d be
       0.2648743 0.73175824 -0.5148043 -0.21658887
000260 4f b8 54 3e 88 f9 42 3e 45 67 c6 be 7e a4 7e 3e
       0.20773433 0.19040501 -0.38750663 0.24867436
000270 99 e9 cd be 21 66 5f 3e e4 eb 61 3e 73 a9 c0 bc
       -0.40217283 0.21816303 0.22062641 -0.0235183
000280 2a ec e8 3d b6 08 eb 3e 0c b1 8d be 27 c4 f0 be
       0.1137317 0.45905083 -0.2767414 -0.47024652
000290 4e 18 c5 be 41 17 0d 3f 23 51 41 3c d0 1d 41 be
       -0.38495106 0.5511361 0.01179913 -0.18859029
0002a0 dd 4c 3f be 39 3a 62 be c9 dc 9c 3d fa 94 f9 3e
       -0.18681665 -0.22092523 0.07659299 0.48746473
0002b0 dd 85 de 3d 71 a1 1f be 51 94 08 bf 88 21 88 3e
       0.10865376 -0.15588929 -0.5335131 0.26588082
0002c0 ad c9 64 3e 99 aa 84 3e b4 67 d7 3e 2c 37 c5 be
       0.22342558 0.25911406 0.42071307 -0.38518655
0002d0 f7 0e 06 3f 49 44 23 be 7a 06 4c be 7d 17 2d 3e
       0.52366585 -0.15944017 -0.19924346 0.16903491
0002e0 5b f4 06 be 6c 3b 35 3e d7 3a b2 3e 32 95 fe 3e
       -0.13179152 0.17698449 0.34810516 0.49723202
0002f0 b1 6f 1b be 87 aa a2 3e bc 53 c5 3e 93 e9 78 3f
       -0.15179326 0.31770727 0.38540447 0.97231406
000300 6a ce 55 bd 49 b7 ad be fe cb 03 3e bf 44 1e 3d
       -0.052198805 -0.33928898 0.12870786 0.03863978
000310 e4 c6 ca be 15 cf a0 bd aa 3b fa 3e 77 73 03 3e
       -0.39604867 -0.07851998 0.48873645 0.12837015
000320 87 4b 9d 3e 21 96 85 bd d0 32 a6 39 75 1c cf 3e
       0.30721685 -0.065227754 0.00031699846 0.40451398
000330 ad 59 f3 bd f5 38 83 bc fe b4 d2 bd 10 13 9a 3e
       -0.11882339 -0.01601837 -0.10288428 0.3009267
000340 24 d6 30 be 27 a6 a8 bd b7 1b ba be ed cb c6 3e
       -0.17269188 -0.08234816 -0.3634927 0.38827458
000350 6d b9 2d be 98 3d 13 bc 1d d0 22 3e e7 fd c3 3e
       -0.16965266 -0.008986853 0.15899701 0.3827965
000360 f5 ae 6d 3e 73 cc 07 3e 87 7a 48 be 1e 04 48 3e
       0.23211272 0.13261585 -0.1957799 0.1953282
000370 99 03 3e 39 ce 3e 02 be 2c 76 3e be ff a0 74 be
       0.00018121152 -0.1271927 -0.18599766 -0.2388954
000380 3c 2c 41 3e de ff 1f be e7 08 2d 3b b6 21 22 bd
       0.1886453 -0.1562495 0.0026403011 -0.03958293
000390 ed f6 61 be 3e ad 0c bf a9 68 16 bd 90 79 cd 3e
       -0.22066851 -0.54951847 -0.036720905 0.40131807
0003a0 8f be 41 be b8 2f 83 be 87 6c 0b 3e e3 0f 47 be
       -0.18920349 -0.25622344 0.13615619 -0.19439654
0003b0 81 7d ca 3e a9 94 50 be 17 ef 0d bf 1a d1 40 3f
       0.39548877 -0.2036921 -0.5544295 0.75319064
0003c0 10 da e0 bd aa 84 7c be e7 b3 86 3e 91 94 2b 3e
       -0.10979092 -0.24659982 0.2630913 0.16755892
0003d0 bc 7d 2d bd 59 ef d1 3d 30 19 00 3e 59 43 80 3e
       -0.042356238 0.1025073 0.12509608 0.25051382
0003e0 12 35 c1 3e 94 4b 3c be e6 a9 13 bd b0 f3 cf 3e
       0.37735802 -0.18388206 -0.0360507 0.40615606
0003f0 35 ef 64 be 59 8e 97 3e 00 51 89 be c8 df 8c be
       -0.22356875 0.2960079 -0.2681961 -0.27514482

conv_layers.1.att_src f4 [1, 1, 100]
000000 38 11 be bd 76 eb 92 3c e9 4c 05 3d 83 11 6d bd
       -0.09280628 0.017934542 0.03254405 -0.05787803
000010 a3 3b 8f bb cf 80 c3 bc 1f 54 10 3e f0 88 3a bd
       -0.004371123 -0.023865132 0.1409459 -0.04554075
000020 24 94 96 bc f4 68 d8 bd a8 bf 18 bc 3d 55 8e 3c
       -0.018381186 -0.10566893 -0.009323038 0.01737463
000030 a0 08 db 3d 59 86 56 bd bd 48 17 be 41 2a 52 3c
       0.106950045 -0.052374218 -0.14773841 0.012827457
000040 fa 84 55 3b 61 ed 02 3d b4 42 ba bd a9 f0 97 3d
       0.003258048 0.031964663 -0.09094754 0.07418949
000050 21 15 af bc fb 1e db bc 77 06 b6 bc 10 cd e8 bc
       -0.02137238 -0.026748171 -0.02221988 -0.028418094
000060 93 7d 8a 3d d2 ca 6b bd 82 dd ce 3d 55 e6 7a bb
       0.06762233 -0.05756647 0.10100843 -0.0038284261
000070 62 51 52 bd 0d 3c 26 3d a0 2d 3d bc 6f 0e c9 bd
       -0.051347144 0.040584613 -0.011546522 -0.09817206
000080 fd 5f 22 bd 15 19 29 3d 3c 3c 97 bd f1 e9 85 bb
       -0.039642323 0.041283686 -0.07384536 -0.004086726
000090 24 64 66 bc 04 ff 6b 3d a9 06 cd 3d 20 ea 3c bd
       -0.014061961 0.05761625 0.10011036 -0.046121716
0000a0 96 49 9c bd e9 88 a6 3d 9a f1 dc bd 46 5d 91 3c
       -0.07631223 0.08131582 -0.10788269 0.017744672
0000b0 3a e0 12 3d 42 87 ab 3d 5c fa 8e 3c 3f 09 99 3c
       0.03585837 0.08375408 0.017453365 0.018681167
0000c0 71 ef 61 3d 10 55 66 bd 52 2c ce bc 59 31 bf bc
       0.05515999 -0.056233466 -0.025167618 -0.02333896
0000d0 ac 1e 0a 3b 54 a3 fa bc a9 8c bb 3d 33 38 8d bd
       0.002107541 -0.030595459 0.09157688 -0.06895485
0000e0 5a a9 63 3d 8f 9b 66 bd 91 a2 0a bc 5c b6 cd 3d
       0.055581428 -0.056300696 -0.00846161 0.10044548
0000f0 bb e7 7c 3d 43 56 db bd c4 3a cd 3c 79 bc ca bc
       0.061744433 -0.107098125 0.025052436 -0.024748074
000100 63 85 38 3d 8b f5 48 bc 45 fc f7 3c c0 14 12 3d
       0.045049082 -0.012265573 0.030271659 0.03566432
000110 fc 62 0e bd a5 a2 aa bc 6b a7 42 3e 56 5f 90 bd
       -0.034762368 -0.020829508 0.19009177 -0.07049434
000120 65 00 ac bc e2 84 17 bd c5 dc 86 3d 80 24 89 ba
       -0.020996282 -0.03699196 0.06585077 -0.0010463148
000130 9f 5c de 3a d5 49 1e be 6d 0a e2 bc ae bb c0 3d
       0.0016964859 -0.15457852 -0.027592862 0.09410797
000140 dd 35 0f bd ec 9e a2 3c e6 94 04 bd e4 b8 c4 3d
       -0.034963477 0.01985117 -0.032368563 0.096055776
000150 78 96 a1 3d 3d 6d 33 bd d8 cd a9 bd f0 23 ec 3c
       0.07890028 -0.04380535 -0.08291215 0.02882573
000160 06 ef 65 3c 66 fd 14 3c 6f 6a 05 3c 19 d5 b8 bc
       0.014034038 0.009093618 0.0081430515 -0.02256255
000170 eb df 1a 3e 65 15 25 3d 0d 80 ca 3c 0a d4 a3 bc
       0.1512448 0.040303607 0.024719262 -0.019998569
000180 18 f0 90 3c 54 9f f5 3d 5d 5d c2 bb cd d6 4a 3b
       0.01769261 0.1199328 -0.00593154 0.0030950785

conv_layers.1.att_dst f4 [1, 1, 100]
000000 3b 11 ee 3e 9e 9d 9d be be 6b 6b be 1e ee c9 3e
       0.4649752 -0.30784315 -0.22990319 0.39439481
000010 74 0f 00 bd 45 8a 24 3f fe 87 35 3e 8d 36 42 bf
       -0.031264737 0.6427348 0.17727658 -0.7586449
000020 fa c6 a7 3c 37 da bb bd fd 41 93 be b0 38 e3 3d
       0.020480622 -0.091724806 -0.28761283 0.11094797
000030 75 30 ad be 4b 92 8c bd f5 96 f8 3e 7f 7e 87 be
       -0.33826032 -0.06863841 0.4855267 -0.26463696
000040 10 47 ab 3e 3d 02 1b 3d c0 3c b8 3e 08 b9 1f bf
       0.33452654 0.03784393 0.3598385 -0.6239171
000050 0a 1a 50 3f da 20 1f 3e ad c1 17 3d fc af 2e 3f
       0.8128973 0.15539876 0.037049938 0.6823728
000060 b9 2f 53 be 23 f2 a3 3e df 8f 47 3e d1 a8 c5 3d
       -0.20623673 0.32020673 0.19488476 0.0965134
000070 39 76 03 bf 5e 4c 08 3f 4c 09 c2 bf 43 0c b4 3e
       -0.5135227 0.5324153 -1.5159087 0.35165605
000080 9a 8c b8 bd 66 16 16 bf 40 1f 20 3f a1 e2 22 3f
       -0.090111926 -0.5862793 0.62547684 0.6362706
000090 45 c9 10 3e fb 64 40 be 32 8c 06 bf f8 2f 03 3e
       0.14139278 -0.18788521 -0.5255767 0.12811267
0000a0 9d 84 f6 bd 76 32 56 3f 55 68 2a bf 98 eb 96 3f
       -0.12037013 0.8367075 -0.6656545 1.1790648
0000b0 83 a2 60 bb 20 82 fd be b9 5a 2d 3e 5e 57 d3 3e
       -0.0034276552 -0.4951334 0.16929139 0.41277593
0000c0 9f 87 af be 74 dd a7 3e 2c bf 5a 3f d7 73 94 be
       -0.34283158 0.32786143 0.85447955 -0.2899463
0000d0 f5 07 ad be 02 14 d0 3e c5 4d 12 bf d7 35 d2 bd
       -0.33795133 0.40640265 -0.57149917 -0.102641754
0000e0 26 db dc bc 12 13 00 3e 46 7b 54 be cf 7e 8c 3f
       -0.026959967 0.12507275 -0.2075015 1.0976199
0000f0 e7 f0 55 3e 96 0b cd 3b d1 da 52 be 44 ca 50 bf
       0.20892678 0.0062574847 -0.20591284 -0.8155863
000100 ca ae e0 be a0 71 43 3d 84 01 42 be b3 87 37 3e
       -0.43883353 0.047715783 -0.1894589 0.17922859
000110 6e 66 29 be 5b 15 fd 3e b7 64 ad 3d 67 c6 2f 3f
       -0.1654298 0.49430355 0.084664755 0.6866211
000120 b6 18 a4 be 43 cc 84 bf 35 15 47 be 39 68 06 bf
       -0.32050103 -1.0374836 -0.19441684 -0.5250278
000130 de d8 d0 3e 3b 58 49 3e ab fa 05 bf 28 48 04 3f
       0.40790457 0.19662564 -0.52335614 0.516726
000140 26 ec 2a 3e 03 35 09 be ee 1a 39 3e f8 40 db be
       0.16691646 -0.13399129 0.18076679 -0.42823005
000150 29 47 99 3c 05 79 b9 be 82 c3 74 bf ce 4b a3 3e
       0.01871069 -0.36225143 -0.9561082 0.31893772
000160 af a8 01 3f 5e 65 fa 3d 6c 56 cc 3e 5b 9a 9e be
       0.50648016 0.122263655 0.39909685 -0.3097714
000170 70 59 42 3e 80 cf 72 3e 8b 60 83 be 88 e1 2c 3e
       0.1897943 0.23711967 -0.25659594 0.16882908
000180 19 61 bc bd 1e a0 d5 3c 29 2d 03 3e 03 e5 b7 3e
       -0.091982074 0.026077326 0.12810196 0.3591691

conv_layers.1.bias f4 [100]
000000 df e7 c8 bc ea 53 24 be a1 1b ac 3a 00 a8 78 bd
       -0.024524627 -0.16047636 0.0013130793 -0.060707092
000010 5f 43 ad 3d 89 6d ee 3d 0b 2b 1f bd e8 5d db 3b
       0.08460116 0.11641986 -0.03885941 0.006694544
000020 67 23 42 be 1e d7 11 3e 07 a9 fd bd a8 4c 84 bd
       -0.18958817 0.14242217 -0.12385755 -0.064599335
000030 8e 71 57 be 19 e4 e3 bc 72 9b f9 3d 7c a8 09 bd
       -0.21039411 -0.027818726 0.12187852 -0.033607945
000040 5d c6 81 3e 89 3d 0a bd 74 30 66 bd 18 94 06 3c
       0.25346652 -0.03375009 -0.056198552 0.008214019
000050 2c 42 1f bc 20 60 c4 bd dd 6b df bd fa de 64 3d
       -0.009720366 -0.09588647 -0.10909245 0.05587671
000060 a6 a5 c3 3d 8b b5 07 3e 3e 1d d7 bd 24 7d 5a be
       0.09553079 0.13252847 -0.105036244 -0.213368
000070 d3 66 99 bd 89 bf 97 bb 06 7d 0d 3e 82 b4 8f 3c
       -0.07490315 -0.004630987 0.13817224 0.017542128
000080 60 fa d8 3d e9 06 75 3c 2e 1f 0f 3e 2d 57 7e bc
       0.1059463 0.014955261 0.13976738 -0.015523714
000090 37 9f cd bd 99 cb 59 3d 02 b9 e6 bd ba 69 20 3b
       -0.100401334 0.05317268 -0.11265756 0.002447708
0000a0 35 42 51 3d 69 db 1b be fb 1b af 3d ef 40 c3 3d
       0.05108853 -0.15220417 0.08550259 0.095338695
0000b0 9f b0 a0 bd f3 b1 a0 3d 8d cb 33 be cd aa d3 3d
       -0.07846188 0.07846441 -0.17558117 0.10335312
0000c0 d4 f4 40 3e 80 d0 9c bd fe 7f b0 bd 03 cd 10 3d
       0.18843395 -0.07656956 -0.086181626 0.035351764
0000d0 32 9d 3d bd 27 47 fd bd 5f bc 0e bc b1 e7 71 3d
       -0.04629249 -0.12367087 -0.008711903 0.05905885
0000e0 c1 d7 27 bc 51 77 92 3e 73 77 20 3d 39 da 2e 3e
       -0.010244311 0.28606656 0.039176416 0.17075433
0000f0 cf ff 81 3e 37 57 2e bd 7a 97 a6 bc f5 75 17 bd
       0.2539048 -0.042563643 -0.020335902 -0.036977727
000100 84 36 d4 3c 41 48 62 bd 73 87 f9 bb 32 a1 e2 3d
       0.025904901 -0.055244688 -0.0076150238 0.11065902
000110 74 2c f0 ba a6 ce 0c 3d 1c 53 0e 3d d7 4a 93 3e
       -0.0018323795 0.034376763 0.034747228 0.28768036
000120 08 79 91 bd 8c 63 37 bd 2e 58 85 3a 1d 88 0f 3c
       -0.07103163 -0.04477267 0.0010173374 0.008760479
000130 63 6c 1c bd 2d 27 d8 bd 0b 7c c3 3d ac b8 89 bc
       -0.038189303 -0.10554347 0.09545144 -0.016811691
000140 b5 7c bf 3b e6 8e 32 bd a5 11 d6 bd b2 bf f9 bc
       0.0058437237 -0.04359331 -0.10452584 -0.030486915
000150 6c 17 f3 bd dd 45 22 bd 49 68 0f 3d fe c0 2d be
       -0.11869702 -0.039617408 0.035011563 -0.16968152
000160 71 a3 50 be 99 77 fa 3c 12 7d 8f bd 35 95 35 be
       -0.20374848 0.030574607 -0.07006277 -0.17732699
000170 3d 23 cf bd e8 60 f1 3d 2c 04 a3 3d d3 ff eb bd
       -0.10114143 0.117860615 0.0795978 -0.11523404
000180 bd 46 d4 bc f9 86 92 bd 22 1c 15 3c 3b 97 32 3d
       -0.025912637 -0.0715465 0.009100946 0.043601256

conv_layers.1.lin_src.weight f4 [100, 100]
000000 9b 56 f8 3d 10 ac 41 3e 3d 25 8d 3e 5f 98 2b 3f
       0.12125894 0.18913293 0.27567473 0.67029375
000010 cf 2e 41 bd 89 3e 4b be af f3 48 3e a9 55 bb be
       -0.04716378 -0.19848074 0.19624208 -0.3658879
000020 36 2a c6 bc 79 ff 56 bf 38 f3 ac be 29 f3 89 be
       -0.02419005 -0.8398357 -0.3377931 -0.2694333
000030 61 18 be 3d 90 1d c4 bd d3 7c 2c bf 40 7b d5 3d
       0.09281994 -0.09575951 -0.67377967 0.10423899
000040 b3 a4 b1 bd 0f 39 93 3e 9e 77 23 be 85 62 19 3f
       -0.08673992 0.2875447 -0.15963599 0.59915954
000050 0d bb c9 3e 0b c6 89 be dc 66 f2 3e c3 a4 6a be
       0.3940052 -0.26908907 0.473441 -0.22914414
000060 77 21 84 3d 8b d7 9e be 1a 52 ee bd f6 5e 00 bf
       0.064516954 -0.3102382 -0.116367534 -0.501449
000070 33 57 2b bd 2f 4b a8 3e f4 71 a9 3c 12 1c 1f 3a
       -0.041831207 0.3286986 0.02068422 0.00060695515
000080 ba 3b ca bd 85 f7 09 bf 7e 44 5e 3e 34 3b 09 bf
       -0.09874673 -0.5389331 0.21705815 -0.5360596
000090 1c 8b 49 be f6 bd 7a bc 43 50 5e be 44 51 00 3e
       -0.19681972 -0.015304079 -0.21710305 0.12531
0000a0 96 1f 0f be e4 a6 06 bd 6c 1f 36 3e d9 fc b0 3c
       -0.13976893 -0.032874003 0.17785424 0.021604942
0000b0 0c ed bb bc af 0a cd be 44 3f bc 3d d2 8c 63 be
       -0.022940181 -0.40047213 0.091917545 -0.22221687
0000c0 0f c3 05 3e 1d c4 b8 3d 5b 67 cd be 1b 5c e0 3e
       0.1306269 0.09021781 -0.40117916 0.4382027
0000d0 05 42 f5 3e 6f e6 a6 3c 95 57 df be 58 1d 19 be
       0.4790193 0.020373551 -0.43621507 -0.149526
0000e0 43 ad a3 3e 13 5d 6c be 30 64 d9 be 7f dc 70 be
       0.31968126 -0.2308238 -0.4245925 -0.23521613
0000f0 18 49 25 bf 31 af a1 be f8 56 5a be cc 0c 16 3f
       -0.6456466 -0.31578973 -0.21322238 0.58613276
000100 21 66 35 3c 69 00 6c 3e fb 3b c8 3e c6 15 06 3f
       0.011071713 0.23047031 0.3910826 0.52376974
000110 c0 a7 00 3f 92 e8 b0 be 3e 28 e0 bc ee c7 4a be
       0.50255966 -0.34552437 -0.027362939 -0.1980283
000120 58 55 37 3e 2d be 82 bd 0f 61 1a 3d 31 7a 0a 3e
       0.1790365 -0.063839294 0.03769022 0.13523175
000130 76 a4 56 3c 1e 77 8a 3e 6a c4 0f bf 20 9b 9b bd
       0.013100734 0.27044004 -0.5615908 -0.07597947
000140 8a fc 89 3c 1b fb 9f be 6f 52 fe bd 46 dd a0 be
       0.016844053 -0.31246266 -0.12418067 -0.31418818
000150 4c d1 c7 bc fc 12 79 3d 68 8e 11 3c 5b 28 98 3e
       -0.024391793 0.06080912 0.00888405 0.2971829
000160 ed 9e 87 be ae 62 26 bd 39 0a 67 bd 5f a1 de bd
       -0.26488438 -0.040621452 -0.056406233 -0.10870623
000170 23 5c f2 3d 8a ac de bd fb e9 65 3e 45 92 8d bd
       0.1183398 -0.10872753 0.22452538 -0.06912664
000180 b4 71 ff 3d 1e 12 76 be c7 19 20 3e bc 35 98 be
       0.12472859 -0.24030349 0.15634833 -0.29728496
000190 87 48 a2 3d f3 26 d8 be 84 f7 74 be b8 f7 3f 3d
       0.0792399 -0.42217216 -0.23922545 0.046867102
0001a0 b5 0b 73 be 61 c4 8a 3e 47 42 b8 bd 81 2e a7 bd
       -0.23734935 0.2710295 -0.089970164 -0.08163167
0001b0 45 62 80 be 69 03 78 3e 19 56 7d 3d 4e 36 9d 3d
       -0.25074974 0.24220051 0.061849687 0.076763734
0001c0 b7 3c 69 bd 6e c8 41 3d e9 ca 30 3e 2c 53 a8 be
       -0.056942668 0.047310285 0.17264904 -0.32875955
0001d0 e4 e5 ea 3d bf b3 01 bd d3 7e d2 be be 1a db bb
       0.114696294 -0.03166556 -0.41112384 -0.0066865375
0001e0 0c 1e 0d be e6 01 98 be fb b5 87 be 8d 3d 82 3d
       -0.13780993 -0.29688948 -0.26506028 0.06359396
0001f0 94 f0 5f 3d 5c ad fc 3d b6 6f 14 bd 8b d5 94 3d
       0.054672793 0.12337753 -0.03623935 0.072672926
000200 12 5c 23 3e bb 44 62 3e ac 40 c8 3d c0 92 90 bd
       0.15953091 0.22096531 0.0977796 -0.0705924
000210 51 7d 91 bd 5f f3 d4 be 2e d9 8e bd a5 04 b4 3b
       -0.0710398 -0.41591927 -0.069750175 0.0054937177
000220 35 62 24 3d 84 7f a9 bd 15 8b 33 3e 2c 0d a4 be
       0.04013272 -0.08276275 0.17533524 -0.320413
000230 21 ff 82 3d a1 e4 cd 3e 69 63 67 3d 1c 99 30 3c
       0.06396318 0.40213493 0.05649129 0.010778692
000240 40 6f 1c be 99 19 6b 3d d2 ee 80 3d 3c 78 19 3e
       -0.15276814 0.05739746 0.06295551 0.14987272
000250 f9 d1 0a 3e 01 65 28 be ac 7f 02 be d6 cb 01 be
       0.1355666 -0.1644478 -0.12744015 -0.12675413
000260 0b 01 1a 3d 6f cc 37 be 51 19 5f 3e 87 48 9d 3d
       0.03759865 -0.17949079 0.21787001 0.07679849
000270 ae 2f 8f be a1 d5 7b 3e cc 4a 36 3e e6 9d aa 3e
       -0.27966064 0.24593212 0.1780197 0.33323592
000280 0c 7b a1 3e 4f 74 49 bc 35 07 b0 3e 23 6e cf 3c
       0.3153919 -0.012295797 0.343805 0.025321072
000290 cb 84 a2 be 53 92 1b 3e 37 98 d6 3d a8 a9 a2 3e
       -0.31741938 0.15192537 0.104782514 0.31770062
0002a0 65 d0 ea be db 93 16 3e 7f 6a 83 bd e9 a7 69 3d
       -0.45862117 0.1470484 -0.06416797 0.057044897
0002b0 a9 bc 71 bc b0 8e 49 bd 75 45 ef be 94 03 a0 3e
       -0.014754453 -0.049208343 -0.4673268 0.3125273
0002c0 15 69 d6 3e e7 0e d0 3e dd 63 b7 3d a1 ed 13 3d
       0.41877046 0.4063637 0.08954594 0.036115292
0002d0 5d 4f 93 be aa 9f ee 3d 8c e8 01 be 7c 72 3d 3d
       -0.28771487 0.11651547 -0.12686366 0.04625176
0002e0 f8 b4 3b be 36 e2 65 bd 21 b7 ac bd ad f7 b6 be
       -0.18330753 -0.056123935 -0.084333666 -0.35735837
0002f0 65 d6 07 3f 0e 90 eb 3e 15 f2 94 3d c1 b2 17 bf
       0.53061515 0.46008343 0.07272736 -0.5925713
000300 53 b2 d4 3e 01 e2 ff 3e b2 7b d5 bd 9e fc e0 3d
       0.415423 0.49977115 -0.10423984 0.10985683
000310 19 3f 89 3d b4 03 85 be 76 3c 65 bd 0b da 8c 3e
       0.06701488 -0.25979388 -0.055965863 0.27510104
000320 75 82 e1 be ad b5 92 3e 4b 3f 3c be c8 ae fa bd
       -0.44044843 0.28654233 -0.1838352 -0.12240368
000330 9a d9 83 3d b0 22 1c 3e ce d7 84 bd 20 30 74 3d
       0.064379886 0.15247607 -0.06486474 0.059616208
000340 45 e4 8a bd e7 c8 23 3d ff 1a b6 3e 07 6c 60 3e
       -0.0678182 0.039986517 0.3556747 0.21916209
000350 6b 35 59 3b 73 52 98 3e 5f 34 b4 bb a1 f0 eb bd
       0.0033143412 0.29750404 -0.005499407 -0.11520506
000360 10 a8 fd bd f3 b5 a0 bd fa 3b c2 be 9e 59 e0 3d
       -0.12385571 -0.07847204 -0.37936383 0.10954593
000370 2b 8b ce 3e 29 42 27 be 3b 44 02 3e d0 2f 3c bc
       0.40340552 -0.16333832 0.1272134 -0.011486009
000380 7d 9a 95 3e 1d db c5 3e ad 28 8c be 38 d9 7f 3e
       0.29219428 0.38643733 -0.27374783 0.24985206
000390 97 23 81 be b3 74 e7 bc 04 49 40 3d 9c c3 28 3c
       -0.25222465 -0.028253889 0.046944633 0.010300543
0003a0 97 74 dc 3e a6 de 00 3d 5c 2e ab 3e 43 c0 16 3e
       0.430577 0.031462334 0.33433807 0.1472178
0003b0 f7 c7 c7 be ac 80 2e 3e be c5 a5 be d1 e3 d8 3d
       -0.3901975 0.17041272 -0.32377428 0.105903275
0003c0 20 ef e1 3d 3d 21 39 3d 46 1b ec 3e 47 52 ac 3d
       0.110319376 0.045197714 0.46114558 0.08414131
0003d0 b4 62 c0 3e 8e a4 cc 3d de 4b 52 bd 6e 39 31 3e
       0.37575305 0.09992324 -0.051341884 0.17307064
0003e0 21 ed cf 3e 3e 87 9d 3c 53 0c 1a 3f 38 c9 d7 3e
       0.40610602 0.019229528 0.60175055 0.42145705
0003f0 ef 43 bb 3e b8 7f 08 be 8a cc ec 3c d4 3e d6 3e
       0.36575267 -0.13329971 0.028906126 0.4184481

conv_layers.1.lin_dst.weight f4 [100, 100]
000000 9b 56 f8 3d 10 ac 41 3e 3d 25 8d 3e 5f 98 2b 3f
       0.12125894 0.18913293 0.27567473 0.67029375
000010 cf 2e 41 bd 89 3e 4b be af f3 48 3e a9 55 bb be
       -0.04716378 -0.19848074 0.19624208 -0.3658879
000020 36 2a c6 bc 79 ff 56 bf 38 f3 ac be 29 f3 89 be
       -0.02419005 -0.8398357 -0.3377931 -0.2694333
000030 61 18 be 3d 90 1d c4 bd d3 7c 2c bf 40 7b d5 3d
       0.09281994 -0.09575951 -0.67377967 0.10423899
000040 b3 a4 b1 bd 0f 39 93 3e 9e 77 23 be 85 62 19 3f
       -0.08673992 0.2875447 -0.15963599 0.59915954
000050 0d bb c9 3e 0b c6 89 be dc 66 f2 3e c3 a4 6a be
       0.3940052 -0.26908907 0.473441 -0.22914414
000060 77 21 84 3d 8b d7 9e be 1a 52 ee bd f6 5e 00 bf
       0.064516954 -0.3102382 -0.116367534 -0.501449
000070 33 57 2b bd 2f 4b a8 3e f4 71 a9 3c 12 1c 1f 3a
       -0.041831207 0.3286986 0.02068422 0.00060695515
000080 ba 3b ca bd 85 f7 09 bf 7e 44 5e 3e 34 3b 09 bf
       -0.09874673 -0.5389331 0.21705815 -0.5360596
000090 1c 8b 49 be f6 bd 7a bc 43 50 5e be 44 51 00 3e
       -0.19681972 -0.015304079 -0.21710305 0.12531
0000a0 96 1f 0f be e4 a6 06 bd 6c 1f 36 3e d9 fc b0 3c
       -0.13976893 -0.032874003 0.17785424 0.021604942
0000b0 0c ed bb bc af 0a cd be 44 3f bc 3d d2 8c 63 be
       -0.022940181 -0.40047213 0.091917545 -0.22221687
0000c0 0f c3 05 3e 1d c4 b8 3d 5b 67 cd be 1b 5c e0 3e
       0.1306269 0.09021781 -0.40117916 0.4382027
0000d0 05 42 f5 3e 6f e6 a6 3c 95 57 df be 58 1d 19 be
       0.4790193 0.020373551 -0.43621507 -0.149526
0000e0 43 ad a3 3e 13 5d 6c be 30 64 d9 be 7f dc 70 be
       0.31968126 -0.2308238 -0.4245925 -0.23521613
0000f0 18 49 25 bf 31 af a1 be f8 56 5a be cc 0c 16 3f
       -0.6456466 -0.31578973 -0.21322238 0.58613276
000100 21 66 35 3c 69 00 6c 3e fb 3b c8 3e c6 15 06 3f
       0.011071713 0.23047031 0.3910826 0.52376974
000110 c0 a7 00 3f 92 e8 b0 be 3e 28 e0 bc ee c7 4a be
       0.50255966 -0.34552437 -0.027362939 -0.1980283
000120 58 55 37 3e 2d be 82 bd 0f 61 1a 3d 31 7a 0a 3e
       0.1790365 -0.063839294 0.03769022 0.13523175
000130 76 a4 56 3c 1e 77 8a 3e 6a c4 0f bf 20 9b 9b bd
       0.013100734 0.27044004 -0.5615908 -0.07597947
000140 8a fc 89 3c 1b fb 9f be 6f 52 fe bd 46 dd a0 be
       0.016844053 -0.31246266 -0.12418067 -0.31418818
000150 4c d1 c7 bc fc 12 79 3d 68 8e 11 3c 5b 28 98 3e
       -0.024391793 0.06080912 0.00888405 0.2971829
000160 ed 9e 87 be ae 62 26 bd 39 0a 67 bd 5f a1 de bd
       -0.26488438 -0.040621452 -0.056406233 -0.10870623
000170 23 5c f2 3d 8a ac de bd fb e9 65 3e 45 92 8d bd
       0.1183398 -0.10872753 0.22452538 -0.06912664
000180 b4 71 ff 3d 1e 12 76 be c7 19 20 3e bc 35 98 be
       0.12472859 -0.24030349 0.15634833 -0.29728496
000190 87 48 a2 3d f3 26 d8 be 84 f7 74 be b8 f7 3f 3d
       0.0792399 -0.42217216 -0.23922545 0.046867102
0001a0 b5 0b 73 be 61 c4 8a 3e 47 42 b8 bd 81 2e a7 bd
       -0.23734935 0.2710295 -0.089970164 -0.08163167
0001b0 45 62 80 be 69 03 78 3e 19 56 7d 3d 4e 36 9d 3d
       -0.25074974 0.24220051 0.061849687 0.076763734
0001c0 b7 3c 69 bd 6e c8 41 3d e9 ca 30 3e 2c 53 a8 be
       -0.056942668 0.047310285 0.17264904 -0.32875955
0001d0 e4 e5 ea 3d bf b3 01 bd d3 7e d2 be be 1a db bb
       0.114696294 -0.03166556 -0.41112384 -0.0066865375
0001e0 0c 1e 0d be e6 01 98 be fb b5 87 be 8d 3d 82 3d
       -0.13780993 -0.29688948 -0.26506028 0.06359396
0001f0 94 f0 5f 3d 5c ad fc 3d b6 6f 14 bd 8b d5 94 3d
       0.054672793 0.12337753 -0.03623935 0.072672926
000200 12 5c 23 3e bb 44 62 3e ac 40 c8 3d c0 92 90 bd
       0.15953091 0.22096531 0.0977796 -0.0705924
000210 51 7d 91 bd 5f f3 d4 be 2e d9 8e bd a5 04 b4 3b
       -0.0710398 -0.41591927 -0.069750175 0.0054937177
000220 35 62 24 3d 84 7f a9 bd 15 8b 33 3e 2c 0d a4 be
       0.04013272 -0.08276275 0.17533524 -0.320413
000230 21 ff 82 3d a1 e4 cd 3e 69 63 67 3d 1c 99 30 3c
       0.06396318 0.40213493 0.05649129 0.010778692
000240 40 6f 1c be 99 19 6b 3d d2 ee 80 3d 3c 78 19 3e
       -0.15276814 0.05739746 0.06295551 0.14987272
000250 f9 d1 0a 3e 01 65 28 be ac 7f 02 be d6 cb 01 be
       0.1355666 -0.1644478 -0.12744015 -0.12675413
000260 0b 01 1a 3d 6f cc 37 be 51 19 5f 3e 87 48 9d 3d
       0.03759865 -0.17949079 0.21787001 0.07679849
000270 ae 2f 8f be a1 d5 7b 3e cc 4a 36 3e e6 9d aa 3e
       -0.27966064 0.24593212 0.1780197 0.33323592
000280 0c 7b a1 3e 4f 74 49 bc 35 07 b0 3e 23 6e cf 3c
       0.3153919 -0.012295797 0.343805 0.025321072
000290 cb 84 a2 be 53 92 1b 3e 37 98 d6 3d a8 a9 a2 3e
       -0.31741938 0.15192537 0.104782514 0.31770062
0002a0 65 d0 ea be db 93 16 3e 7f 6a 83 bd e9 a7 69 3d
       -0.45862117 0.1470484 -0.06416797 0.057044897
0002b0 a9 bc 71 bc b0 8e 49 bd 75 45 ef be 94 03 a0 3e
       -0.014754453 -0.049208343 -0.4673268 0.3125273
0002c0 15 69 d6 3e e7 0e d0 3e dd 63 b7 3d a1 ed 13 3d
       0.41877046 0.4063637 0.08954594 0.036115292
0002d0 5d 4f 93 be aa 9f ee 3d 8c e8 01 be 7c 72 3d 3d
       -0.28771487 0.11651547 -0.12686366 0.04625176
0002e0 f8 b4 3b be 36 e2 65 bd 21 b7 ac bd ad f7 b6 be
       -0.18330753 -0.056123935 -0.084333666 -0.35735837
0002f0 65 d6 07 3f 0e 90 eb 3e 15 f2 94 3d c1 b2 17 bf
       0.53061515 0.46008343 0.07272736 -0.5925713
000300 53 b2 d4 3e 01 e2 ff 3e b2 7b d5 bd 9e fc e0 3d
       0.415423 0.49977115 -0.10423984 0.10985683
000310 19 3f 89 3d b4 03 85 be 76 3c 65 bd 0b da 8c 3e
       0.06701488 -0.25979388 -0.055965863 0.27510104
000320 75 82 e1 be ad b5 92 3e 4b 3f 3c be c8 ae fa bd
       -0.44044843 0.28654233 -0.1838352 -0.12240368
000330 9a d9 83 3d b0 22 1c 3e ce d7 84 bd 20 30 74 3d
       0.064379886 0.15247607 -0.06486474 0.059616208
000340 45 e4 8a bd e7 c8 23 3d ff 1a b6 3e 07 6c 60 3e
       -0.0678182 0.039986517 0.3556747 0.21916209
000350 6b 35 59 3b 73 52 98 3e 5f 34 b4 bb a1 f0 eb bd
       0.0033143412 0.29750404 -0.005499407 -0.11520506
000360 10 a8 fd bd f3 b5 a0 bd fa 3b c2 be 9e 59 e0 3d
       -0.12385571 -0.07847204 -0.37936383 0.10954593
000370 2b 8b ce 3e 29 42 27 be 3b 44 02 3e d0 2f 3c bc
       0.40340552 -0.16333832 0.1272134 -0.011486009
000380 7d 9a 95 3e 1d db c5 3e ad 28 8c be 38 d9 7f 3e
       0.29219428 0.38643733 -0.27374783 0.24985206
000390 97 23 81 be b3 74 e7 bc 04 49 40 3d 9c c3 28 3c
       -0.25222465 -0.028253889 0.046944633 0.010300543
0003a0 97 74 dc 3e a6 de 00 3d 5c 2e ab 3e 43 c0 16 3e
       0.430577 0.031462334 0.33433807 0.1472178
0003b0 f7 c7 c7 be ac 80 2e 3e be c5 a5 be d1 e3 d8 3d
       -0.3901975 0.17041272 -0.32377428 0.105903275
0003c0 20 ef e1 3d 3d 21 39 3d 46 1b ec 3e 47 52 ac 3d
       0.110319376 0.045197714 0.46114558 0.08414131
0003d0 b4 62 c0 3e 8e a4 cc 3d de 4b 52 bd 6e 39 31 3e
       0.37575305 0.09992324 -0.051341884 0.17307064
0003e0 21 ed cf 3e 3e 87 9d 3c 53 0c 1a 3f 38 c9 d7 3e
       0.40610602 0.019229528 0.60175055 0.42145705
0003f0 ef 43 bb 3e b8 7f 08 be 8a cc ec 3c d4 3e d6 3e
       0.36575267 -0.13329971 0.028906126 0.4184481
